hw1/model.pth (torch, 3916 bytes, 2 tensors)

linear_layer.weight f4 [2, 300]
00000000: ff05 2540 504c e23f 53ff c540 419d b2be
00000010: 4a31 3cbf 5519 2841 be1b e13f d4d3 903e
00000020: 57bf bd3d 229f ccbd 6e9a 06bf 12ed 0240
00000030: fb5b dd3f a1f1 a53f 1c77 65bf 8714 07c0
00000040: 991a db3f 7805 35c0 185e e43e 8924 f0bf
00000050: 3eb8 0f3f 52f6 e8be c45e 5bc0 eab2 f0c0
00000060: 1732 2340 28c7 763f 84bf 02bf 42c3 423e
00000070: 7bee 59bf ea02 e43f 0795 19bf 12f0 69bf
00000080: 395d 12bf 7b3e 82c0 1e1d c03e 752d 00c0
00000090: d9ff 8440 2f92 dc40 3b7c 473f 15a6 0140
000000a0: 5466 173e 3108 0940 e3a4 843f 4d58 28c1
000000b0: 2ba6 5640 80eb cbc0 e572 1cc0 0d11 8040
000000c0: e76b 51c0 161c 1940 c6f1 07c0 5dc5 72c0
000000d0: 76b8 873f 741b 55bf 3783 4cbe d429 e9bf
000000e0: d59e c93e 89e7 0cc0 1968 4140 ef30 56c0
000000f0: 463b bd40 ead1 15bf ce8e ca3f 0a90 febf
00000100: 5547 0840 88f2 94c0 af0a 893f 7b5b 6740
00000110: 32c5 16bf 57ed 80c0 b0f5 27bf 97dc 1ec0
00000120: 4b33 7cc0 706a b0bb 8a08 14c0 eaba 1d40
00000130: 1afb 2dc0 97a4 23c0 6c2f fd3f c341 08c0
00000140: 6401 6040 9622 e5bd 609f 8dc0 f8b2 20bf
00000150: 6655 14c0 7d55 453f 2c6e 7a40 d32e 593f
00000160: dd67 9a40 6b01 6d40 4dd5 b8be 43f8 b0be
00000170: 0542 10c0 52b7 6dc0 a3fa 8740 a876 f8bf
00000180: ead4 0c40 304e aa40 bdbf ca3f 4155 1c41
00000190: 1bc8 6d40 18e5 2bbd 7620 5b40 0f3f c5bf
000001a0: c432 6840 f1b7 3dbf 2d38 ef3e 5287 0cc0
000001b0: f4e0 6340 cdae 2340 1be5 09c0 65b4 7dc0
000001c0: f9b9 7240 1031 44c0 94fa c5be 165b 92c0
000001d0: 78e5 e340 6ae7 cb3f 2134 a83f 494a d23f
000001e0: 0061 133f 6b06 d2c0 38c4 85bf 3da2 c4bf
000001f0: 6c91 74bc e237 3fbf f7f0 0540 50dc 2bc0
00000200: 5c71 2440 2c7c fdbe ca9f 37c0 ecf5 2fc0
00000210: 5525 3c3f 6cea 2540 448f efbf 0939 1a3e
00000220: a265 ff3f c046 47c0 a532 d0bf 0e2e e6c0
00000230: 83f7 d73f 88a1 34c0 a654 3e40 3ac7 2040
00000240: 3486 c140 cc5e 24c0 038f 1ac0 2e44 c2bf
00000250: 6011 673f ae6e b53f 5b7b c8bf fc95 6dc0
00000260: 7b84 4f3f f6bc 4a40 baa3 e13f aa39 cc3f
00000270: 1a34 91bf 21c8 10c0 717f 963f 7b24 8a3f
00000280: 6ee5 50c0 a240 83bf 8498 5540 5854 1dbf
00000290: fffb 0fbf 98b7 0d40 be23 0d3f a26d 37c0
000002a0: c86d e93f 5d01 eac0 1d9f 573f ecc2 e1bf
000002b0: 1527 5bc0 bc25 c03e 669e c53f 29b7 5b3f
000002c0: b68d 4740 e7d2 66c0 961e e440 86de 9b40
000002d0: 43bc 0d40 ed80 ebbf b46b 8440 2b61 2841
000002e0: cd2b f5bf bc24 eb40 622d a2bf 9ea1 ac3f
000002f0: 9f54 b83f 09ee 88bf 6eef 333e db8a eac0
00000300: d301 59c0 963c 0d41 ee58 1540 fefc 6e40
00000310: 0acc 873f 6737 5940 3740 1040 d341 9fbe
00000320: ff9b 14c0 cf05 b9bf a5f4 edbf 058e 08c0
00000330: 75b8 b13f 3421 5c40 51a8 b5bd b8e4 313f
00000340: ce0a b2c0 3d3a 58c0 8804 3b40 386b 84c0
00000350: 68a2 f440 80c0 b5c0 dfc9 593f 06d3 9f40
00000360: 4f0f b73e f7e3 833d 8122 b83f 42d5 1ec0
00000370: 65eb c3c0 04c4 aebf 3e32 11c0 0a81 bc40
00000380: 78fb 2a3f 3034 0bbd 9a1a 953f c6d4 24bf
00000390: a70a 2040 fd63 3540 fd01 aa40 16cc 133e
000003a0: 87cc afbf 2034 3ac0 f3a8 2dbf d9b0 e6bf
000003b0: b15d b240 53d9 d53f 7f8a 0640 6704 25c0
000003c0: 692c 19bf c427 e340 23f3 3440 e333 24c0
000003d0: eac4 6c3e 05d7 f0c0 c00a a840 22c1 1740
000003e0: 0c3c 80c0 4e50 0440 e443 623f a338 62c0
000003f0: 3d64 3fbf c342 b0bf 8da6 07c0 ab68 13c0
2.578491 1.7679539 6.1874175 -0.348856 -0.7351271 10.506185 1.7586591 0.28286612
0.09265011 -0.0999129 -0.5257939 2.0457196 1.7293695 1.2964364 -0.8963487 -2.110628
1.7117492 -2.8284588 0.44603038 -1.876115 0.56140506 -0.45500427 -3.427659 -7.52184
2.5499322 0.9639764 -0.5107348 0.19019797 -0.8512952 1.7813389 -0.5999302 -0.91381943
-0.57173496 -4.070127 0.37522215 -2.0027745 4.1562314 6.8928447 0.77923936 2.0257618
0.14785129 2.141125 1.036282 -10.521558 3.353892 -6.3724976 -2.4445126 4.0020814
-3.2722108 2.3923392 -2.1241317 -3.793296 1.0603168 -0.83245015 -0.1997193 -1.821589
0.39378992 -2.2016318 3.0219786 -3.3467367 5.9134855 -0.5852343 1.582483 -1.9887707
2.1293538 -4.654606 1.0706385 3.6149585 -0.58894646 -4.028972 -0.65609264 -2.4822137
-3.9406307 -0.005383782 -2.3130212 2.4645333 -2.718451 -2.5569208 1.9780097 -2.1290138
3.5000849 -0.11188237 -4.425705 -0.62773085 -2.3177123 0.7708357 3.9129744 0.84837073
4.8251786 3.7032115 -0.36100236 -0.3456441 -2.2540295 -3.714314 4.2493453 -1.9411211
2.2004952 5.3220444 1.5839764 9.770814 3.7153385 -0.041966528 3.4238563 -1.5409869
3.6280985 -0.741088 0.46722546 -2.1957593 3.560605 2.557544 -2.1546085 -3.9641354
3.7926009 -3.0654945 -0.38667738 -4.573619 7.1217613 1.5929997 1.3140908 1.642892
0.57569885 -6.5632834 -1.0450506 -1.5362011 -0.014927249 -0.74694645 2.0928323 -2.6853218
2.569419 -0.49508798 -2.8691278 -2.7493849 0.73494464 2.592433 -1.8715596 0.1506082
1.9952891 -3.1136932 -1.6265455 -7.193122 1.687241 -2.822359 2.9739165 2.5121598
6.047632 -2.568286 -2.4149787 -1.5177057 0.9026089 1.4174402 -1.5662645 -3.7122793
0.81061524 3.1677833 1.762809 1.5955098 -1.1344025 -2.262215 1.1757642 1.0792383
-3.2640033 -1.0254099 3.3374338 -0.61456823 -0.5624389 2.2143307 0.55132663 -2.8660665
1.8236628 -7.3126664 0.8422716 -1.763761 -3.4242604 0.3752879 1.5438964 0.85826355
3.1180243 -3.6066225 7.1287336 4.8709135 2.2146156 -1.839872 4.1381474 10.523723
-1.9153992 7.348234 -1.26701 1.3486822 1.4400824 -1.0697643 0.17571804 -7.32945
-3.3907363 8.8272915 2.3335528 3.7341914 1.0609143 3.3940065 2.2539194 -0.31104907
-2.3220212 -1.4454898 -1.8590285 -2.1336682 1.3884417 3.4395266 -0.088699944 0.6948962
-5.563819 -3.3785546 2.9221516 -4.138088 7.644825 -5.6797485 0.85073656 4.9945097
0.35753867 0.06439965 1.438553 -2.4817662 -6.1224847 -1.3653569 -2.2686915 5.890752
0.6678996 -0.033985317 1.1648743 -0.64387167 2.5006502 2.8342278 5.3127427 0.14433321
-1.3734292 -2.9094315 -0.6783592 -1.802272 5.573937 1.6706947 2.1022031 -2.5783937
-0.5983339 7.098604 2.82734 -2.565667 0.23121992 -7.5262475 5.2513123 2.371163
-4.00733 2.0674014 0.8838484 -3.5347068 -0.74762326 -1.3770374 -2.1195405 -2.3032634

linear_layer.bias f4 [2]
00000000: dd09 87be 1cfc 733e
-0.26374713 0.23826641
