hw2/model.pth (torch, 1932 bytes, 2 tensors)

linear_layer.weight f4 [2, 50]
000000 8f d3 da 3f 2d 6c 04 3f b7 29 83 be f0 1c 80 be
       1.7095813 0.51727563 -0.25617763 -0.25022078
000010 3d 6a 31 be 40 b8 6f bf 70 32 62 3e e1 7a 1e 3f
       -0.17325683 -0.9364052 0.22089553 0.6190625
000020 55 d7 0b 40 46 84 8c 3f ff b0 cb 3f 09 4a 6e bf
       2.1850178 1.0977867 1.591339 -0.9308172
000030 c7 b3 7f 3e f8 79 04 bf 70 d9 33 3f 29 02 80 bf
       0.24970923 -0.5174861 0.7025366 -1.0000659
000040 28 a1 35 3f 22 3f 94 bf 00 fa d4 bd 42 65 f4 be
       0.7094903 -1.1581767 -0.10399246 -0.47733504
000050 8f 89 53 bf 29 8c 65 3e 99 31 ad 3f f1 a5 8e 3d
       -0.8263177 0.22416748 1.3530761 0.069652446
000060 f8 4f 8b 3e 6b 64 14 3c 1d 2b 77 be 33 24 60 be
       0.2720945 0.009057145 -0.2413754 -0.21888809
000070 3f ea e6 bf d3 d4 2c 3f 71 1c d1 3d 3e d8 20 3f
       -1.8040236 0.67512244 0.10210503 0.6282996
000080 da b5 82 3e ad 15 49 bf 2a de c3 bf 03 22 b1 3e
       0.25529367 -0.785487 -1.5302174 0.3459626
000090 18 c6 0d c0 99 ca e3 be 5a 0e 29 be c5 20 5b bf
       -2.2152157 -0.44490507 -0.16509381 -0.8559688
0000a0 d9 93 61 3e c0 cd 86 3f 3b 0a 98 bf 5d d3 c0 bf
       0.22029056 1.053154 -1.1878122 -1.5064503
0000b0 be eb 9f 3f 61 89 6a bf bd d8 ea bc 69 b6 01 40
       1.2493818 -0.91615874 -0.028667802 2.0267584
0000c0 62 df 08 bf 30 99 04 3f ef e7 de bf 96 b8 e8 be
       -0.53465855 0.51796246 -1.741453 -0.45453328
0000d0 66 a5 ea 3d 7b 0a fe 3e 96 65 3b 3e bf 02 83 3f
       0.114573285 0.4961737 0.1830047 1.0235213
0000e0 de e6 7a be 0b d9 09 bf bd 8e f9 bf cf a8 a6 bf
       -0.24502131 -0.53846806 -1.9496685 -1.3020266
0000f0 4f d1 ba bf af 5a 5c 3f 6c 1d d0 bd cd d2 f9 3e
       -1.4595126 0.8607587 -0.10161862 0.4879364
000100 80 4c 17 bf c2 5c 73 3f f6 62 f7 be 6a 31 8c 3f
       -0.59101105 0.9506341 -0.4831769 1.095258
000110 a1 f0 3d bd 79 aa db 3e 99 6b 63 3f 47 45 46 be
       -0.04637206 0.42903498 0.88836056 -0.19362365
000120 a3 20 a3 bf 63 8a bd bd fb 24 06 bf b8 55 3d be
       -1.2744335 -0.09254911 -0.5240018 -0.1848973
000130 42 b8 d9 3d 48 b9 43 3e f8 1a ef 3f 9d 81 32 bf
       0.106308475 0.19113648 1.8680105 -0.69729024
000140 6c 3b 42 bd 6e 47 58 bf be 91 91 bd d3 79 40 3f
       -0.04741995 -0.84483993 -0.07107876 0.7518589
000150 00 fa c8 3f 1b 92 95 be ac 5c 14 40 29 09 e6 3e
       1.5701294 -0.29213032 2.3181562 0.44928864
000160 17 9d df 3d 7a bf 5a 3f 6a 0d 1c be e0 53 90 bf
       0.109186344 0.8544842 -0.15239492 -1.1275597
000170 ce 72 aa 3f 21 4b dd 3f 86 95 a2 bf 8f 61 47 3f
       1.3316286 1.7288553 -1.2701881 0.7788324
000180 f3 8d 75 3e a9 25 03 c0 5e 6c 0e 3f 06 b2 3d bf
       0.2397993 -2.0491736 0.55634105 -0.7409977

linear_layer.bias f4 [2]
000000 e8 f7 89 3f 11 d0 8f bf
       1.077878 -1.1235372
