hw3/model_learned_at_0.0002.pth (torch, 110928 bytes, 4 tensors)

linears.0.weight f4 [512, 50]
000000 d4 80 dc bd 52 17 76 3d 07 59 e1 3c 39 56 6d 3e
       -0.107667595 0.060080834 0.027508272 0.23177423
000010 b0 00 4f 3d d9 ab 6a 3e 8e 36 67 bd 62 9c f6 bd
       0.050537765 0.22917117 -0.05644851 -0.120415464
000020 ac a8 37 be dc bb a4 be 15 8a 6f be 72 1d 75 3e
       -0.17935437 -0.32174575 -0.23392518 0.23937014
000030 36 5f 73 3d a7 e4 66 3e dd bb 14 be 19 f7 20 3e
       0.059416972 0.22548161 -0.14524789 0.1571926
000040 a7 63 96 bc 7b 48 54 3e 70 dc 9d bd c5 ca 81 3d
       -0.018358065 0.20730774 -0.07708061 0.06337503
000050 d3 98 56 3e 1c 68 65 bd 0d a9 a1 be 46 ba 0c 3e
       0.20956735 -0.05600749 -0.31574288 0.13742933
000060 85 d9 60 be 62 e4 bd bd f9 ba b5 bd 26 92 c6 3c
       -0.21957977 -0.09272076 -0.08873553 0.02423961
000070 b7 b7 80 3e 40 5f 8f be e8 b9 81 3d bd a1 90 be
       0.25140163 -0.28002357 0.06334287 -0.28248397
000080 fd 0b 8c 3d 1b 82 53 3e 8f 1d 1f 3e 1a df 70 3d
       0.06838224 0.206551 0.1553862 0.058806516
000090 a9 68 b3 3e 5e 6f 4a 3e 21 12 a1 ba 7d 35 81 3d
       0.35040787 0.19769046 -0.0012288728 0.0630903
0000a0 51 5b a6 bc 61 18 90 be e4 9c b2 3e 02 54 f5 3e
       -0.020307215 -0.281436 0.34885323 0.47915655
0000b0 4b 27 9e bd d6 72 53 3d ed 08 0d 3e 88 84 06 bf
       -0.07722338 0.051623188 0.13772936 -0.52545977
0000c0 e4 f6 22 3e d6 4b 4e be 30 0f 27 3e fb f5 4f 3d
       0.15914494 -0.20146117 0.16314387 0.050771695
0000d0 4d 14 22 be b8 47 e0 3b 21 f8 7c bd aa f3 15 be
       -0.15828057 0.006844487 -0.06176007 -0.14643732
0000e0 ab d3 6a 3d 64 5d 72 3e ba 8b ed 3e 78 a6 3b 3e
       0.05733077 0.23668438 0.46395665 0.18325222
0000f0 eb 67 f1 3e e8 e4 c6 be 53 c7 8a 3d ab 0d 8d be
       0.47149596 -0.38846517 0.06776299 -0.2754949
000100 75 c3 98 3e c1 cb 89 be 9c ba 97 3e 5c 4e af be
       0.29836622 -0.26913264 0.2963456 -0.3423947
000110 2d dc bd bd 1d 0c 1b be 82 6d 58 be 0c a0 f2 3d
       -0.09270511 -0.1514134 -0.21135524 0.11846933
000120 02 a3 e2 3e 6b 74 14 be 16 f4 51 bc 6c 1b 4e bd
       0.4426499 -0.14497535 -0.012814542 -0.05031912
000130 1c e4 9b bd 11 9c 53 bd 36 fb 59 be e8 2a 8e 3e
       -0.07611868 -0.05166251 -0.21287236 0.2776711
000140 a7 d7 3a 3a 48 a6 fe 3d e9 6f da 3d 5b 31 a1 be
       0.00071274716 0.124340594 0.106658764 -0.31482968
000150 5c 1e fb bd 5b 30 cc 3c 28 6b b5 be 84 75 75 be
       -0.1226165 0.024925401 -0.35433316 -0.2397061
000160 45 72 b1 bd 1d 96 00 be f4 50 92 3d c8 3b 96 3e
       -0.08664373 -0.12557264 0.07144347 0.29342484
000170 14 73 6f be 1b a2 b2 be bf 70 f9 3d 8d b1 76 be
       -0.23383743 -0.34889302 0.12179708 -0.24091168
000180 3d ff bb 3d 7b 69 21 3f 16 c0 38 be 7f 93 01 bc
       0.09179542 0.63051575 -0.18042025 -0.007908701
000190 60 e1 99 be a9 3f f1 bc 5a 8f d2 3c f7 98 d6 bb
       -0.3005476 -0.0294493 0.025703121 -0.0065489965
0001a0 bb a2 b0 3d c1 9f ab 3d f1 de fb bd ed 89 8d be
       0.086247884 0.0838008 -0.12298382 -0.27644292
0001b0 56 12 d0 be 6e 5d 9b be 62 6c 5d be 89 f0 7b 3e
       -0.4063899 -0.3034472 -0.21623376 0.24603476
0001c0 3f 33 6f 3c 4f 5c 61 3d 09 e8 95 be a5 00 0d 3e
       0.01459962 0.055019673 -0.2927859 0.13769777
0001d0 19 c4 ed bd 28 ca 86 3d 1a 10 6a bd 7a f4 42 bd
       -0.11609668 0.06581527 -0.057144262 -0.047596432
0001e0 a4 f9 88 3e 63 de c0 bd 98 46 80 be 35 99 88 bd
       0.2675296 -0.09417417 -0.2505386 -0.06669847
0001f0 3d a3 4d be c7 30 fa bd 47 0a ac bd 9b 10 71 bc
       -0.20081802 -0.12216335 -0.08400398 -0.014713432
000200 45 aa ab 3e b3 56 1c be 1e 5e 84 3d bb b6 f4 bd
       0.33528343 -0.15267448 0.06463264 -0.119489156
000210 3f 1d 14 be 52 23 91 3e ab 7e 10 3e f8 9f c1 bd
       -0.14464281 0.2834726 0.1411082 -0.0945434
000220 41 d9 57 3e 3b ab 46 bd 3c f3 11 3d 5c dc b3 3d
       0.2107897 -0.04850314 0.035632357 0.087822646
000230 92 f4 61 3c 64 87 b6 be 10 85 be 3e cb ad 6d 3e
       0.01379122 -0.3565017 0.37210894 0.23210828
000240 fb 12 46 be 35 b4 1a 3e 88 b8 e8 3d 38 00 d3 be
       -0.19343178 0.15107806 0.113633215 -0.41211104
000250 a1 85 68 3e a6 c4 59 be 0e 53 52 be a6 a8 09 be
       0.22707225 -0.21266422 -0.20539495 -0.1344324
000260 cc 6e f2 3c e7 04 ab bb d5 4a 5e 3e b4 f3 ac 3d
       0.029593848 -0.0052190903 0.21708234 0.0844492
000270 0b 13 8e 3d 2e c0 25 be 13 69 84 be f2 78 9d be
       0.06937226 -0.16186592 -0.25861415 -0.30756336
000280 0c 7b 85 be d1 73 8a 3e 5e b7 14 bc e5 46 97 3d
       -0.2607044 0.27041486 -0.009076921 0.07386569
000290 30 12 23 be 64 76 39 3e bc 61 5d be d5 b2 a8 3e
       -0.15924907 0.18111569 -0.21619314 0.32948938
0002a0 92 f1 15 3d a2 96 07 bd 81 ae 5e 3e a0 cb 61 bd
       0.036607333 -0.03310264 0.21746255 -0.055125833
0002b0 85 70 3a be 5d cb a3 bb ea 72 44 be 35 7e c1 bd
       -0.18206985 -0.004998608 -0.19184461 -0.094479
0002c0 19 a3 0c be 10 f8 1a 3e aa 16 ae 3e 84 e2 88 be
       -0.13734092 0.15133691 0.34001666 -0.26735318
0002d0 b9 8d fd bc 7f 84 d8 bd 8a a6 1c 38 aa 8b 20 3e
       -0.030951368 -0.105721466 3.73484e-05 0.15678278
0002e0 b6 67 86 3e 79 de e5 3c 59 3b d2 3e 5f 45 9d 3d
       0.26251 0.028060185 0.41060904 0.07679247
0002f0 54 69 1c bd 4c bd 18 3e c6 f1 86 bd d0 9c 9c be
       -0.038186386 0.14915961 -0.065890834 -0.30588388
000300 b8 29 bf 3e 38 a9 fa 3e f5 38 4c be 53 c4 cf 3d
       0.37336516 0.4895723 -0.19943602 0.10144868
000310 d6 72 2e 3d c1 75 14 bf 65 f3 10 3e 8c 20 8d bd
       0.042589985 -0.5799218 0.14155348 -0.068909734
000320 f9 fb e4 3d a4 98 40 3c ca ff 59 3d 53 b5 53 bd
       0.111808725 0.011755142 0.053222455 -0.051686596
000330 f1 13 b5 bd ae d7 99 be f5 30 ce bd cc 4d b8 3d
       -0.08841694 -0.30047363 -0.100679316 0.089992136
000340 fb d9 91 3e bb 6c 91 3e 99 7b f8 3e a7 3d 2e be
       0.28486618 0.28403267 0.48531798 -0.17015706
000350 6a 60 9c bd 22 96 9c be a9 6a 5e 3e 89 83 70 bd
       -0.07635577 -0.30583292 0.21720375 -0.05871919
000360 dc d7 24 3e fe 33 77 be 4f 3b 96 3d 29 01 ae bd
       0.16097969 -0.24140927 0.07335531 -0.08496315
000370 08 b1 cc be 58 c1 14 3e b0 c6 61 3e 40 fa a0 bd
       -0.39978814 0.1452688 0.2204845 -0.078602314
000380 fd 9a a7 bc a0 27 00 3e 47 2e 19 3e 56 65 83 bd
       -0.020459646 0.12515116 0.1495906 -0.06415813
000390 fc ad b6 be 90 2f 9e 3c db 54 2a bd f5 8c 8f 3e
       -0.35679615 0.019309789 -0.04158483 0.2803723
0003a0 d9 4a e7 3d d3 1c b7 bd 6c ba 10 be 31 17 86 3d
       0.11293573 -0.08941045 -0.14133614 0.06547392
0003b0 89 20 bb be 17 b5 4c be 7e 3e d9 bd 4e 58 84 be
       -0.3654826 -0.19990955 -0.106076226 -0.2584862
0003c0 24 7d f6 3d 06 99 4c 3e d7 74 af be 0c 7e f3 be
       0.120355874 0.19980249 -0.3426883 -0.47557104
0003d0 44 68 19 3e fb b0 64 be 2b 30 1e be 57 91 26 3f
       0.1498118 -0.22333138 -0.15448062 0.6506552
0003e0 e4 e7 0a be bd 79 5a 3e f9 d4 52 3e a2 86 95 bc
       -0.13565022 0.21335502 0.20589055 -0.018252674
0003f0 b8 e5 42 bd a9 57 27 be e1 52 10 be b9 87 99 be
       -0.047582358 -0.16342033 -0.14094116 -0.2998636

linears.0.bias f4 [512]
000000 39 88 f3 bd 4f f3 5b bd a2 1b cc 3d 8d e0 c7 bd
       -0.11891217 -0.053698834 0.09966208 -0.097596265
000010 d6 1f b0 bd 77 b6 06 3d 97 ff 4e bc 06 25 70 3d
       -0.08599822 0.032888856 -0.01263418 0.05862906
000020 27 bd 48 bd ef 13 54 3d b6 e0 9c bd 71 eb 79 3d
       -0.049008515 0.051776823 -0.07660048 0.06101555
000030 0f 48 3e 3d 66 e0 5e bd 2a 3d ce 3d 39 c5 9d 3d
       0.04645544 -0.05441322 0.1007026 0.07703633
000040 af f8 5e bd 07 fb e4 bd 1c af c5 3d 72 45 f7 bd
       -0.054436382 -0.11180692 0.0965254 -0.120737925
000050 01 e4 90 bc 2f b4 03 3d 80 74 8d 3c 7e 39 8c 3d
       -0.017686846 0.03215426 0.017267466 0.06846903
000060 cb b4 90 bd dd 09 ae 3b fa 23 ac bd dc 00 a6 3d
       -0.070657335 0.0053112344 -0.084052995 0.08105633
000070 ff 0d 4a 3d 4a 48 e5 3d 03 89 f2 3d a4 e7 b1 3d
       0.049329754 0.11195429 0.11842539 0.0868676
000080 cf 4b 7b 3d a0 b7 51 3c 1e 10 f7 bd 63 53 9f bd
       0.061351594 0.012800127 -0.12063621 -0.07779577
000090 1e 3a 97 bd 97 36 50 bd eb 0a 38 bd d1 d4 17 be
       -0.07384132 -0.05083331 -0.044932287 -0.14827277
0000a0 8d ba c9 3b 56 62 bd bd 2d 68 03 be 32 65 3a 3d
       0.006156272 -0.09247272 -0.12832709 0.045506664
0000b0 75 cd 02 be 65 4a 8e 3d 87 57 27 3c 35 15 52 3d
       -0.12773688 0.069477834 0.010213739 0.051289756
0000c0 8e 61 0c 3e ad 0c bb 3d 10 73 d9 bd 3f 57 f8 bb
       0.13709089 0.09133277 -0.106176496 -0.00757876
0000d0 7c ed 9b 3d 95 d7 f1 bd 9e 63 f1 bd ee a1 1f be
       0.07613656 -0.11808697 -0.117865786 -0.15589115
0000e0 33 dc 04 be 6e a3 b5 3d 95 b0 3a bd f0 8c 87 3d
       -0.12974624 0.08869062 -0.045578558 0.066186786
0000f0 52 87 a2 bd 5e de 3b bd 6c c5 0c bd 52 07 c1 3d
       -0.079359666 -0.045866363 -0.034367964 0.09425224
000100 bd f6 f5 3b f2 ff c5 bd 83 1e fe 3d 36 03 ef 3c
       0.00750622 -0.09667958 0.124081634 0.029176336
000110 5c 0d d9 3d d4 8c 1f 3c 5c f9 e8 bd 66 fc 7f 3d
       0.10598251 0.009738166 -0.113756865 0.062496565
000120 71 47 9d bd 23 e8 d3 bd c5 4a b6 bb e5 74 30 3d
       -0.07679642 -0.10347011 -0.0055631124 0.04308023
000130 fd af bf bd e3 da ee bc 4f 25 8e bd 81 64 ca 3d
       -0.09359739 -0.029157108 -0.0694071 0.09882451
000140 5b 87 8b 3a 9e 49 84 bc b8 d2 1b bd 24 92 75 bc
       0.0010645197 -0.016148385 -0.038042754 -0.014988456
000150 58 4b a0 3a 6e 1f f9 3a cd 58 8d bd b5 99 78 bd
       0.0012229485 0.0019006559 -0.06901703 -0.06069346
000160 a5 f2 ba bd ee 25 04 3e d6 b6 8f bd a0 62 0e 3e
       -0.09128312 0.12905094 -0.07017295 0.1390481
000170 60 60 97 bc d6 64 8c bd 5b 04 88 bd 14 8c 41 3c
       -0.018478572 -0.068551704 -0.06641456 0.011813182
000180 3b 32 bc bc 2a b3 42 3d 59 dd 8f bd d8 a0 bd 3d
       -0.02297317 0.047534145 -0.070246406 0.09259194
000190 de e1 7c 3c 92 bc 02 bd f1 89 99 bd ed e8 17 3d
       0.01543471 -0.031918116 -0.07497013 0.03708737
0001a0 b6 da 34 3c 5b 0a 22 bd d7 76 01 be b7 a7 87 3d
       0.011038473 -0.039560657 -0.1264299 0.06623786
0001b0 90 f0 0c 3d f9 90 68 3d 32 f4 e7 bd de 7b d0 3d
       0.034409106 0.05677888 -0.113258734 0.10179876
0001c0 05 6e dc 3d 03 0e db 3c a4 5f d8 3d fc 0d cd bd
       0.10763172 0.02674008 0.10565117 -0.10012433
0001d0 71 0a 95 3d ee 77 79 bd 96 88 6f 3d 92 35 84 3d
       0.07277382 -0.06090539 0.058479868 0.0645553
0001e0 1f fe 41 3d b9 e9 32 bd d4 87 a1 3d 19 4e db 3d
       0.04736149 -0.043679927 0.07887235 0.10708255
0001f0 1a 3f e1 bd 4f 4e fb 3d eb 0c 15 3d 57 99 7b 3d
       -0.10998364 0.122707956 0.036389273 0.061425533
000200 9c cb 78 3c e6 4d 07 bd 7f 96 3d bd 40 43 6e bb
       0.015185263 -0.033033274 -0.046286102 -0.0036356002
000210 b4 d8 07 be a1 2e 69 3d df 16 33 3d 27 d7 0b be
       -0.1326626 0.056929234 0.043722983 -0.13656293
000220 aa 0e a4 3d 3b 46 ca bd 3e 86 86 bd d0 76 fd 3d
       0.080106094 -0.09876677 -0.065685734 0.12376177
000230 2e 08 b2 bc c3 0f af 3d d2 8b 61 3d a9 f2 87 3c
       -0.021732416 0.08547928 0.055064984 0.016595202
000240 ba 3e 1a be 88 9c f0 3d cb c9 84 bd c4 9a ea bd
       -0.15062991 0.11748606 -0.064838015 -0.114553005
000250 06 10 75 bd 54 9e e8 3d 65 30 15 bd 05 33 a1 3d
       -0.059829734 0.11358324 -0.036423106 0.07871059
000260 dd 4f 6c 3a 06 17 16 bd a5 fe ff 3c 53 a7 a6 3d
       0.0009014586 -0.03664305 0.031249354 0.08137383
000270 73 b5 f9 3d 30 7b d3 b9 a1 e9 9f bb e8 e0 50 3c
       0.12192812 -0.00040336838 -0.0048801457 0.012748934
000280 6e 7b 84 bd 4a 1f 5a bd 4c 7f 72 3d 2d e9 be 3d
       -0.06468855 -0.053252496 0.05920343 0.093218185
000290 3f 7a 50 3b 39 8a 08 3c b6 61 0b be b2 f5 e5 bc
       0.0031811146 0.008333736 -0.13611493 -0.028071258
0002a0 fd fe 48 bd a4 a9 e9 bc 61 ff a6 bc 03 8c 80 3d
       -0.0490713 -0.028523274 -0.020385446 0.06276705
0002b0 a4 71 ca 3d f6 75 6b 3c 94 f5 86 3c 9c dd 87 bd
       0.098849565 0.014371386 0.016474523 -0.066340655
0002c0 56 52 bb bd d2 5b 1f be 42 36 0a bc 59 f0 22 3d
       -0.09146564 -0.1556237 -0.008435788 0.039779995
0002d0 5c fb dd 3d 44 d6 ad 3d 95 d6 f0 3a b6 d3 3b bd
       0.108389586 0.084881335 0.0018374497 -0.0458562
0002e0 84 c1 c7 3d 97 d6 dd bd a7 36 e0 bc 5e 25 67 3d
       0.09753707 -0.108319454 -0.02736981 0.05643212
0002f0 02 3f ce bd 0b ed c5 3d 43 5e 14 bd f5 3f 0e 3e
       -0.100706115 0.09664353 -0.036222707 0.13891585
000300 fd 55 90 bb f8 32 ca bd 26 a0 92 3d 3f 53 f9 bd
       -0.004404782 -0.09873003 0.07159452 -0.12174081
000310 21 cf d5 bd 01 bc cb bc 86 8c b5 3d 39 28 62 3c
       -0.10439897 -0.02486992 0.08864693 0.013803535
000320 e2 4a 11 3e 10 11 56 bd 88 26 69 bc 5c 14 97 bd
       0.14188722 -0.052262366 -0.014230378 -0.0737693
000330 c2 1e 11 3e dd 01 b3 3c 74 39 0e be 9f 30 09 3c
       0.1417189 0.021851474 -0.13889104 0.008373409
000340 36 56 e9 bd 62 40 2e bc 1c ca 44 3d 2e 31 b2 bd
       -0.113933966 -0.010635467 0.04804431 -0.087007865
000350 06 c2 0e be d8 d3 ed bc b4 1e d4 bd e8 2b de 3d
       -0.13941202 -0.029031679 -0.10357419 0.10848218
000360 6f 37 98 bd d4 46 e3 bc fc 76 e0 3d 63 2b ed bc
       -0.07432448 -0.027743734 0.109601945 -0.028951352
000370 6b cb a1 bc b2 60 27 be 30 d0 8e 3d af 38 de 3d
       -0.019750318 -0.1634548 0.06973302 0.10850655
000380 d4 9d 03 be fa dc f1 3d 50 ea a6 3d 9b 88 93 3d
       -0.12853175 0.11809726 0.0815016 0.0720379
000390 ab 27 9e bc 0f ba 9e bc 16 5b cb 3d 24 a7 8a 3d
       -0.019306025 -0.019375829 0.09929483 0.06770161
0003a0 95 38 bf bd 3e a3 87 bd c3 be 15 3e 30 f4 9f bd
       -0.09336964 -0.06622933 0.14623551 -0.07810247
0003b0 49 6a 8f bd 97 3d 9b bd 77 fa f8 3c 2e 40 17 bd
       -0.07002694 -0.07580107 0.030392868 -0.03692644
0003c0 79 ca 08 3e 32 e5 b9 bd 66 a6 6a 3d 0c 6f e2 bd
       0.13358487 -0.09076919 0.057287596 -0.11056337
0003d0 64 1f ff bd 60 85 0a be 36 4f 6e bc 76 c8 7a 3d
       -0.12457159 -0.13527441 -0.014545253 0.06122633
0003e0 2f f2 28 3d 95 b0 f8 3d 77 f4 90 3d 7c 44 a9 bc
       0.04124659 0.12143055 0.07077878 -0.020662539
0003f0 2f af 63 3d af 14 06 be 5a c9 07 3e 91 50 cd bd
       0.05558699 -0.13093828 0.13260403 -0.100251324

linears.1.weight f4 [2, 512]
000000 b3 d8 80 bd 65 1e 84 3d 34 92 64 bd 5c 77 c0 bd
       -0.06291332 0.0645111 -0.055803493 -0.09397766
000010 d5 33 58 3c fb 24 d8 3d 5b 98 42 3d 3d f9 a0 3d
       0.0131959515 0.105539285 0.04750858 0.078600384
000020 20 85 f5 3d 19 1b 86 3d 35 d8 c9 3d ee 1e 19 bd
       0.11988282 0.06548137 0.09855691 -0.037383012
000030 da 3c 8d 3d b8 8b 6e bd d7 fa 50 bd 0b 1f 03 bd
       0.06896372 -0.058238715 -0.05102047 -0.032012027
000040 61 05 a7 3d 84 21 1c bd 26 4b d6 3d c9 1a b0 3d
       0.08155323 -0.0381179 0.10463552 0.08598859
000050 f2 af 99 bd 35 e0 8b bd ae 5a 78 bd a9 38 11 bd
       -0.07504262 -0.068298735 -0.060633354 -0.035454426
000060 a9 83 8d bd e7 76 5c 3d 68 c0 e1 bc ef d9 5d 3d
       -0.06909878 0.05382433 -0.027557567 0.054162916
000070 f7 5f 44 3d 38 16 08 bd 0b 6a c9 3d 16 6e cf 3d
       0.04794308 -0.033224314 0.09834679 0.10128419
000080 e0 15 4d bd 75 2d 96 3d 88 6c 4c bd 18 61 65 3d
       -0.05006969 0.07332889 -0.04990819 0.0560008
000090 13 63 60 bd 5e ed 43 bd 12 1c d0 bd 7f 62 0a bd
       -0.054781985 -0.047833793 -0.10161604 -0.03378534
0000a0 60 0e 6b bd 4c 66 89 bd 46 76 83 bd 0e 87 64 bd
       -0.057386756 -0.06708965 -0.06419043 -0.05579286
0000b0 04 84 9e 3d 2b 1a d3 3d f6 e0 bc 3d e7 97 8b bd
       0.07740024 0.103077255 0.092225954 -0.068160824
0000c0 bf 57 ba 3d f8 14 ec 3d b2 4b 40 3d ff a6 80 bd
       0.090987675 0.11527437 0.04694719 -0.06281852
0000d0 ec 3e 98 3d 77 54 a3 3d da f7 93 3d 07 2e 8f bd
       0.074338764 0.07975095 0.07225008 -0.06991201
0000e0 e6 d7 8b 3c 1d 91 c9 3d bb 77 aa bd 2c 8f 9d 3d
       0.017070722 0.09842131 -0.08323618 0.076933235
0000f0 74 ae d0 bc f8 0b 30 3d 97 87 af bd 36 d5 9e bd
       -0.02547381 0.042980164 -0.085707836 -0.077555105
000100 97 60 98 3d 44 e0 23 bd 95 b2 a3 3d 93 54 30 3d
       0.07440298 -0.0400088 0.07993046 0.043049406
000110 98 5c 87 3b 99 78 a1 3d 53 9b a0 bd c5 be ce 3d
       0.004130911 0.0788433 -0.07842126 0.1009498
000120 ba 28 4f 3d 26 44 8d 3d c7 b6 81 bd e0 25 5f bd
       0.05057595 0.06897764 -0.0633369 -0.05447948
000130 d5 c6 8b bd 1b 6e 94 3d 0d 64 01 bd 91 76 f4 3c
       -0.068250336 0.072475635 -0.031589556 0.029841693
000140 ff d4 93 bd ee 38 c5 3d 26 9c cc 3d ab 75 88 3d
       -0.0721836 0.09629999 0.099907205 0.066630684
000150 ae 88 24 3d 9e e0 42 bd 94 37 86 bd 88 55 ca 3c
       0.04016941 -0.047577493 -0.065535694 0.024698988
000160 52 a7 80 3d 9d 1c 8b 3d f5 62 a7 bd a8 72 ce 3d
       0.06281914 0.06792567 -0.081731714 0.10080463
000170 0f e6 6a 3d 7b 9f 8e bd 39 95 90 3c f7 c2 da 3d
       0.057348307 -0.06964012 0.01764928 0.10681718
000180 27 7d 3f bd 8b 07 b5 3d 8c 9c 5e bd 3a 66 06 bc
       -0.046750214 0.08839329 -0.054348513 -0.008203084
000190 2a 03 9d bd b9 e4 3d 3d 48 e6 87 3d 16 54 34 3d
       -0.07666619 0.046360705 0.066357195 0.044025503
0001a0 1f fa 9a bd 66 2d 01 3d e7 b0 20 3d ba 40 96 bd
       -0.07567238 0.031537436 0.039231207 -0.07336564
0001b0 34 70 12 3d 5d e3 79 bc 90 b1 39 bd 9f 62 9a bd
       0.035751536 -0.015251962 -0.045335352 -0.07538342
0001c0 5b 9c 35 bd 70 ad 36 bd 2a 20 15 bd ae 9f c7 3d
       -0.044338565 -0.044598997 -0.036407627 0.09747253
0001d0 9c c0 a1 3d 1c 94 58 3d ab f0 82 3d d9 21 b6 bd
       0.078980654 0.052875623 0.0639356 -0.08893175
0001e0 c6 0a b2 3d 83 1d 2f 3d 68 45 d2 3d e6 82 3e 3d
       0.08693461 0.042752754 0.102671444 0.046511553
0001f0 1c 3b 35 3d 74 0c 75 bd 94 d0 8d 3d d7 2f 46 3d
       0.044245824 -0.05982633 0.06924549 0.048385467
000200 f2 f1 93 3d 31 51 0a bd 50 cf aa bd e0 e8 3c 3d
       0.07223882 -0.033768836 -0.08340323 0.046120524
000210 c0 ee b9 bd 4a 4d 3f bd b7 90 70 bd dc 24 5b bd
       -0.09078741 -0.046704568 -0.05873176 -0.05350195
000220 e1 09 be 3d 16 22 a9 3d 8c 61 43 3d 3c 65 91 3d
       0.09279228 0.082584545 0.04770045 0.07099387
000230 0e 24 ac 3d 99 32 b0 3d b4 24 53 3d 79 72 a4 3d
       0.084053144 0.08603401 0.051548675 0.080296464
000240 b6 6c 9b bd cf f2 a3 3d 6e b0 94 3d 8b a0 a9 bd
       -0.07589094 0.080052964 0.07260214 -0.08282574
000250 e3 05 a7 bd 8d 49 73 3d ec c4 95 3d 5f cb da 3d
       -0.0815542 0.059396315 0.073129505 0.10683321
000260 a5 b7 a7 bd 75 be f5 3d 27 81 81 bd 04 97 33 bd
       -0.08189324 0.119992174 -0.06323462 -0.04384519
000270 3c 85 6a 3d 37 f8 a0 3d 3f 83 58 3d 94 7c 2e bd
       0.05725597 0.07859843 0.05285954 -0.042599276
000280 43 93 aa bd 10 d3 4c bd 34 04 9b bd 81 30 c5 bd
       -0.08328869 -0.050005972 -0.07569161 -0.09628392
000290 bf fd 35 3d 0b a4 71 3d 9c 38 bd bd e7 69 19 3c
       0.044431444 0.058994334 -0.09239313 0.009363628
0002a0 b0 95 03 3e e9 97 bf 3d 9f a9 db 3c 19 eb 7c bd
       0.1285007 0.093551464 0.02681428 -0.061747644
0002b0 6e 94 87 3d e8 d9 3c bd 04 b5 15 bd ce 69 19 3d
       0.066201076 -0.04610625 -0.036549583 0.03745442
0002c0 85 cd 01 bd f8 2c 9f bd 58 fd 9b bd 90 c7 91 3d
       -0.03169014 -0.07772249 -0.07616681 0.07118142
0002d0 c3 b9 2f 3d 89 24 fa bc bf 49 8c bd ec b8 a7 bd
       0.042901766 -0.030535 -0.068500035 -0.08189568
0002e0 9d 21 61 3d 08 54 96 bd aa 6e b3 bd c9 51 b9 3d
       0.054963697 -0.073402464 -0.08761342 0.090488024
0002f0 7d c2 7b 3d d6 0a 88 bd 83 f7 42 bd 31 0a d0 3d
       0.061464775 -0.06642692 -0.047599327 0.10158194
000300 21 72 45 3d 70 2c 87 bd 17 b7 9b 3d e5 bc 78 bd
       0.048204545 -0.06600273 0.07603281 -0.06072702
000310 0e fc 8d 3d 2f f6 41 3d fc b6 ae 3d cd ba 42 bd
       0.06932841 0.04735392 0.08530995 -0.04754143
000320 bd 71 f7 3d ec af 7b 3d a4 98 8d 3d 60 e3 98 3d
       0.12082241 0.06144707 0.069138795 0.07465243
000330 da 82 88 bd 46 c4 78 3d 7f a5 89 3d 57 54 ae bd
       -0.06665583 0.060734056 0.06721019 -0.0851218
000340 a9 89 21 bd b0 2d 35 bd 1a 0d c1 3d d4 da 85 bd
       -0.039437924 -0.044233024 0.09426327 -0.06535879
000350 e8 d1 5f 3c f5 4b 34 3d 00 ac ad 3c 5a 11 5b bd
       0.013660885 0.04401775 0.02120018 -0.053483345
000360 0a 4e 19 bd f7 c3 2e bc 43 7e 9b bd 97 4a 13 3d
       -0.03742794 -0.010666839 -0.07592442 0.035959806
000370 d6 8d d5 3c c3 7b 13 bd f2 2b 84 bd 5e 9f d6 3d
       0.02606861 -0.0360067 -0.064536944 0.10479616
000380 0c 29 87 3d 78 e2 00 3d 6a 9a d6 3c c7 e5 6c 3d
       0.06599626 0.031465977 0.026196677 0.05783632
000390 79 35 88 bd 25 69 a0 bd a6 a2 a7 bd 0d 2a 64 bd
       -0.06650824 -0.07832555 -0.081853196 -0.055704165
0003a0 42 33 b1 bd d4 00 a9 3d 56 18 51 3d c8 84 7f bd
       -0.08652355 0.08252111 0.0510486 -0.06238249
0003b0 20 30 87 bd 23 3b eb 3d 7f 01 8a 3d 9b 25 30 3c
       -0.06600976 0.11485889 0.067385666 0.010751153
0003c0 e5 56 be 3d 70 6d 2c bd 58 b2 70 3d 1c bb f7 bc
       0.092939176 -0.042096555 0.05876383 -0.030240588
0003d0 24 f6 ab bd 3c 10 94 bd 76 82 23 bd ca 40 c2 3d
       -0.08396557 -0.07229659 -0.03991934 0.09485014
0003e0 73 d9 86 3d b1 88 c1 3d ae 94 91 3d 08 13 3a 3d
       0.06584444 0.094499 0.071084365 0.045428306
0003f0 c8 77 05 bd 93 e4 7b bd 43 08 b6 3d 67 1b ce 3d
       -0.032584935 -0.061497282 0.088882945 0.1006382

linears.1.bias f4 [2]
000000 8d b6 17 bd 37 81 84 3b
       -0.03703933 0.004043724
