hw3/model_learned_at_0.0005.pth (torch, 110928 bytes, 4 tensors)

linears.0.weight f4 [512, 50]
0	0xbe74a505	-0.23891075
1	0xbdc49532	-0.09598769
2	0x3daa0941	0.08302546
3	0x3df37b14	0.1188871
4	0x3e525b16	0.20542559
5	0x3ea2bc45	0.31784263
6	0xbe07e235	-0.13269885
7	0xbebc94ea	-0.36832362
8	0xbea84feb	-0.32873473
9	0xbebe1755	-0.37127176
10	0xbf078f0f	-0.52952665
11	0x3ed43445	0.41446128
12	0xbcea6efa	-0.02861737
13	0x3e2982e3	0.16553836
14	0xbe99f422	-0.3006907
15	0x3ea7eb6a	0.32796794
16	0xbe21608f	-0.1575949
17	0x3ea4f930	0.32221365
18	0xbc2f8778	-0.010713451
19	0x3c735bc5	0.0148534225
20	0x3e7036a8	0.2345835
21	0x3d9ba60b	0.076000296
22	0xbe0196d4	-0.12655193
23	0xbdcd5c6f	-0.10027396
24	0xbe3d42b3	-0.18482475
25	0xbe595dd1	-0.21227194
26	0xbceb1739	-0.028697597
27	0x3e10b4c5	0.14131458
28	0x3ead158a	0.33805496
29	0xbdd12a07	-0.10213094
30	0x3d10a113	0.035309862
31	0xba8f2934	-0.0010922314
32	0xbd96a6f4	-0.073560625
33	0x3dd7bd7c	0.10534188
34	0x3e7b01c3	0.24512391
35	0x3c8c275e	0.017108615
36	0x3e917e86	0.28416842
37	0x3e192bc3	0.149581
38	0x3c8a5284	0.01688505
39	0x3e7bcaf4	0.24589139
40	0xbe15adfb	-0.1461715
41	0xbe1a52f4	-0.15070707
42	0x3eef6885	0.4675943
43	0x3ea99534	0.33121645
44	0xbe974d04	-0.29550946
45	0x3e8118d8	0.25214267
46	0x3c87e295	0.016587535
47	0xbf1c2abe	-0.6100272
48	0x3d819ff6	0.06329338
49	0x3dbe951a	0.093057826
50	0xbdd00bce	-0.101585016
51	0xba9c85a4	-0.0011941683
52	0x3d0c2a4e	0.034220032
53	0x3b046811	0.002020363
54	0x3e7c2d00	0.24626541
55	0x3ebc948f	0.3683209
56	0x3cb88dc0	0.02252853
57	0xbe4b33e3	-0.19844012
58	0xbedb02bb	-0.4277552
59	0xbe978d99	-0.29600218
60	0xbe8b6835	-0.2722794
61	0x3e821adc	0.25411117
62	0x3d8cecaa	0.068810776
63	0x3dd4bb69	0.10387308
64	0xbdb29ee1	-0.0872171
65	0x3eb7d515	0.35904756
66	0xbeb3ecf6	-0.35141724
67	0x3ea6f731	0.32610467
68	0x3dac57d5	0.0841519
69	0x3d4a3654	0.049368218
70	0x3e72205d	0.23645158
71	0x3df5da33	0.12004509
72	0xbe4141cd	-0.18872757
73	0xbdddde2e	-0.10833393
74	0x3d2bab89	0.041911636
75	0xbda99ad4	-0.08281484
76	0xbe252f66	-0.16131362
77	0x3e23aec3	0.15984635
78	0x3e8fb990	0.2807126
79	0xbe6c2a56	-0.23063025
80	0x3d778146	0.06042602
81	0xbe0b2cbd	-0.13591285
82	0x3d3cce18	0.046094984
83	0x3da2d833	0.07951393
84	0x3e03455d	0.12819429
85	0xbe2c3730	-0.16817927
86	0x3eac5cef	0.33664653
87	0x3c18ea7e	0.009333251
88	0x3dbae23c	0.09125182
89	0x3dfc23ee	0.123115405
90	0x3da483e6	0.0803297
91	0xbe062032	-0.13098219
92	0x3ecc7c0c	0.3993839
93	0x3e8e8fe3	0.27844152
94	0xbe5e83d6	-0.21729979
95	0x3ddad375	0.106848635
96	0xbd66bb2d	-0.05633085
97	0xbf092dd9	-0.5358558
98	0x3e30fbf2	0.1728361
99	0xbdda6923	-0.106645845
100	0x3eabdd2a	0.33567172
101	0x3d413ca3	0.04717697
102	0xbbe5e68e	-0.0070160097
103	0xbdfb368f	-0.122662656
104	0x3c284cb8	0.010272197
105	0xbe4f8503	-0.20265584
106	0xbd627213	-0.05528457
107	0x3e0c099c	0.1367554
108	0x3e1d96aa	0.15389505
109	0x3ebe6c31	0.37191918
110	0x3efc2732	0.49248654
111	0xbe74851e	-0.23878905
112	0x3dc6c1ce	0.09704934
113	0xbe848cf1	-0.2588878
114	0x3e8c263b	0.27372918
115	0xbe75cc0c	-0.24003619
116	0x3e7ae0eb	0.24499862
117	0xbe4b44a7	-0.19850408
118	0xbdde3864	-0.108505994
119	0x3e11fee4	0.1425739
120	0xbe89a8b0	-0.2688651
121	0x3d9e8aca	0.07741316
122	0x3dd454ed	0.10367761
123	0xbdbf6ad5	-0.093465485
124	0x3d000b2b	0.03126065
125	0x3e137690	0.14400697
126	0xbbbf2365	-0.005833077
127	0xbe3d57b4	-0.18490487
128	0xbe411b5e	-0.18858096
129	0x3e5e125e	0.21686694
130	0x3e3cca68	0.18436587
131	0x3e7b83b7	0.24561964
132	0xbd6afa5c	-0.057367668
133	0xbe4f081c	-0.20217937
134	0xbe346c48	-0.17619431
135	0xbcbbcf08	-0.022925869
136	0xbe7c3b5f	-0.24632023
137	0xbd36504f	-0.044510182
138	0xbdf732f7	-0.12070268
139	0xbdf2897a	-0.11842628
140	0xbd76edc7	-0.060285356
141	0x3e982986	0.2971918
142	0xbed9d01f	-0.42541596
143	0xbea37cb5	-0.3193108
144	0x3ead5001	0.338501
145	0xbe8b091c	-0.27155387
146	0x3d1035ec	0.035207674
147	0x3f213d95	0.6298459
148	0xbdfe0877	-0.12403958
149	0x3e209b8f	0.15684341
150	0xbec72b91	-0.38900426
151	0xbe34091d	-0.17581601
152	0xbcd5a21b	-0.026078274
153	0x3e6a9b0d	0.2291071
154	0x3d96cb7b	0.073630296
155	0x3ec786c6	0.3897001
156	0xbe12041f	-0.14259385
157	0xbe97d807	-0.29657003
158	0xbe996f0b	-0.29967532
159	0xbe64b299	-0.22333755
160	0xbee8b365	-0.45449367
161	0x3ead9ffb	0.33911118
162	0x3d0aeac5	0.0339153
163	0x3ec2bc4a	0.38034278
164	0xbed37f71	-0.41308168
165	0x3eaee57f	0.34159467
166	0xbebca225	-0.36842456
167	0x3eb6ca5c	0.35701263
168	0x3d37605b	0.044769626
169	0xbbffb349	-0.007803355
170	0x3e907f1c	0.28221977
171	0xbddb3ead	-0.10705314
172	0xbea2c57a	-0.31791288
173	0x3d3ece50	0.046583474
174	0xbe01981b	-0.1265568
175	0xbc23535f	-0.009968608
176	0xbdf1e6d0	-0.11811602
177	0x3ce1b682	0.027552847
178	0x3ebe4094	0.37158644
179	0xbe77a6a2	-0.24184659
180	0x3a1211ae	0.00055720925
181	0xbe22f800	-0.15914917
182	0x3c01679a	0.007898236
183	0x3e83c33c	0.2573489
184	0x3eba6de7	0.36411974
185	0xbe3c0e8b	-0.18364923
186	0x3ee75187	0.45179388
187	0x3d4ef411	0.05052573
188	0x3b109e64	0.0022067064
189	0x3e7c960d	0.24666615
190	0xbde9f53f	-0.1142373
191	0xbe99c74e	-0.3003487
192	0x3eedc6ff	0.46440884
193	0x3ecca1f0	0.39967299
194	0xbe69d8a9	-0.22836556
195	0x3e5a385a	0.21310559
196	0xbc15de32	-0.009147214
197	0xbf465be0	-0.7748394
198	0x3dbe907b	0.09304901
199	0xbdd44d21	-0.10366274
200	0xbea1a19d	-0.31568614
201	0x3db7c523	0.08973148
202	0xbaa093a1	-0.0012251028
203	0x3e6161a0	0.22009897
204	0x3e6a0966	0.22855148
205	0x3e2dc8b9	0.16971101
206	0xbe2efee1	-0.17089416
207	0xbe23d015	-0.15997346
208	0xbeaa20b3	-0.33228073
209	0xbe1a5168	-0.15070117
210	0xbeb0f184	-0.34559262
211	0x3eb8c7d0	0.36089945
212	0x3d5dd66a	0.05415956
213	0x3e7778d5	0.24167188
214	0xbd96f97e	-0.073718056
215	0x3e59628d	0.21229
216	0xbe00b6d8	-0.1256975
217	0x3dbfca8d	0.09364805
218	0xbdb045a8	-0.08607036
219	0xbdf1b4d8	-0.11802071
220	0x3eb16fe1	0.3465567
221	0xbde6a22a	-0.11261399
222	0xbe1c77d9	-0.15280093
223	0x3d2df2d2	0.0424679
224	0xbe3f1b9d	-0.18662877
225	0xbe51efb1	-0.20501591
226	0xbe1585db	-0.14601843
227	0x3d163d99	0.036679838
228	0x3e497cf2	0.19676569
229	0xbdf2995c	-0.11845657
230	0xbd385840	-0.045006037
231	0xbe435a9e	-0.19077536
232	0xbda84ca0	-0.0821774
233	0xbc5f6e4b	-0.013637136
234	0x3e9795ba	0.2960642
235	0xbddc1637	-0.10746425
236	0x3efc96b6	0.49333733
237	0x3d50a875	0.050941903
238	0xbc452fca	-0.01203532
239	0x3dafeee1	0.085904844
240	0xbe0f3a52	-0.13987091
241	0xbe268c58	-0.16264474
242	0x3ef7a727	0.48369715
243	0x3e6c5ba1	0.23081829
244	0xbe298267	-0.16553651
245	0x3e15aba9	0.14616264
246	0xbd4d047a	-0.050053097
247	0xbf132cd0	-0.57490253
248	0x3d9ab1d6	0.07553451
249	0xbdcc5033	-0.09976234
250	0x3d8724d5	0.06598822
251	0xbc61eb27	-0.013788975
252	0x3de6904f	0.112579934
253	0xbd917e5f	-0.071041815
254	0xbe7d5e89	-0.24743094
255	0xbe96a96d	-0.29426137

linears.0.bias f4 [512]
0	0xbc42b09d	-0.011882928
1	0x3dc6a3d7	0.09699219
2	0xbdafd6be	-0.08585881
3	0x3cad9e33	0.0211936
4	0x3d133b22	0.035945065
5	0x3bb28dc3	0.005449028
6	0xbd7efb2e	-0.062251262
7	0xbe0b418c	-0.13599223
8	0xbc77c097	-0.015121601
9	0xbdfddc08	-0.12395483
10	0x3bc0959a	0.005877209
11	0xbdc8ca86	-0.09804253
12	0x3d8c0213	0.06836333
13	0x3ddaafc4	0.10678056
14	0xbd1f544f	-0.038898762
15	0xbd992e21	-0.074795015
16	0x3cbfe45b	0.023424318
17	0x3dda0375	0.106451906
18	0xbd7e01ba	-0.062013365
19	0x3c93aaea	0.018025834
20	0x3ad605f8	0.0016328683
21	0x3dbea188	0.093081534
22	0xbcfc7cc3	-0.03082121
23	0xbd768739	-0.060187552
24	0x3d210c28	0.039318234
25	0xbd9a387f	-0.07530307
26	0xb98d8e04	-0.00026999426
27	0xbc75dfc4	-0.015006963
28	0xbd917871	-0.071030505
29	0xbcca5c12	-0.024702106
30	0xbdf86cb5	-0.12130109
31	0xbd42ee93	-0.047590803
32	0xbdc5c77a	-0.09657188
33	0x3e038f3f	0.12847613
34	0xbbf4ff45	-0.0074767196
35	0xbdfdffe1	-0.12402321
36	0x3c9cbcb2	0.019132946
37	0xbc00411a	-0.007828021
38	0xbdbd9847	-0.0925756
39	0xbdbe0f79	-0.09280295
40	0xbdbaf211	-0.09128202
41	0x3c888e33	0.016669368
42	0x3d9f0f0c	0.07766542
43	0x3da3c3a5	0.079963006
44	0xbd9cec09	-0.07662208
45	0x3dda3e12	0.1065637
46	0x3cf5d953	0.030010855
47	0xbe161900	-0.14657974
48	0x3d85ed76	0.06539433
49	0x3db5c605	0.0887566
50	0xbdacf2f4	-0.08444777
51	0x3b915054	0.0044346247
52	0xbc6eb6e4	-0.014569972
53	0x3e094a9f	0.13407372
54	0x3d4d7019	0.050155733
55	0x3d45ed11	0.048321787
56	0xbcfd5b33	-0.030927276
57	0x3ded3cf7	0.11583894
58	0x3db4bc8c	0.08825025
59	0xbd55e593	-0.052220892
60	0xbe20f50d	-0.1571848
61	0xbd40eb97	-0.047099676
62	0xbddf5502	-0.10904886
63	0x3d441fd5	0.04788192
64	0x3d6cce11	0.057813708
65	0xbdb5e2a5	-0.0888112
66	0xbd728639	-0.059210036
67	0x3d55fdce	0.052244
68	0xbe2c7c07	-0.16844188
69	0xbd6f9809	-0.0584946
70	0x3dadc29b	0.08484384
71	0x3dc1db72	0.09465684
72	0x3d225fea	0.039642252
73	0xbdf2748e	-0.11838637
74	0x3d790c7e	0.06080293
75	0x3c013504	0.007886175
76	0x3d19579c	0.037437066
77	0xbdb574cb	-0.08860167
78	0x3d096b8f	0.03354984
79	0xbd936d05	-0.07198528
80	0xbdc4e743	-0.09614422
81	0xbdee9f2e	-0.11651455
82	0xbd94f7b2	-0.07273807
83	0xbd0f677a	-0.035010792
84	0xbd085c65	-0.03329124
85	0xbc8a9388	-0.016916052
86	0x3dbdcf95	0.09268109
87	0x3db6bc9f	0.08922695
88	0x3dd3c2e1	0.103399046
89	0xbde79a33	-0.11308708
90	0xbdebc247	-0.11511665
91	0xbdf8a60b	-0.12141045
92	0x3dbb91d3	0.09158673
93	0x3d15742e	0.03648775
94	0xbd926f5f	-0.071501486
95	0xbca8828d	-0.020570064
96	0xbdb7d6dd	-0.08976529
97	0xbca344af	-0.019930212
98	0x3d4ddf66	0.050261877
99	0x3ddc86fc	0.10767934
100	0x3d113d2c	0.03545873
101	0xbc97e9d6	-0.018544119
102	0x3d804ae6	0.06264286
103	0x3dbee270	0.09320533
104	0xbdb42176	-0.08795445
105	0xbdc43cb5	-0.095818914
106	0x3c724c60	0.014788717
107	0xbda90d7b	-0.08254524
108	0xbdb92081	-0.09039403
109	0x3da1180a	0.07865913
110	0xbb067810	-0.002051834
111	0x3e0ce5d7	0.13759552
112	0xbdfbdf0f	-0.122984044
113	0x3b70e039	0.003675474
114	0x3d35e7aa	0.044410385
115	0x3ddaa7de	0.106765494
116	0xbe02e4bc	-0.12782568
117	0x3d79078a	0.060798205
118	0x3baa17d8	0.0051908307
119	0xbdb33bd8	-0.08751649
120	0xbd7f5fce	-0.062347226
121	0xbd0862db	-0.0332974
122	0x3daee63d	0.08540008
123	0xbc6df578	-0.014523856
124	0x3cd0e3d7	0.025499268
125	0xbda7602d	-0.08172641
126	0x3d3f796d	0.04674666
127	0xbd846a9a	-0.06465645
128	0xbdecde7d	-0.11565874
129	0xb973bbd2	-0.00023244254
130	0xbd46b413	-0.048511576
131	0xbd83e8e7	-0.06440907
132	0x3bfffab3	0.007811868
133	0x3dc43d39	0.0958199
134	0x3d4c0386	0.049808048
135	0xbe042a8a	-0.12906852
136	0x3e0cc21f	0.13745926
137	0x3dcd7c82	0.100335136
138	0xbe0e3e53	-0.13890962
139	0x3d3f1033	0.04664631
140	0xbd6100dd	-0.054932464
141	0xbddcb4cb	-0.10776671
142	0xbcc580ed	-0.024109328
143	0xbd7f9858	-0.062401146
144	0xbdd9dbbf	-0.10637616
145	0x3d71667e	0.058935635
146	0x3c80532f	0.015664665
147	0x3d6c9784	0.057761684
148	0xbdcb7877	-0.09935086
149	0x3e01c7dc	0.12673897
150	0xbd428195	-0.04748686
151	0x3d827ccb	0.063714586
152	0x3de3b28b	0.11118039
153	0x3d71db5e	0.059047095
154	0x3de816b3	0.113324545
155	0xbdac8fba	-0.08425851
156	0x3e0a395e	0.13498446
157	0xbdc8676e	-0.09785353
158	0x3dfae40f	0.1225053
159	0xbca1d5de	-0.0197553
160	0x3dfa73be	0.12229107
161	0xbe0133db	-0.12617438
162	0xbe12f35b	-0.14350645
163	0xbe2c3e3a	-0.16820613
164	0x3c2ad171	0.010425911
165	0xbe00bccc	-0.1257202
166	0xbd343e46	-0.0440047
167	0x3d9565ff	0.07294845
168	0xbd6847b8	-0.05670902
169	0xbc043c3d	-0.008071003
170	0xbd0b22b2	-0.033968635
171	0xbd948705	-0.072523154
172	0xbdcc6df4	-0.099819094
173	0xbe1ec18f	-0.15503524
174	0x3bb196cc	0.0054195877
175	0x3dc204c7	0.094735675
176	0xbdadcf41	-0.08486796
177	0xbda35db3	-0.07976856
178	0x3b5a20fc	0.003328382
179	0x3c5823ab	0.013192098
180	0x3e26ed69	0.16301502
181	0x3de8a1db	0.113589965
182	0x3dd3ca51	0.10341323
183	0xbd3ecb8a	-0.04658083
184	0xbccff208	-0.025383964
185	0x3c9906bf	0.018679975
186	0xbd9f6e28	-0.077846825
187	0x3c9992e5	0.018746803
188	0xbd97a4d8	-0.07404488
189	0xbe270401	-0.16310121
190	0xbc32793f	-0.010893165
191	0xbdca63e9	-0.098823376
192	0xbd25aa90	-0.040445864
193	0xbd9346c2	-0.0719123
194	0xbe260538	-0.16212928
195	0xbc66285d	-0.014047709
196	0x3d1db2ce	0.0385006
197	0xbdd6f46d	-0.10495839
198	0xbd839659	-0.06425161
199	0x3cf90693	0.030398643
200	0xbddfd1a9	-0.109286614
201	0x3d9b33d5	0.075782456
202	0xbe06c736	-0.1316193
203	0xbd5701d4	-0.052491978
204	0x3d28f55c	0.041249618
205	0x3d2a09f6	0.041513406
206	0xbd8b31af	-0.06796586
207	0xbd6eb3ec	-0.058277056
208	0x3d887b94	0.06664196
209	0x3c24490f	0.010027184
210	0xbc4112ea	-0.011784295
211	0xbd1c0da4	-0.038098946
212	0x3d25a483	0.040440094
213	0xbddd261e	-0.10798286
214	0x3cf2d24a	0.02964129
215	0xbe22666c	-0.15859383
216	0x3dc3bc70	0.09557426
217	0xbe057426	-0.13032588
218	0x3d9763db	0.07392093
219	0xbe40670b	-0.18789308
220	0xbdea56b5	-0.11442319
221	0xbe1800a8	-0.14844
222	0x3dfc5c5b	0.12322303
223	0x3e0d41c2	0.13794616
224	0xbc92f515	-0.01793913
225	0xbdb28667	-0.087170415
226	0xbd165074	-0.03669782
227	0x3e079ad0	0.1324265
228	0x3d3980d6	0.045288883
229	0x3d4e4484	0.05035831
230	0x3d0f7d7a	0.035031773
231	0x3d3ee4c3	0.046604883
232	0x3b38ff55	0.0028228362
233	0x3d224d5e	0.039624564
234	0x3e196e97	0.14983593
235	0x3c34bff3	0.011032092
236	0x3daabe85	0.0833712
237	0xbdb92657	-0.09040516
238	0xbe1cddbc	-0.1531896
239	0xbdd00291	-0.101567395
240	0x3c43bd31	0.011946962
241	0x3c11cb19	0.00889852
242	0x3ddf822a	0.10913499
243	0xbcaf2c61	-0.021383466
244	0x3db50924	0.08839634
245	0x3dc2e97a	0.09517188
246	0xbd48d2fc	-0.049029335
247	0xbd3529b9	-0.044229243
248	0x3d17b745	0.037040014
249	0x3dc035fe	0.09385298
250	0xbdc4059e	-0.09571384
251	0xbd833bb8	-0.06407875
252	0xbdaf3392	-0.08554758
253	0xbdcd227c	-0.10016343
254	0x3dc5c777	0.096571855
255	0x3beef3bf	0.0072922404

linears.1.weight f4 [2, 512]
0	0xbdbaadcc	-0.091151804
1	0xbd8a76d5	-0.06760947
2	0x3de5f097	0.112275295
3	0xbda7f8d6	-0.082017586
4	0xbd98917b	-0.07449623
5	0x3d99817e	0.07495402
6	0x3ddf1de8	0.10894376
7	0xbda8b7fa	-0.08238216
8	0xbda46c0f	-0.08028423
9	0x3db271fd	0.08713148
10	0xbd485b1a	-0.048915006
11	0xbd501e7b	-0.05081032
12	0x3df10c67	0.11769944
13	0xbceb6b78	-0.028737769
14	0xbd834553	-0.06409707
15	0x3d906a40	0.070515156
16	0x3dbf7302	0.09348108
17	0x3db1caeb	0.08681282
18	0xbda1b902	-0.078966156
19	0x3dc207ed	0.09474168
20	0x3e03b58c	0.12862223
21	0x3d9bd24e	0.07608472
22	0xbd0cd218	-0.03438005
23	0xbd88a14b	-0.06671389
24	0xbd8b4372	-0.067999735
25	0xbd976510	-0.07392323
26	0xbd8da66f	-0.0691651
27	0x3dae610c	0.08514604
28	0x3d62417d	0.055238236
29	0xbd7fd058	-0.06245455
30	0xbd750c15	-0.059825975
31	0xbd9d9845	-0.07695059
32	0xbcbb2393	-0.022844112
33	0x3dec8f62	0.115507856
34	0x3dc9f1d6	0.0986058
35	0xbd84facd	-0.06493149
36	0x3dc8ba75	0.09801189
37	0x3e0b816b	0.13623588
38	0xbda37f5b	-0.079832755
39	0x3d15fdae	0.03661888
40	0xbda920fb	-0.08258244
41	0xbda1dde9	-0.07903654
42	0xbcf4f04e	-0.029899742
43	0x3dc68c0b	0.0969468
44	0x3e0e684e	0.13906977
45	0x3cfd7f0e	0.030944373
46	0xbd75b4e4	-0.059986964
47	0xbd9feba4	-0.07808617
48	0xbbdad29c	-0.0066779386
49	0x3da8bc54	0.08239046
50	0x3dfe48f4	0.124162585
51	0x3d71d198	0.059037775
52	0xbd29c2e9	-0.041445646
53	0x3dd81474	0.10550776
54	0x3dbb4aed	0.0914515
55	0xbd72ea49	-0.059305463
56	0x3d92ec62	0.07173993
57	0xbda9b888	-0.0828715
58	0x3dc3bf9e	0.095580325
59	0x3dd03ebc	0.10168216
60	0xbdba0baa	-0.09084256
61	0xbd8ccbb1	-0.068747886
62	0x3d97bcd7	0.07409065
63	0xbd7267de	-0.059181087
64	0x3d9c81bd	0.07641933
65	0xbd99fb8a	-0.075186804
66	0xbd2fc683	-0.042913925
67	0xbd8881ad	-0.06665359
68	0xbca8bb5d	-0.020597154
69	0xbd2bb9a3	-0.041925084
70	0xbd51cdd4	-0.051221684
71	0xbd84f6e3	-0.064924024
72	0x3dc2b971	0.095080264
73	0xbd979d04	-0.07402995
74	0xbd9dc38c	-0.07703313
75	0x3dab89c3	0.08375885
76	0x3dcd0161	0.10010029
77	0xbd81f3fb	-0.06345364
78	0xbd048111	-0.03234965
79	0xbd860034	-0.065430075
80	0x3ddf56b9	0.10905213
81	0xbd774251	-0.06036598
82	0x3dd6b845	0.104843654
83	0x3d495a18	0.049158186
84	0xbd91b1ce	-0.07113992
85	0x3dc97a9e	0.098378405
86	0x3d95b92f	0.073107116
87	0xbdc7395c	-0.09727737
88	0xbd8764e8	-0.06611043
89	0xbd95cc8e	-0.07314406
90	0xbd9158bb	-0.07097002
91	0x3d7c6012	0.061615057
92	0xbd3b370f	-0.045706805
93	0xbd2a7eea	-0.04162494
94	0x3e076c0f	0.13224815
95	0x3e054a12	0.13016537
96	0x3dd6643a	0.104683354
97	0xbd1fcade	-0.03901183
98	0xbcbbe5e1	-0.022936763
99	0x3dabfe92	0.08398165
100	0x3dc45d06	0.09588055
101	0xbcd6f47c	-0.026239626
102	0xbd8cb95d	-0.06871293
103	0x3de681c9	0.11255223
104	0xbd2288c8	-0.039681226
105	0x3e07d6ac	0.13265485
106	0x3db068fe	0.08613776
107	0xbd9290de	-0.071565375
108	0xbd2e4fc7	-0.04255655
109	0xbd3c286e	-0.045936994
110	0xbd3cfaf9	-0.046137784
111	0xbdbfc433	-0.09363594
112	0x3d99cd5b	0.075098716
113	0xbd99b0b6	-0.07504408
114	0xbd851dca	-0.064998224
115	0xbd0982ea	-0.033572115
116	0x3d9299da	0.07158251
117	0xbd9a8001	-0.07543946
118	0xbd2a0548	-0.041508943
119	0x3de1d878	0.11027616
120	0x3d7f0634	0.062261775
121	0x3d784f33	0.060622405
122	0x3d8ad58c	0.06779012
123	0xbd932729	-0.071852036
124	0x3dad0cac	0.084496826
125	0xbd83be2a	-0.06432755
126	0xbd1aa999	-0.037759397
127	0xbd734072	-0.05938763
128	0xbd8d5d06	-0.069025084
129	0x3de0f9d5	0.10985152
130	0xbcc9e58d	-0.024645591
131	0xbd9f6e1e	-0.07784675
132	0xbd879a29	-0.066212006
133	0x3d1a7afe	0.03771495
134	0xbd998d84	-0.07497695
135	0xbd81dd34	-0.06341019
136	0xbdb2fff0	-0.087402225
137	0x3dd2a4f9	0.10285372
138	0xbcfe7a6d	-0.031064237
139	0xbdeab7ef	-0.11460864
140	0x3db50183	0.08838179
141	0x3da293df	0.079383604
142	0xbd88ecb5	-0.06685773
143	0xbd22301b	-0.03959666
144	0x3d80ef23	0.06295612
145	0xbdac0de7	-0.08401089
146	0xbd9d5131	-0.07681502
147	0xbd8c815c	-0.06860611
148	0xbd73717a	-0.05943439
149	0xbd5f9c4c	-0.054592416
150	0x3ce11253	0.027474558
151	0xbcddd131	-0.02707729
152	0x3e045769	0.1292397
153	0x3da4b736	0.08042757
154	0x3dc9bdee	0.09850679
155	0x3d6f8387	0.058475044
156	0x3dc1a8c0	0.09456015
157	0xbd9f3cf5	-0.077752985
158	0xbd8459ae	-0.064624175
159	0xbcf18285	-0.029481182
160	0x3da5a043	0.08087208
161	0xbdb5c169	-0.08874781
162	0x3db18f51	0.086699136
163	0xbd88b446	-0.066750094
164	0xbd396e0c	-0.045270965
165	0x3dadb801	0.084823616
166	0xbd9b6dca	-0.075893
167	0xbd94d296	-0.072667286
168	0x3dd17527	0.10227423
169	0xbdb0a1eb	-0.086246334
170	0x3db1f4d9	0.08689279
171	0xbdc0fa65	-0.09422759
172	0xbda12850	-0.07869017
173	0xbda06c74	-0.07833186
174	0x3dd7678c	0.10517797
175	0x3dc39d07	0.09551435
176	0x3da5f6d3	0.081037186
177	0x3dd1ec6b	0.10250171
178	0x3d57b586	0.05266335
179	0x3df77f49	0.120848246
180	0x3deac454	0.11463228
181	0x3dabfaaa	0.0839742
182	0x3de96e3f	0.11397981
183	0x3cd998a8	0.02656205
184	0x3dd0b171	0.10190094
185	0x3d9b87c3	0.07594254
186	0x3db759a0	0.089526415
187	0xbd79be75	-0.06097265
188	0xbd77b0f0	-0.060471475
189	0xbd955343	-0.072912715
190	0xbd930570	-0.071787715
191	0xbda95913	-0.08268943
192	0xbd8388f2	-0.064226046
193	0xbd8ba3f4	-0.06818381
194	0xbd792ea3	-0.060835492
195	0x3d60001c	0.054687604
196	0xbd407977	-0.046990838
197	0xbd880244	-0.06641057
198	0xbd9e2b73	-0.07723131
199	0x3d2bd17c	0.041947827
200	0x3da347c9	0.07972676
201	0xbd8b7b90	-0.06810677
202	0xbd80ac6a	-0.062828854
203	0xbd6ab74c	-0.05730371
204	0xbd6d7e8d	-0.057982016
205	0xbd53c1ad	-0.051698375
206	0xbdf1cf89	-0.11807162
207	0xbdc8dc57	-0.098076515
208	0x3dc7f570	0.0976361
209	0xbd90d1ae	-0.07071243
210	0xbd2c4442	-0.042057283
211	0x3dadf58c	0.084941
212	0x3d36f5dc	0.044668064
213	0x3d36db78	0.044642895
214	0x3db55453	0.08853974
215	0xbd512908	-0.05106452
216	0x3da4741e	0.0802996
217	0xbd9c2997	-0.0762512
218	0x3d5f075a	0.05445037
219	0xbd85f268	-0.06540376
220	0xbd8e5dbe	-0.06951474
221	0xbd33071b	-0.04370795
222	0x3e044d7f	0.12920187
223	0x3dc5d308	0.09659392
224	0xbd49667d	-0.049170006
225	0x3d7ff6ce	0.06249123
226	0x3d80fe14	0.062984616
227	0x3de76917	0.11299341
228	0xbda3fa48	-0.08006722
229	0xbd236be0	-0.0398978
230	0xbd69074f	-0.056891736
231	0xbd130c11	-0.03590018
232	0x3daf6387	0.08563905
233	0xbdbc48a8	-0.091935456
234	0x3dcf0759	0.10108823
235	0xbdd98e72	-0.106228724
236	0x3d9426a5	0.07233933
237	0xbc8df024	-0.017326422
238	0xbda9079f	-0.08253407
239	0x3d570112	0.052491255
240	0xbd6b3875	-0.05742689
241	0x3ddd2e86	0.10799889
242	0x3da8b726	0.08238058
243	0xbd74833b	-0.059695464
244	0xbd33ef68	-0.043929487
245	0xbd857fdf	-0.0651853
246	0x3daad759	0.083418556
247	0x3de89b1f	0.11357712
248	0x3dd95492	0.10611834
249	0xbd945dde	-0.07244466
250	0xbd8b55fb	-0.06803509
251	0xbdc61523	-0.09672
252	0x3cd682f6	0.026185494
253	0xbd30f1a3	-0.043199193
254	0x3d78ed45	0.060773153
255	0xbd51c073	-0.051208925

linears.1.bias f4 [2]
0	0x3d3cbc5a	0.046078064
1	0xbaef206a	-0.0018243913
