hw3/model_hidden_512.pth (torch, 110808 bytes, 4 tensors)

linears.0.weight f4 [512, 50]
-1.204739 -0.82302904 -0.7084145 0.9055374 -1.3257962 -1.7250438 -0.24711443 1.7006334
0.6900473 -0.073959716 -1.1529143 0.17710845 0.70039225 -0.9208447 -0.8448234 -0.48119855
-0.1639468 -0.714071 0.29788232 -0.09663433 1.8759508 -3.3596506 0.98533946 -0.06665345
-1.1134945 -0.1318507 0.62486 0.62296706 -0.4390946 0.55088466 1.9233005 -0.7824969
0.7470622 2.1009355 -0.9692962 -0.50437075 -0.3658666 0.38742888 1.7181084 -0.1757183
0.78428996 -0.9760342 -0.97679704 -0.38903794 -0.523702 -0.027886858 -1.7892717 -1.2344915
0.103118755 0.43787795 -0.26943964 -0.76375467 -0.99468875 0.030309962 -0.4592763 -2.1250658
-0.08654197 1.0866126 0.92829746 0.6151329 -0.7373971 -0.21280597 0.5979149 -0.6230416
0.18996873 -0.24060495 0.44247103 -0.50829744 -0.1143761 0.25677434 1.1626303 -2.4466114
1.2280997 0.28015321 -0.23063436 -0.21195449 0.379434 -0.32316723 -1.0062588 0.2766521
0.38113222 -0.6850849 0.7287853 1.6312062 -1.2171361 -0.2747777 -1.0415324 0.38828298
0.24751349 0.3590088 0.82848054 -0.5440642 -1.4773563 -1.0998172 0.013163878 -0.19488552
-1.2037914 0.74871707 0.010421159 0.37916782 -0.46172148 -0.51416755 -0.6821318 0.19077495
-0.71760094 -2.3005111 0.24396347 1.0905508 1.0697217 0.46685007 -0.11199128 -0.71892816
0.680611 -0.7439855 -0.41275278 -0.5890235 1.1348094 -0.58754957 -0.22038162 0.4616594
0.080761775 -1.8622525 0.99392205 0.49248573 -0.698878 0.11015017 0.519747 -0.26748282
-1.1639848 0.39374214 0.44375092 -0.66421384 0.796456 1.0968943 -1.4249806 -0.095663406
-1.6234477 0.24178894 0.4754089 0.12630688 0.702256 0.16899669 -1.9782324 -2.0777643
0.23360729 -0.57302535 -1.0356992 0.6888261 -0.4606744 -0.11681064 -0.2874111 -0.20165272
-0.35827354 0.12606002 -0.3835795 -2.5562425 0.33677354 0.6208855 1.4885254 0.7455923
0.39097515 -0.87324506 0.5689723 -0.94364846 -0.18547389 -0.7200012 1.6340601 -0.5108076
-0.17960322 0.7745178 -0.37097046 -0.897841 0.5321362 0.765913 -0.80048704 0.09862423
0.105311036 -0.2956064 -1.59978 0.47331518 0.26717654 -0.8457146 0.5920638 0.46893534
-1.5384253 -0.08007957 -1.9731017 -0.047887035 0.6191348 0.12644944 0.6943402 0.744518
-2.327766 -2.8153148 0.67225087 -0.88734096 -1.0961355 0.78342175 -0.6885147 -0.2819545
-0.5096691 -1.2708374 -0.71909 1.0573307 1.8673979 0.601298 -0.9570618 -1.7726498
-0.26765293 -1.3094993 -1.1230582 1.2216599 0.54282975 0.25911686 2.0000815 1.3669738
-1.5198437 1.4886445 0.95094764 0.8427557 -0.6279738 0.25983357 -0.45713294 -0.34818044
1.2895685 -0.8567133 -1.2170719 -1.2516494 -0.46796617 1.2178589 0.21349981 -1.3521335
0.4987869 0.13921866 0.1858772 -0.8747699 1.1658051 1.0000771 -0.072177835 0.16097641
0.5269958 -0.29924354 0.3367491 -0.7400462 -0.63612914 0.8778537 -0.16344808 1.2678385
1.1197777 0.7199553 -0.6831988 -0.6777303 -0.67703825 0.32360238 1.2335253 0.02451871
00000000: e334 9abf 08b2 52bf a75a 35bf 4dd1 673f
00000010: b1b3 a9bf 3cce dcbf 910b 7dbe 5bae d93f
00000020: f1a6 303f 3178 97bd b292 93bf eb5b 353e
00000030: e84c 333f 7abc 6bbf 5946 58bf a85f f6be
00000040: ace1 27be 5bcd 36bf 0884 983e 38e8 c5bd
00000050: 281f f03f 8404 57c0 353f 7c3f 9b81 88bd
00000060: fd86 8ebf df03 07be d3f6 1f3f c57a 1f3f
00000070: 02d1 e0be c706 0d3f b62e f63f b851 48bf
00000080: 783f 3f3f ba75 0640 cc23 78bf 711e 01bf
00000090: de52 bbbe 145d c63e faea db3f 7fef 33be
000000a0: 3ac7 483f 61dd 79bf 5f0f 7abf fb2f c7be
000000b0: 5611 06bf fb72 e4bc db06 e5bf d103 9ebf
000000c0: ed2f d33d 8a31 e03e fef3 89be 6d85 43bf
000000d0: eca3 7ebf 994c f83c 4326 ebbe 1401 08c0
000000e0: eb3c b1bd 1f16 8b3f e7a4 6d3f 5a79 1d3f
000000f0: 0ec6 3cbf cfe9 59be f310 193f a87f 1fbf
00000100: 2a87 423e 2561 76be 908b e23e c81f 02bf
00000110: 043e eabd ed77 833e 12d1 943f 4895 1cc0
00000120: 5f32 9d3f 3e70 8f3e 6a2b 6cbe 990a 59be
00000130: 2c45 c23e 2d76 a5be 17cd 80bf 58a5 8d3e
00000140: c323 c33e b961 2fbf ac91 3a3f 5dcb d03f
00000150: 1ecb 9bbf aaaf 8cbe ef50 85bf 07cd c63e
00000160: 2d74 7d3e 00d0 b73e 4d17 543f cb47 0bbf
00000170: 031a bdbf cfc6 8cbf 4ead 573c 1290 47be
00000180: d615 9abf ecab 3f3f 82bd 2a3c 4922 c23e
00000190: c266 ecbe 7ca0 03bf 31a0 2ebf 825a 433e
000001a0: b2b4 37bf 933b 13c0 8fd1 793e 2b97 8b3f
000001b0: a4ec 883f f906 ef3e af5b e5bd ad0b 38bf
000001c0: 863c 2e3f d575 3ebf 5554 d3be 3eca 16bf
000001d0: 6f41 913f a669 16bf b8ab 61be 9f5e ec3e
000001e0: 6e66 a53d 4a5e eebf ad71 7e3f 1727 fc3e
000001f0: abe9 32bf 6a96 e13d 240e 053f 82f3 88be
00000200: 74fd 94bf 9298 c93e 5233 e33e eb09 2abf
00000210: 8ae4 4b3f 0867 8c3f c465 b6bf 2deb c3bd
00000220: 22cd cfbf 8597 773e cc68 f33e 9756 013e
00000230: 0dc7 333f 780d 2d3e b836 fdbf 17fa 04c0
00000240: c036 6f3e cab1 12bf cb91 84bf e856 303f
00000250: 84dd ebbe 6b3a efbd 8c27 93be 0d7e 4ebe
00000260: a16f b7be e115 013e 8864 c4be 7a99 23c0
00000270: 956d ac3e 5af2 1e3f 0088 be3f 23df 3e3f
00000280: e52d c83e fd8c 5fbf 2ba8 113f f292 71bf
00000290: deec 3dbe 0052 38bf e228 d13f 49c4 02bf
000002a0: e8e9 37be cc46 463f d7ef bdbe e8d8 65bf
000002b0: 143a 083f e012 443f b8ec 4cbf 80fb c93d
000002c0: 50ad d73d b959 97be 97c5 ccbf 5e56 f23e
000002d0: 5dcb 883e c180 58bf 7e91 173f 4b18 f03e
000002e0: 1feb c4bf c200 a4bd 998e fcbf 3225 44bd
000002f0: 9e7f 1e3f f67b 013e 48c0 313f bb98 3e3f
00000300: 1efa 14c0 1e2e 34c0 a218 2c3f c728 63bf
00000310: 2b4e 8cbf 548e 483f 8042 30bf 575c 90be
00000320: ad79 02bf cdaa a2bf 4816 38bf 9d56 873f
00000330: e506 ef3f aaee 193f 0102 75bf 30e6 e2bf
00000340: ce09 89be ac9d a7bf 5fc0 8fbf 5a5f 9c3f
00000350: e4f6 0a3f f7aa 843e 5601 0040 fff8 ae3f
00000360: 3d8a c2bf e78b be3f 4e71 733f d6be 573f
00000370: e4c2 20bf e808 853e 540d eabe b544 b2be
00000380: 9510 a53f 9051 5bbf 03c9 9bbf 0c36 a0bf
00000390: 4399 efbe cde2 9b3f b29f 5a3e b612 adbf
000003a0: ff60 ff3e 568f 0e3e 9856 3e3e ecf0 5fbf
000003b0: 1a39 953f 8702 803f f9d1 93bd 00d7 243e
000003c0: 32e9 063f 7336 99be 616a ac3e ab73 3dbf
000003d0: 5cd9 22bf 05bb 603f ef5e 27be 8848 a23f
000003e0: e054 8f3f fe4e 383f 1ee6 2ebf bc7f 2dbf
000003f0: 6152 2dbf 36af a53e 28e4 9d3f 76db c83c

linears.0.bias f4 [512]
-0.44604748 -0.14977367 -0.093948856 -0.081297845 -0.8380012 -0.7073629 -0.34560525 -0.4137481
-0.47844392 -0.35987642 -0.069992274 -0.5182766 -0.9694376 -0.15085675 -0.042487063 -0.41883117
-0.06465578 -0.47200656 -0.3575405 -0.43477434 -0.4849427 -1.2021153 -0.43519044 -0.043632783
-0.31434673 -0.22473302 -0.13164313 -0.36267376 -0.88883126 -1.3517728 -0.039278764 -0.4616951
-0.8206582 -0.9533476 -0.437006 -0.38846254 -0.3368625 -0.20210566 -0.37558955 0.018138178
-0.18939014 -0.18131696 -0.30370304 -0.11563142 -0.3615054 -0.5312749 -0.9911869 -0.3036119
-0.28002393 -0.56867456 -0.24723017 -1.2034296 -0.6814156 -0.49064767 -0.54159117 -0.8780389
-0.26892048 -0.37944925 -0.33543965 -0.6552424 -0.4588036 -1.0051208 -0.26828328 -0.29309946
-0.2426306 0.09634658 -0.81947464 -0.50030017 -1.0143989 -0.5859927 -0.61446035 -0.6662985
-1.0172449 -0.33841553 -0.32921076 -0.2947682 -0.1492525 -1.038737 -0.8168901 -0.50846475
-0.0146350125 -0.88658065 -0.2906595 0.06851427 -0.35099047 -0.10871426 -0.26081675 -0.32434043
-0.26911682 -0.5057668 -0.5961913 -0.8610746 -0.31890512 -0.23392896 -0.38127777 -0.6297478
-0.2847265 -0.07336576 -0.522818 0.10155038 -0.1297368 -0.36227158 -0.65085906 -0.49226815
-0.42406332 -0.4566966 -0.5521901 -0.3061472 -0.5064221 -0.07982817 -0.46160367 -0.08276042
-0.8147805 -0.5046026 0.0918999 -0.8620887 -0.87354827 -0.7068176 -0.9102496 -0.6177528
-0.8371794 -0.39162427 -0.7417051 -0.32088682 -0.40106845 -0.45326325 -0.5356961 -0.46377203
-0.19771153 0.17367302 -0.42204845 -1.0493752 -0.16096771 -0.44140992 -0.76310956 -0.27995503
-0.5974407 -0.09682287 -0.032297574 -0.29689187 -0.08767176 -0.33486024 -0.26274484 -1.137039
-0.8695599 -0.8843156 -0.095672555 -0.56581664 -0.26620257 -0.37702864 -0.28223512 -1.0625668
-0.39045188 -0.32782173 -0.19994259 -0.38783243 -0.436244 -0.23745278 -0.37954274 -0.6078703
-0.45244828 -0.453352 -0.07592743 -0.24123366 -0.33467153 -0.14546 -0.3599575 -0.3906932
-0.1841451 -0.24910714 -0.71235925 -0.41964138 -0.34085104 -0.5406097 -0.6621395 -0.4303938
-0.46996775 -0.4536221 -0.082945995 -0.4351172 -0.8691844 0.046126552 -0.33154285 -0.41023245
-0.68914974 -0.4040025 -0.47349736 -0.12656231 -1.0849218 -0.3707956 -0.35110006 -0.12155923
-0.18727474 -0.17258899 -0.4571016 -0.5163655 -0.076613665 -0.18733197 -0.44610468 -0.9461372
-0.48319086 -0.4578204 -0.4373803 -0.31860882 -0.2988406 -0.36481026 -0.19447207 -0.42073306
-0.3218086 -0.5540397 -0.11288513 -0.4808444 -0.4849497 -0.13368592 -0.83440125 -0.39979035
-1.1881797 0.04708358 -0.10806151 -0.5036624 -0.48451406 -0.47862524 -0.2354053 -0.2618613
-0.7882161 -0.38747185 -0.3167868 -0.85416824 -0.6387898 -0.31963047 -0.91688824 -0.5414054
0.17123322 -0.44677398 -0.35817286 -0.46009767 -0.5994981 -0.35010052 -0.47001606 -0.23085368
-0.07251117 -1.0483377 -1.050114 -0.22231475 -0.21579883 -0.24781515 -0.8789171 -0.2726551
-0.3982195 -0.49413833 -0.21647501 0.14915064 -0.40966666 -0.5543754 -0.9626617 -0.45625335
00000000: 5660 e4be 455e 19be 4268 c0bd 7c7f a6bd
00000010: 3f87 56bf bc15 35bf 2cf3 b0be cad6 d3be
00000020: 9af6 f4be b941 b8be 1c58 8fbd c6ad 04bf
00000030: 102d 78bf 317a 1abe ea06 2ebd 0a71 d6be
00000040: 406a 84bd d8aa f1be 8c0f b7be be9a debe
00000050: 694a f8be eade 99bf 48d1 debe 4ab8 32bd
00000060: 0ef2 a0be 6a20 66be 75cd 06be 60b0 b9be
00000070: 728a 63bf e406 adbf c5e2 20bd 4d63 ecbe
00000080: a816 52bf 970e 74bf 40bf dfbe 90e4 c6be
00000090: 3e79 acbe c9f4 4ebe 464d c0be 8496 943c
000000a0: 7def 41be 27ab 39be f77e 9bbe 2ad0 ecbd
000000b0: 3c17 b9be a201 08bf 6dbe 7dbf 0573 9bbe
000000c0: 4c5f 8fbe a894 11bf e829 7dbe fb09 9abf
000000d0: 4171 2ebf 2c36 fbbe b8a5 0abf 28c7 60bf
000000e0: f2af 89be 2c47 c2be bfbe abbe f7bd 27bf
000000f0: 4ee8 eabe cca7 80bf 6d5c 89be 2211 96be
00000100: 2874 78be 5b51 c53d 17c9 51bf ac13 00bf
00000110: d3d7 81bf 9e03 16bf 464d 1dbf 8a92 2abf
00000120: 1535 82bf cd44 adbe 508e a8be dceb 96be
00000130: a6d5 18be 56f5 84bf b61f 51bf bf2a 02bf
00000140: b1c7 6fbc f3f6 62bf 52d1 94be 3651 8c3d
00000150: 06b5 b3be 95a5 debd c689 85be f30f a6be
00000160: aec9 89be ef79 01bf fe9f 18bf 636f 5cbf
00000170: 8847 a3be 138b 6fbe d736 c3be 2737 21bf
00000180: acc7 91be ca40 96bd 67d7 05bf a5f9 cf3d
00000190: b9d9 04be a97b b9be b39e 26bf 920a fcbe
000001a0: d41e d9be 23d4 e9be 555c 0dbf 53bf 9cbe
000001b0: e1a4 01bf f47c a3bd 5157 ecbe 4c7e a9bd
000001c0: 7495 50bf a32d 01bf 0436 bc3d d8b1 5cbf
000001d0: dca0 5fbf 00f2 34bf 1e06 69bf 0c25 1ebf
000001e0: 6451 56bf fa82 c8be 63e0 3dbf 474b a4be
000001f0: d858 cdbe 1f12 e8be 6123 09bf 8773 edbe
00000200: e474 4abe 57d7 313e bc16 d8be ed51 86bf
00000210: b8d4 24be 7b00 e2be 265b 43bf 4456 8fbe
00000220: e0f1 18bf 124b c6bd 764a 04bd 3602 98be
00000230: 408d b3bd cd72 abbe 7e86 86be 7e8a 91bf
00000240: 7a9b 5ebf 8262 62bf f9ef c3bd 5cd9 10bf
00000250: b44b 88be e609 c1be 1f81 90be 3002 88bf
00000260: 4fe9 c7be 40d8 a7be c0bd 4cbe f991 c6be
00000270: 605b dfbe d226 73be 6d53 c2be 639d 1bbf
00000280: 4da7 e7be c11d e8be d77f 9bbd f505 77be
00000290: 115a abbe 77f3 14be 594c b8be f008 c8be
000002a0: 8890 3cbe f115 7fbe 2d5d 36bf 3cdb d6be
000002b0: 0784 aebe 6665 0abf f981 29bf 935c dcbe
000002c0: 9d9f f0be 2841 e8be 97df a9bd aec7 debe
000002d0: de82 5ebf 32ef 3c3d fcbf a9be fd09 d2be
000002e0: 1e6c 30bf 6ad9 cebe 3f6e f2be 8d99 01be
000002f0: b8de 8abf ecd8 bdbe 63c3 b3be 0cf4 f8bd
00000300: f3c4 3fbe 2bbb 30be 3909 eabe 8830 04bf
00000310: a0e7 9cbd f4d3 3fbe d567 e4be 0c36 72bf
00000320: cb64 f7be 6f67 eabe 50f0 dfbe b220 a3be
00000330: a301 99be 69c8 babe b023 47be 536a d7be
00000340: 19c4 a4be 8cd5 0dbf 5230 e7bd 3d31 f6be
00000350: 544b f8be f6e4 08be 529b 55bf 52b1 ccbe
00000360: 4616 98bf b6da 403d 5a4f ddbd 05f0 00bf
00000370: 3a12 f8be 5e0e f5be 160e 71be af12 86be
00000380: 88c8 49bf b662 c6be e131 a2be c5aa 5abf
00000390: ba87 23bf 9ba6 a3be 30b9 6abf 8b99 0abf
000003a0: c357 2f3e 8fbf e4be 6f62 b7be ec91 ebbe
000003b0: b578 19bf 6040 b3be f2a5 f0be e864 6cbe
000003c0: bc80 94bd ee2f 86bf 236a 86bf 7aa6 63be
000003d0: 5efa 5cbe 41c3 7dbe b600 61bf 7399 8bbe
000003e0: 6de3 cbbe b3ff fcbe a0ab 5dbe f2ba 183e
000003f0: d4bf d1be 8ceb 0dbf ff70 76bf 0a9a e9be

linears.1.weight f4 [2, 512]
0.1268312 0.124854624 0.18191975 0.28688803 -0.019518655 0.0017042989 0.042953152 0.064176336
0.057692494 0.13790154 0.21555643 0.07424149 -0.04243059 0.40423903 0.42126402 0.04807191
0.21917988 0.108195916 0.06615974 -0.7564354 0.06620696 -0.2639229 0.1048051 0.43303356
0.28637272 0.1226109 0.19331701 0.0977768 -0.02183913 -0.26181877 0.23098744 0.12743917
-0.10661162 -0.060062032 0.050682 0.033352055 0.09765384 0.17486422 0.1151906 0.4881776
0.16584024 0.15474756 0.09590727 1.2857589 0.0759936 0.06465259 -0.18000294 0.0973646
0.13033213 0.09058639 0.14877388 -0.20704356 0.021477312 0.09420329 0.101093665 -0.22674268
0.19707553 0.094512105 0.0650444 0.05266505 0.08310381 -0.96854126 0.13187487 0.08361275
0.12263388 0.62522334 0.025983648 0.077810995 -0.10821942 0.103453666 0.064111985 0.03217499
-0.07352569 0.07465576 0.11428745 0.1290762 0.16876869 -0.05080507 0.0033840686 0.066179745
0.44145766 -0.20525017 0.11285479 0.54509515 0.22011116 0.1611896 0.1559369 0.074466355
0.18820441 0.08452169 -0.038254377 -0.112121664 0.119582966 0.114291765 0.10374749 0.04060338
0.045713842 0.22135313 0.08521205 0.51072025 0.17325869 0.14916372 0.07283597 0.070605665
0.08787685 0.03594656 0.050402585 0.099046424 0.1147779 0.4549653 0.10768711 0.44222397
-0.020446602 0.111757234 0.48075423 0.019054985 -0.09118399 0.04575871 0.010107955 0.05132283
-0.10836846 0.14924827 -0.0060893972 0.18717211 0.14076215 0.09014184 0.095900536 0.12440907
0.12086877 0.52805096 0.1084667 -0.16832682 0.42923978 0.13758165 0.050013646 0.07971826
0.10999831 0.15080355 0.2189346 0.06433033 0.17581357 0.118944645 0.08145739 -0.76731074
0.013161622 -0.026706627 0.37687865 0.08905433 0.11978857 0.10576607 0.12462322 -0.1681358
0.114379674 0.12971124 0.2255939 0.10915722 0.03126576 0.33875772 0.05906044 0.06880677
0.14374574 0.13656712 0.482013 0.17182273 0.14306264 0.36796945 0.112852134 0.1106386
0.22707045 0.09691399 0.061019465 0.12655814 0.09249746 0.08197361 0.023054836 0.093471825
0.06267941 0.05756227 0.41975898 0.14676034 -0.04593966 0.42735338 0.131408 0.09252614
0.01344578 0.05289 0.080971 0.3415474 -0.44798863 -0.47259662 0.121223986 0.4564526
0.34755325 0.16148996 0.058794938 0.06544981 0.24381363 0.2897227 0.09689657 -0.140488
0.13771366 0.08440018 0.091011696 0.17130853 0.15274577 0.14957333 0.17122659 0.065778054
0.056669507 0.028170746 0.43009937 0.06566169 0.08614432 0.4712069 0.017489824 0.105205745
-0.18997309 0.4411152 0.20691535 0.13941443 0.16398199 0.1443608 0.11271087 0.15870407
-0.019056078 0.090251826 0.10778088 -0.067821644 0.045101546 0.12480485 -0.027665693 0.056464434
0.5490061 0.06511447 0.15666409 0.12526724 0.06763092 0.092429794 0.10569018 0.10812052
0.26903442 -0.1693481 -0.42274684 0.16058953 0.4371895 0.1463371 -0.21305576 0.13269526
0.13195385 0.048573032 0.09970754 0.5098275 0.10979263 0.03804595 -0.13879387 0.0780585
00000000: 0ae0 013e c8b3 ff3d 2c49 3a3e fde2 923e
00000010: 96e5 9fbc c862 df3a a5ef 2f3d e26e 833d
00000020: f74e 6c3d 1036 0d3e d3ba 5c3e ec0b 983d
00000030: b3cb 2dbd 6bf8 ce3e ebaf d73e 0de7 443d
00000040: b170 603e d295 dd3d c27e 873d c0a5 41bf
00000050: 8497 873d e720 87be 0ea4 d63d 93b6 dd3e
00000060: 729f 923e 6c1b fb3d e5f4 453e 343f c83d
00000070: fae7 b2bc 1c0d 86be f987 6c3e 6a7f 023e
00000080: 3157 dabd 9b03 76bd ee97 4f3d 2a9c 083d
00000090: bdfe c73d 9b0f 333e 0de9 eb3d 6af2 f93e
000000a0: 06d2 293e 2576 1e3e 086b c43d bf93 a43f
000000b0: 88a2 9b3d 9468 843d b152 38be 1767 c73d
000000c0: c975 053e 5b85 b93d 2e58 183e 3a03 54be
000000d0: 30f1 af3c a8ed c03d 320a cf3d 3c2f 68be
000000e0: 2bce 493e 908f c13d 0036 853d 4fb7 573d
000000f0: 5532 aa3d 52f2 77bf 350a 073e 293d ab3d
00000100: 7927 fb3d a30e 203f a9db d43c 5f5b 9f3d
00000110: 25a2 ddbd 84df d33d 254d 833d ecc9 033d
00000120: a394 96bd 1ee5 983d 8a0f ea3d 8d2c 043e
00000130: b3d1 2c3e fa18 50bd 40c7 5d3b 3f89 873d
00000140: bd06 e23e 1a2d 52be 6a20 e73d 5b8b 0b3f
00000150: d264 613e e30e 253e ecad 1f3e d181 983d
00000160: a8b8 403e b519 ad3d 9fb0 1cbd 0ba0 e5bd
00000170: eae7 f43d cd11 ea3d 9079 d43d bb4f 263d
00000180: 703e 3b3d 65aa 623e a883 ae3d 90be 023f
00000190: ba6a 313e 60be 183e 062b 953d b499 903d
000001a0: c7f8 b33d b33c 133d f172 4e3d dad8 ca3d
000001b0: ad10 eb3d 36f1 e83e 0f8b dc3d 2e6b e23e
000001c0: a27f a7bc fae0 e43d 6b25 f63e 3319 9c3c
000001d0: acbe babd 7c6d 3b3d d69b 253c e337 523d
000001e0: 48f0 ddbd 8ad4 183e 9189 c7bb 0caa 3f3e
000001f0: f423 103e 499c b83d 8067 c43d 2fca fe3d
00000200: 0c8a f73d 592e 073f ca23 de3d de5d 2cbe
00000210: 51c5 db3e 34e2 0c3e 1cdb 4c3d 5443 a33d
00000220: cb46 e13d 3f6c 1a3e 6430 603e 9fbf 833d
00000230: 7908 343e 4099 f33d 22d3 a63d 7a6e 44bf
00000240: d8a3 573c dbc7 dabc 3df6 c03e 1e62 b63d
00000250: b653 f53d e29b d83d 753a ff3d cb2b 2cbe
00000260: e43f ea3d 06d3 043e 1602 673e d28d df3d
00000270: 8710 003d a771 ad3e 5ce9 713d 90ea 8c3d
00000280: 1532 133e 40d8 0b3e 68ca f63e 4cf2 2f3e
00000290: 037f 123e 7e66 bc3e 051f e73d 7e96 e23d
000002a0: 2885 683e d87a c63d 8cef 793d 7598 013e
000002b0: 4f6f bd3d c8e1 a73d 7fdd bc3c 286e bf3d
000002c0: 105e 803d 6ac6 6b3d a6ea d63e 5848 163e
000002d0: 3a2b 3cbd 10ce da3e d28f 063e 587e bd3d
000002e0: b04b 5c3c 2fa3 583d 20d4 a53d 4ddf ae3e
000002f0: c45e e5be 2ff8 f1be 4844 f83d 28b4 e93e
00000300: 80f2 b13e a05d 253e f6d2 703d 8d0a 863d
00000310: 48aa 793e 8956 943e b571 c63d 16dc 0fbe
00000320: cf04 0d3e 00da ac3d 5764 ba3d 816b 2f3e
00000330: 6369 1c3e c029 193e 0656 2f3e a5b6 863d
00000340: 491e 683d 56c6 e63c fc35 dc3e a379 863d
00000350: 6f6c b03d 0842 f13e d246 8f3c 1c76 d73d
00000360: 4e88 42be dad9 e13e 9ee1 533e a8c2 0e3e
00000370: e5ea 273e 51d3 133e f5d4 e63d 5283 223e
00000380: 7e1b 9cbc f3d5 b83d 39bc dc3d 13e6 8abd
00000390: 66bc 383d af99 ff3d 2aa3 e2bc 4047 673d
000003a0: aa8b 0c3f bc5a 853d 8d6c 203e 0e46 003e
000003b0: 1482 8a3d d54b bd3d 1874 d83d 4b6e dd3d
000003c0: e1be 893e 9769 2dbe 4672 d8be 9571 243e
000003d0: 4dd7 df3e 65d9 153e 4a2b 5abe 44e1 073e
000003e0: e91e 073e 84f4 463d 7733 cc3d 0e84 023f
000003f0: f5da e03d 12d6 1b3d fb1f 0ebe 23dd 9f3d

linears.1.bias f4 [2]
0.2617187 -0.21706079
00000000: feff 853e 2f45 5ebe
