hw3/model_learned_at_5e-05.pth (torch, 110920 bytes, 4 tensors)

linears.0.weight f4 [512, 50]
0	0xbd2fe7f2	-0.04294581
1	0x3c58a598	0.013223074
2	0x3ce44198	0.027863309
3	0x3e45a674	0.19301778
4	0x3cb8a1d7	0.022538109
5	0x3db6d57b	0.08927437
6	0xbd8782d9	-0.06616754
7	0x3c73f6d2	0.0148903895
8	0xbd58b3c6	-0.05290582
9	0xbe8aede6	-0.27134627
10	0x3a98e870	0.0011665951
11	0x3e0a92c7	0.13532554
12	0x3dbfe6d5	0.093701996
13	0x3e0a4a11	0.13504817
14	0x3d9da806	0.076980636
15	0x3c2815de	0.01025912
16	0x3de88af8	0.11354631
17	0x3e17e1e3	0.14832263
18	0xbd623a77	-0.055231538
19	0x3dc3b0e5	0.09555224
20	0xbc0f8021	-0.008758576
21	0xbdd1a167	-0.10235863
22	0xbe6c24c6	-0.23060903
23	0x3d43eb78	0.047831982
24	0xbe0ac14f	-0.13550304
25	0xbd8402e1	-0.064458616
26	0x3ab3d53a	0.0013720163
27	0xbd9380f1	-0.07202328
28	0x3de10197	0.10986631
29	0xbe683323	-0.22675757
30	0x3e34f6ba	0.17672244
31	0xbe71ca81	-0.23612405
32	0x3d3e46af	0.046454128
33	0x3dd8e8a3	0.10591247
34	0x3d066a69	0.032816324
35	0x3d944af4	0.07240859
36	0x3e414d1e	0.18877074
37	0x3e488af0	0.1958425
38	0x3d9ceab8	0.076619565
39	0xbd242627	-0.040075447
40	0x3c8596b8	0.01630722
41	0xbe57434d	-0.21021767
42	0x3df23940	0.11827326
43	0x3eb1b2ac	0.34706628
44	0x3cc0bade	0.023526605
45	0x3cfa7d87	0.030577434
46	0x3d7a2ee8	0.06107989
47	0xbe655714	-0.22396499
48	0x3dfba817	0.1228792
49	0xbe619f76	-0.22033486
50	0x3d2f3ea3	0.042784344
51	0x3d914429	0.07093079
52	0xbe2be5bb	-0.16786854
53	0x3d481cb8	0.048855513
54	0xbcb905f3	-0.022585845
55	0xb9e38dfb	-0.00043402598
56	0x3d56736e	0.052356176
57	0x3d9b0351	0.07568992
58	0x3e9e5181	0.30921558
59	0x3dc2a269	0.095036335
60	0x3e25e01b	0.1619877
61	0xbe6d9051	-0.23199584
62	0x3d382bee	0.04496377
63	0xbe323585	-0.17403229
64	0x3d1eef80	0.038802624
65	0xbd9e482e	-0.07728611
66	0x3dffb850	0.12486327
67	0xbe73c19b	-0.23804323
68	0xbdd63a70	-0.10460365
69	0xbe264359	-0.16236629
70	0x3d6e0457	0.058109608
71	0x3e178f01	0.14800645
72	0x3ea9b562	0.33146197
73	0xbd724aa3	-0.05915321
74	0xbde7a5d3	-0.11310925
75	0xbdcceead	-0.10006461
76	0xbe18aed4	-0.14910442
77	0x3d4aa225	0.04947104
78	0xbd55d2a4	-0.052202836
79	0x3e57b3b4	0.21064645
80	0xbe008674	-0.1255129
81	0x3d2d9f60	0.04238832
82	0x3e0c20a1	0.13684322
83	0xbe277fb1	-0.16357304
84	0x3bc7b52f	0.006094597
85	0xbbd26805	-0.0064210915
86	0xbdf7a93d	-0.120928265
87	0xbe560bc5	-0.20902927
88	0xbe17d499	-0.14827193
89	0x3cb181ae	0.021668281
90	0x3d34bcbc	0.044125304
91	0x3e2b2000	0.16711426
92	0x3cc2aa48	0.023762837
93	0xbe20fb30	-0.1572082
94	0xbcbdbb67	-0.02316065
95	0xbe42012d	-0.18945761
96	0x3e25931d	0.161694
97	0x3e748791	0.2387984
98	0xbdf135c3	-0.11777832
99	0x3c25c001	0.010116578
100	0xbe6d3764	-0.23165661
101	0xbd8d86b0	-0.06910455
102	0x3d115da4	0.035489693
103	0xbd2b50ba	-0.041825034
104	0x3d6b5bf9	0.05746076
105	0xbd2ec8cf	-0.042671975
106	0xbdfc08d2	-0.1230637
107	0xbe150fe0	-0.14556837
108	0xbe96c8a5	-0.29449955
109	0xbe817caa	-0.25290424
110	0x3c897d17	0.01678328
111	0x3e0ce0df	0.13757657
112	0x3d1f3aab	0.03887431
113	0xbcb81118	-0.022469088
114	0xbdad3df5	-0.08459083
115	0xbc3d59fa	-0.011557097
116	0x3cad3e0e	0.021147754
117	0x3b4632d8	0.0030242708
118	0xbd3ae4d8	-0.0456284
119	0xbcb2e317	-0.0218368
120	0x3d6626b4	0.056189254
121	0xbe0cad1c	-0.13737911
122	0xbe355ff3	-0.17712383
123	0xbe137525	-0.14400156
124	0xbdf7a037	-0.120911054
125	0xbdb20bfc	-0.08693692
126	0xbb979824	-0.004626291
127	0xbdd26b8b	-0.102744184
128	0x3e54ff22	0.2080045
129	0xbddfb493	-0.10923114
130	0x3e2d97b7	0.16952406
131	0xbd9218c9	-0.07133634
132	0xbe33a2e0	-0.175426
133	0x3e3b6557	0.18300377
134	0x3d04f8a7	0.032463696
135	0xbd97f2f9	-0.0741939
136	0x3d496987	0.049172904
137	0xbd6ee8ca	-0.058327474
138	0x3dd498cd	0.10380707
139	0xbca254bf	-0.0198158
140	0x3d22df06	0.039763473
141	0xbe91d78e	-0.28484768
142	0x3e216d6c	0.15764397
143	0x3de3e6d8	0.11128014
144	0xbdb2c88a	-0.08729656
145	0x3dfd6b04	0.12373927
146	0x3d44c1cd	0.048036385
147	0xbe03c06e	-0.12866375
148	0x3e3bca2d	0.18338843
149	0xbe75f373	-0.2401865
150	0xbdfbd619	-0.12296695
151	0xbe2e68f3	-0.17032222
152	0x3d24c4e7	0.040226843
153	0xbd2f4ca7	-0.04279771
154	0x3e3dae1b	0.18523447
155	0xbd45c810	-0.048286498
156	0x3d926902	0.07148935
157	0xbcac6fc9	-0.021049397
158	0xbe08234a	-0.13294712
159	0xbe7db322	-0.24775365
160	0xbb618aa6	-0.0034414916
161	0x3e178e38	0.14800346
162	0x3c6897ce	0.014196349
163	0xbc3096bc	-0.010778125
164	0x3d8801aa	0.066409424
165	0x3c8e8393	0.017396724
166	0xbd89a5f0	-0.06721103
167	0x3e82c885	0.2554361
168	0x3d444eea	0.04792682
169	0xbc3dcc8a	-0.01158441
170	0xbc466c77	-0.012110821
171	0xbdc3f95a	-0.095690444
172	0xbdc5e91e	-0.09663604
173	0xbdb0f6c5	-0.086408176
174	0xbdd861b4	-0.105655104
175	0xbd5dc257	-0.054140415
176	0xbd7194a3	-0.05897964
177	0x3d730751	0.05933315
178	0x3e4f7862	0.20260766
179	0xbe5edadd	-0.21763177
180	0x3da83a04	0.082141906
181	0xbd44d5f2	-0.048055597
182	0xbd01fd8c	-0.03173594
183	0x3d25220e	0.04031568
184	0x3e172346	0.1475955
185	0x3d577b89	0.052608047
186	0x3e69c0b5	0.22827418
187	0x3d7c6d7f	0.06162786
188	0x3cefd989	0.029278534
189	0x3ceb5930	0.028729051
190	0xbd245f48	-0.04012993
191	0xbe60e478	-0.21962154
192	0x3e14c332	0.14527586
193	0x3eb1ee88	0.34752297
194	0xbda5d2f1	-0.080968745
195	0x3d89fcda	0.06737681
196	0xbcc94b8b	-0.024572155
197	0xbe86c807	-0.26324484
198	0x3dbbc4fa	0.0916843
199	0xbdc0c9c3	-0.09413483
200	0x3d00e053	0.031463932
201	0x3d6b4071	0.057434503
202	0x3d682b37	0.056681838
203	0xbc18ffca	-0.009338329
204	0xbd7ed0ea	-0.062210955
205	0xbe17132c	-0.14753407
206	0xbdb46795	-0.08808819
207	0xbd6532f6	-0.055956803
208	0x3e0ebd6c	0.13939446
209	0x3e647c33	0.22313003
210	0x3e624715	0.22097428
211	0xbd50eb50	-0.05100566
212	0xbdebcbea	-0.11513503
213	0xbe5223ba	-0.20521441
214	0xbcea4830	-0.028598875
215	0x3dd1d95a	0.10246535
216	0x3c902823	0.017597264
217	0xbe2f6e50	-0.17131925
218	0x3d403902	0.046929367
219	0xbdf132f8	-0.117773
220	0xbe1caeb8	-0.15301025
221	0x3e4525c6	0.1925269
222	0x3df15076	0.11782925
223	0x3c9f63ee	0.01945683
224	0xbdebc25d	-0.11511681
225	0x3dc40e09	0.095729895
226	0x3d7f4e39	0.06233046
227	0x3d2417f3	0.040061902
228	0xbe4b1084	-0.19830519
229	0xbd443a05	-0.047906894
230	0xbe27ee4f	-0.16399501
231	0x3e68cd64	0.227346
232	0x3e06fb66	0.13181838
233	0x3cf0da07	0.029400839
234	0xbbd9f8b8	-0.006651964
235	0x3d57ef22	0.05271829
236	0xbe369551	-0.17830397
237	0xbe454205	-0.19263466
238	0xbe3e57d5	-0.18588193
239	0xbe1086fb	-0.14113991
240	0x3da1d556	0.07902019
241	0x3de3d1d7	0.11124008
242	0xbdb7410c	-0.089479536
243	0xbea090c4	-0.31360447
244	0x3d19adad	0.037519146
245	0xbe4a2200	-0.19739532
246	0xbd8ff6f6	-0.07029526
247	0x3e9d4db6	0.3072335
248	0xbdc558ff	-0.09636115
249	0x3e684224	0.2268148
250	0x3debe1f1	0.11517704
251	0x3c1a6ab6	0.009424856
252	0xbd917b35	-0.07103578
253	0xbe03bafc	-0.12864298
254	0xbdd35ac6	-0.10320048
255	0xbe389c77	-0.18028437

linears.0.bias f4 [512]
0	0xbdfec2b9	-0.12439484
1	0xbd84cdf7	-0.06484597
2	0x3dd37609	0.10325248
3	0xbdba57af	-0.090987556
4	0xbda17e9f	-0.07885479
5	0x3c6fa5d8	0.014626943
6	0xbaadb9cc	-0.0013254224
7	0x3daf2bec	0.08553299
8	0xbda3156d	-0.07963071
9	0x3d05d767	0.032676127
10	0xbdb1b58b	-0.08677205
11	0x3d8e24ac	0.06940588
12	0x3d4ad3f5	0.049518544
13	0xbcd7375e	-0.026271518
14	0x3dd2a893	0.10286059
15	0x3dc1fb32	0.0947174
16	0xbd9754b1	-0.073892005
17	0xbdef97e8	-0.11698896
18	0x3d99b049	0.07504327
19	0xbdf45a15	-0.11931244
20	0x3be3efeb	0.0069560907
21	0x3cbfa461	0.023393812
22	0x3d26f8cb	0.04076461
23	0x3d9531a8	0.07284862
24	0xbd92d515	-0.071695484
25	0x3be2d6ab	0.006922563
26	0xbda62a3f	-0.081135266
27	0x3dbf20fe	0.09332465
28	0x3d2e13dc	0.042499408
29	0x3df98659	0.12183828
30	0x3de4102e	0.111358985
31	0x3d8bf97b	0.06834694
32	0x3da97bc7	0.08275562
33	0x3b5fe31f	0.0034162474
34	0xbddf2b19	-0.10896892
35	0xbd8501c9	-0.06494481
36	0xbd74a410	-0.059726775
37	0xbd6030bc	-0.054733977
38	0xbd67ecfc	-0.05662249
39	0xbe0e26bc	-0.13881963
40	0x3cb31472	0.021860335
41	0xbdb51c7f	-0.08843326
42	0xbdfb6cb7	-0.12276595
43	0x3d40c83b	0.047065955
44	0xbe06d81f	-0.13168381
45	0x3d206c49	0.03916577
46	0xbb31f798	-0.0027155634
47	0x3d8d12ac	0.06888327
48	0x3df9b5f4	0.12192908
49	0x3d9acc08	0.07558447
50	0xbde76f35	-0.11300508
51	0xbc1ffe09	-0.009765157
52	0x3d87c3d1	0.06629146
53	0xbdea9c97	-0.114556484
54	0xbe076952	-0.1322377
55	0xbe083e9b	-0.13305132
56	0xbdf17419	-0.11789722
57	0x3d8e96c5	0.06962351
58	0xbd27aeea	-0.040938295
59	0x3d720c20	0.059093595
60	0xbd97283d	-0.07380722
61	0xbd292239	-0.041292403
62	0xbcc365b4	-0.023852207
63	0x3dfc74c4	0.12326959
64	0x3c76e60e	0.015069498
65	0xbdd5ec21	-0.10445429
66	0x3de3859c	0.11109468
67	0x3c618b8c	0.013766181
68	0x3dfe4b21	0.124166735
69	0x3a616758	0.0008598468
70	0xbde503cb	-0.11182364
71	0x3d0ab2b9	0.03386185
72	0xbda0fdfd	-0.078609444
73	0xbdcdf07a	-0.10055633
74	0x3c21f4df	0.009885042
75	0x3d54ee62	0.051985152
76	0xbd9f9370	-0.07791793
77	0xbd1c2db5	-0.038129527
78	0xbd6a6610	-0.05722624
79	0x3dd28aa6	0.10280351
80	0x3ce50980	0.027958632
81	0xbcde2355	-0.027116457
82	0xbd36c0af	-0.04461735
83	0xbd1eff43	-0.038817655
84	0xbb8dba3f	-0.004325181
85	0x3cdb2f72	0.026756022
86	0xbd6869ff	-0.05674171
87	0xbd7a5d46	-0.06112411
88	0xbdcf343d	-0.101173855
89	0x3e01ca9c	0.12674946
90	0xbd7394cc	-0.059468076
91	0x3e03483e	0.12820527
92	0xbc973f49	-0.018462794
93	0xbd2d549d	-0.04231702
94	0xbd68861e	-0.05676853
95	0x3a4dbd22	0.00078483124
96	0xbc1ddc7d	-0.009635088
97	0x3d1d48a5	0.038399357
98	0xbd847f22	-0.06469561
99	0x3de98126	0.11401586
100	0x3cf11a63	0.029431527
101	0xbcccf6f3	-0.025020098
102	0xbdbd201d	-0.09234641
103	0x3d0aa230	0.03384608
104	0x3b0c44f5	0.0021403406
105	0xbcee5cec	-0.029097043
106	0xbe042923	-0.12906317
107	0x3d7a7c53	0.06115372
108	0x3caa01b9	0.020752775
109	0x3da41c83	0.08013251
110	0xbdc3f675	-0.09568492
111	0x3dbeb359	0.093115516
112	0x3ddfc643	0.10926487
113	0x3d055200	0.032548904
114	0x3ddffccc	0.10936889
115	0xbdfc6588	-0.12324053
116	0x3dab144d	0.083534814
117	0xbd5995d9	-0.05312142
118	0x3d531ed4	0.051543072
119	0x3db90d39	0.09035725
120	0x3cd3f19b	0.025872042
121	0xbccd400e	-0.025054958
122	0x3d8746f0	0.06605327
123	0x3dfc0a24	0.12306622
124	0xbdd8cfac	-0.10586485
125	0x3e0675ab	0.13130824
126	0x3cd28726	0.02569921
127	0x3d8ed898	0.06974906
128	0x392a9d46	0.00016271052
129	0xbce68522	-0.028139655
130	0xbce6c6dc	-0.028170995
131	0xbcce1db8	-0.025160655
132	0xbdfcd494	-0.123452336
133	0x3db00f34	0.0859665
134	0x3d7fc318	0.062441915
135	0xbe0be500	-0.13661575
136	0x3d91d6f9	0.07121081
137	0xbddf21f3	-0.10895147
138	0xbd7a4847	-0.061104085
139	0x3df7733c	0.12082526
140	0xbc8f4830	-0.017490476
141	0x3db1b184	0.086764365
142	0x3d8cd95f	0.06877398
143	0x3c5d61fc	0.013512131
144	0xbe0cfab2	-0.13767508
145	0x3dd54284	0.104130775
146	0xbd7fe3bf	-0.062473055
147	0xbdc78535	-0.09742204
148	0xbd46d5ba	-0.04854367
149	0x3de19186	0.110140845
150	0xbd21f385	-0.03953888
151	0x3d85a893	0.065262936
152	0x3c4b82e2	0.012421342
153	0xbd6d3088	-0.05790761
154	0x3cedfdc4	0.029051669
155	0x3dd2a2c0	0.10284948
156	0x3decafe8	0.11556989
157	0xbae79c85	-0.0017670548
158	0x3be4e64c	0.0069854613
159	0x3d705598	0.05867538
160	0xbd5a6f15	-0.053328592
161	0xbd0fd842	-0.03511835
162	0x3d90edff	0.07076644
163	0x3dcd9bc3	0.10039475
164	0x3c4d05a1	0.012513549
165	0xbc196017	-0.0093612885
166	0xbdfc6cc2	-0.123254314
167	0xbc979b1c	-0.01850658
168	0xbda105ad	-0.07862411
169	0xbcf1eb19	-0.029531049
170	0xbc3c17b0	-0.011480257
171	0x3d7626a9	0.060095463
172	0x3de59410	0.11209881
173	0x3c5eb033	0.013591814
174	0x3cb2019f	0.021729289
175	0xbd86e8d1	-0.06587375
176	0xbdc44f08	-0.095853865
177	0xbe0923d4	-0.13392574
178	0x3c962852	0.018329773
179	0x3ccce0f9	0.02500962
180	0x3df5d59d	0.12003634
181	0x3db0ac0d	0.08626566
182	0x3beccd3d	0.0072266147
183	0xbd2c2128	-0.042023808
184	0x3dc200ef	0.09472834
185	0xbdeacd08	-0.11464888
186	0xbc26946e	-0.010167224
187	0x3d4d1df7	0.050077405
188	0xbe019f0a	-0.12658325
189	0x3ddab51d	0.10679076
190	0xbd07b126	-0.033127926
191	0x3e01257d	0.12611957
192	0xbc9f53e0	-0.019449174
193	0xbdb33f13	-0.08752265
194	0x3d8c60d9	0.0685441
195	0xbdc7a02e	-0.09747349
196	0xbdd2caa6	-0.10292558
197	0xbd16c4ef	-0.036808904
198	0x3db0cb61	0.086325414
199	0x3d16fd06	0.036862396
200	0x3df833e2	0.12119271
201	0xbd4f093e	-0.050545923
202	0xbbe2a68a	-0.0069168257
203	0xbd80648f	-0.0626918
204	0x3e0f352a	0.13985124
205	0x3c5b9f24	0.013404641
206	0xbe09d83d	-0.13461395
207	0x3cba9d34	0.022780038
208	0xbdd09080	-0.10183811
209	0x3c1fda96	0.009756705
210	0x3d24790b	0.040154498
211	0xbd95c10b	-0.07312211
212	0xbe075380	-0.13215446
213	0xbca85c41	-0.020551803
214	0xbdca7d97	-0.098872356
215	0x3e0413f4	0.12898237
216	0xbd7bdd6b	-0.061490458
217	0xbceaeead	-0.028678263
218	0x3ddcca37	0.10780757
219	0xbcdc8f5a	-0.026923824
220	0xbc18461f	-0.009294062
221	0xbe13a980	-0.14420128
222	0x3d894d0e	0.0670415
223	0x3dce0e14	0.10061279
224	0xbe0be87a	-0.13662902
225	0x3e0636e8	0.13106883
226	0x3db74370	0.089484096
227	0x3d92ba12	0.07164396
228	0xbbfa69fd	-0.0076420293
229	0xbc6cea25	-0.014460121
230	0x3df59d69	0.11992914
231	0x3d91c9b6	0.071185514
232	0xbdaa6008	-0.08319098
233	0xbd9880d4	-0.07446447
234	0x3e068675	0.13137229
235	0xbd95bd21	-0.07311464
236	0xbd603602	-0.054739006
237	0xbdbcbcda	-0.09215708
238	0x3d1b99c4	0.03798844
239	0xbcf9bc4e	-0.030485298
240	0x3e02c19c	0.12769169
241	0xbd913108	-0.0708943
242	0x3d3967f0	0.04526514
243	0xbdc4a822	-0.09602381
244	0xbdd5fd80	-0.10448742
245	0xbe05f8ce	-0.13083193
246	0xba9cd5c1	-0.0011965559
247	0x3d2468f8	0.04013917
248	0x3d6252b6	0.05525466
249	0x3e0467a7	0.12930165
250	0x3d8b7952	0.068102494
251	0xbbe34023	-0.006935136
252	0x3d94752c	0.07248911
253	0xbe04a333	-0.1295288
254	0x3e083294	0.13300544
255	0xbdeaa9b3	-0.11458149

linears.1.weight f4 [2, 512]
0	0xbd14e8b5	-0.03635474
1	0x3ca5f0f4	0.020256497
2	0xbd029d68	-0.031888396
3	0xbd7d39de	-0.061822765
4	0xbc926ccb	-0.017874142
5	0x3d5e76f1	0.05431265
6	0x3ca05378	0.019571051
7	0x3d4ffe4a	0.05077962
8	0x3d790da0	0.06080401
9	0x3c81709e	0.01580077
10	0x3d3cf2a1	0.046129826
11	0xbc753285	-0.014965658
12	0x3d1e8ad9	0.038706634
13	0xbd1babdd	-0.0380057
14	0xbce0e2e6	-0.027451944
15	0xbbd08295	-0.006363223
16	0x3ce46de5	0.027884433
17	0x3a15a01f	0.0005707759
18	0x3d5f4324	0.05450739
19	0x3d60c93b	0.05487941
20	0xbd3b37b7	-0.04570743
21	0xbcf0a558	-0.029375717
22	0xbca244f0	-0.019808263
23	0xba842065	-0.0010080455
24	0xbd31998c	-0.043359324
25	0x3cf09948	0.029369965
26	0xb851de45	-5.0036488e-05
27	0x3d0ba467	0.034092333
28	0x3b988d61	0.0046555256
29	0xbbebbcfd	-0.00719416
30	0x3d3ee836	0.046608172
31	0x3d5ea656	0.05435785
32	0xbcc36928	-0.023853853
33	0x3d1ebcb6	0.038754188
34	0xbcdcee21	-0.026969017
35	0x3cfc0212	0.030762706
36	0xbce0ee4f	-0.027457384
37	0xbc43bb28	-0.011946477
38	0xbd824249	-0.06360299
39	0x3a0644e5	0.00051219604
40	0xbd2085f3	-0.039190244
41	0xbd294973	-0.041329812
42	0xbd0ee71f	-0.034888383
43	0xbd02c626	-0.03192725
44	0x3d3fd083	0.04682971
45	0x3d4a4976	0.049386464
46	0x3d453671	0.048147622
47	0xbd2070a7	-0.039169934
48	0x3d43383d	0.047661055
49	0x3d83ab92	0.06429209
50	0x3bd5a552	0.006519952
51	0xbd1ac24d	-0.037782956
52	0x3d28ae26	0.041181706
53	0x3d57771a	0.05260382
54	0x3cfb4e3e	0.030676957
55	0xbd4b2f1d	-0.049605478
56	0xbcbd2606	-0.02308942
57	0x3d537de6	0.051633738
58	0xbd5464bd	-0.051853884
59	0x3d1944c3	0.037419092
60	0x3bb8bc5e	0.0056376895
61	0x3af28a4c	0.001850435
62	0xbd69b930	-0.057061374
63	0xbd4c6ddb	-0.049909454
64	0x3d387009	0.04502872
65	0xbbd516b3	-0.00650295
66	0x3d06d84f	0.03292113
67	0xbb21c8ba	-0.0024686293
68	0xbc63f71f	-0.013913899
69	0x3d1f739a	0.038928606
70	0xbd3c975b	-0.04604278
71	0x3d33e9ea	0.04392425
72	0x3c67d9a6	0.0141510125
73	0x3d22dc26	0.03976073
74	0xbd1e18d9	-0.038597915
75	0xbcd7f112	-0.026360068
76	0xbd2f7a06	-0.04284098
77	0x3d141ac3	0.036158334
78	0xbc509424	-0.012730632
79	0xbad28d3d	-0.0016063821
80	0xbd4bd1ca	-0.049760617
81	0x3d61470a	0.05499939
82	0x3d6affba	0.057372786
83	0x3baa34f9	0.005194303
84	0x3b31d08a	0.0027132356
85	0xbcbc0e9a	-0.022956181
86	0xbd1697b6	-0.036765777
87	0xbc8d8e9a	-0.017279912
88	0x3c8f17e0	0.01746744
89	0x3d183b21	0.037165765
90	0xbd42fc1a	-0.047603704
91	0x3d7e4435	0.062076766
92	0x3c6646a0	0.014054924
93	0xbd2e8f77	-0.042617287
94	0xbc5fca5b	-0.013659085
95	0x3d797629	0.060903702
96	0xbca28b3d	-0.019841785
97	0x3d38631e	0.0450164
98	0xbc8f543b	-0.017496219
99	0x3cb5c809	0.02219011
100	0xbd3c8f0f	-0.04603487
101	0x3ca3f609	0.02001478
102	0x3ce8eb8a	0.028432626
103	0x3bdc4da4	0.0067231227
104	0xbd3a1980	-0.045434475
105	0x3b91a589	0.004444782
106	0x3c106ac0	0.008814514
107	0xbd348f74	-0.04408212
108	0xbc806a24	-0.015675612
109	0x3c04255b	0.008065547
110	0xbac473e5	-0.0014988153
111	0xbd3175b3	-0.043325137
112	0xbca3e799	-0.020007895
113	0xbc991ea0	-0.018691361
114	0xbb9468ec	-0.004529109
115	0x3d338e29	0.043836746
116	0x3d5118d2	0.05104906
117	0x3cb68a8b	0.02228286
118	0x3ce58cde	0.028021272
119	0xbd572ee7	-0.052534964
120	0x3d145f4e	0.036223702
121	0x39ac98a2	0.00032920117
122	0x3d5ad724	0.05342783
123	0x3cc138ee	0.023586717
124	0x3c38cddc	0.011279549
125	0xbcfad111	-0.030617269
126	0x3d0aae1a	0.033857442
127	0x3cdd66fc	0.027026646
128	0x3ce461cc	0.027878664
129	0xbbe378eb	-0.006941905
130	0xbd4e4ea5	-0.05036797
131	0xbbdc2690	-0.006718464
132	0xbd755025	-0.059890885
133	0xbcd9e25f	-0.0265972
134	0xbd0d4ecd	-0.03449898
135	0xbcc85ada	-0.024457384
136	0x3d4e5820	0.05037701
137	0x3ce34b54	0.02774588
138	0x3cdd81a4	0.027039357
139	0x3d0899e4	0.033349887
140	0x3d546c0f	0.051860865
141	0x3d552747	0.05203941
142	0x3cc468df	0.023975788
143	0x3d45effc	0.04832457
144	0xbd404339	-0.04693911
145	0x3d268ab9	0.04065964
146	0x3d2fb178	0.042893857
147	0xbd5c25ec	-0.053747103
148	0xbd556171	-0.05209488
149	0x3c05ee12	0.008174436
150	0x3d133c84	0.035946384
151	0x3d78d12c	0.060746357
152	0xbd5dd51f	-0.054158326
153	0x3d87399b	0.06602784
154	0xbcd291d4	-0.025704302
155	0xbcadc789	-0.02121331
156	0x3c153f1a	0.009109283
157	0x3d352dc5	0.044233102
158	0x3cf1fb4a	0.02953877
159	0xbb1cd0c0	-0.0023928136
160	0xbd4a4b7f	-0.049388405
161	0xbcad12b7	-0.021127088
162	0xbd4bc5c3	-0.049749147
163	0xbd82337e	-0.063574776
164	0x3cbed82a	0.023296434
165	0x3bc3dfbf	0.0059776003
166	0xbd65bb00	-0.05608654
167	0xbcbd0512	-0.023073707
168	0x3d91d10e	0.07119952
169	0x3d763573	0.060109567
170	0xbc8ae1f9	-0.016953455
171	0xbd20448b	-0.039127868
172	0x3d1e19e9	0.03859893
173	0xbcc49f48	-0.024001732
174	0xbc537711	-0.012906806
175	0x3b100e4d	0.002198118
176	0x3b32d28c	0.002728614
177	0xbd54504e	-0.051834397
178	0xbd54419d	-0.051820386
179	0x3d01cee8	0.03169146
180	0x3ce52406	0.027971279
181	0x3b8f9ee1	0.0043829535
182	0xbd064a33	-0.032785606
183	0xbd2bee93	-0.04197557
184	0x3b9a3a60	0.004706666
185	0xbd30696a	-0.04306928
186	0xbd63205e	-0.05545079
187	0x3d27d0ea	0.04097072
188	0x3bb50d2b	0.0055252514
189	0xbd4cc3ad	-0.0499913
190	0xbc48ff54	-0.012267906
191	0x3d68771b	0.056754213
192	0x3c3f6353	0.011681396
193	0xbd37f6d1	-0.044913117
194	0x3d2f165e	0.04274594
195	0xbd049075	-0.032364327
196	0x3d2ebfc8	0.042663366
197	0xbb4cb497	-0.003123557
198	0x3d5dc419	0.05414209
199	0xbcbf2851	-0.023334654
200	0x3d8b18df	0.06791853
201	0x3d0838b4	0.0332572
202	0x3d3989e8	0.045297533
203	0x3cfe13d9	0.031015323
204	0xbd2d7e46	-0.04235675
205	0x3cba3a04	0.022732742
206	0x3d3b279d	0.045692075
207	0xbd6d0f96	-0.057876192
208	0xbbdcf118	-0.006742608
209	0xbc4cabf7	-0.0124921715
210	0x3d5141be	0.051088087
211	0xbd21afdd	-0.039474357
212	0xbc983d54	-0.018583931
213	0x3cb7735d	0.022393877
214	0xbb715e44	-0.0036829868
215	0xbcea5e29	-0.028609352
216	0xbbe201ba	-0.0068971785
217	0x3cac0cc8	0.021002188
218	0xbd3c931b	-0.04603873
219	0x3c42578c	0.011861693
220	0xbb3d7f32	-0.0028914926
221	0xbc269b79	-0.0101689035
222	0xbd134f40	-0.03596425
223	0x3d6978cb	0.056999963
224	0x3cfc91fb	0.030831328
225	0x3c7acf27	0.015308178
226	0xbad41f2d	-0.0016183608
227	0x3d0fb2b9	0.035082553
228	0xbd1dbee6	-0.038512133
229	0xbd5289d6	-0.05140098
230	0xbd45f242	-0.04832674
231	0xbcdc83e7	-0.026918365
232	0xbd2fe9f2	-0.042947717
233	0x3d3ff04f	0.046860036
234	0x3c45f663	0.012082669
235	0xbd092e64	-0.033491507
236	0xbd3301db	-0.04370294
237	0x3d89b38a	0.067236975
238	0x3d4b7122	0.04966844
239	0xbca12042	-0.019668702
240	0x3d61aede	0.055098407
241	0xbc87d3c4	-0.01658047
242	0x3bedc73d	0.007256417
243	0x3b504c1b	0.0031783644
244	0xbd4ea8f8	-0.05045411
245	0xbd4c2b74	-0.049846128
246	0xbc744f09	-0.014911422
247	0x3d394ce3	0.04523934
248	0x3d1f3d85	0.03887703
249	0x3d668324	0.05627741
250	0x3d1bcc5a	0.03803668
251	0x3caa655a	0.020800281
252	0xbbe6b511	-0.0070406278
253	0xbd1fcc90	-0.039013445
254	0x3d5a68c3	0.053322565
255	0x3d623632	0.055227466

linears.1.bias f4 [2]
0	0xbd248b57	-0.040171947
1	0x3beb27c2	0.0071763704
