hw3/model_with_Tanh.pth (torch, 110800 bytes, 4 tensors)

linears.0.weight f4 [512, 50]
0.086426936 0.0567904 0.18368463 -0.4082105 0.01618335 0.7382403 -0.112971835 -0.24508528
-0.20364122 -0.013400649 -0.10746375 0.36355245 -0.075285345 0.23936287 -0.11631616 0.45697963
-0.706933 0.16207522 0.315343 -0.10796432 0.053510953 0.0017938409 -0.17209743 -0.19191411
0.20811668 -0.09678028 0.23430224 0.09668585 0.54701394 0.19900995 -0.3427986 0.16866462
-0.18759748 -0.10235136 0.3111347 -0.3311539 0.6655315 -0.09933323 -0.16815318 0.056861952
0.033463962 -0.016976818 0.6157901 0.3062695 -0.47476617 0.30475667 0.33747748 -0.097140916
0.21889374 0.18764824 -0.31443816 0.06735127 0.15524185 0.405175 0.0013686285 0.88601714
-0.27655324 -0.81939745 -0.7092888 -0.41656774 -0.43916452 0.82348126 -0.072600015 0.508045
-0.51560444 0.7354602 -0.7650224 0.48651513 0.2738991 0.19705683 0.35949117 0.25594366
-0.4666934 -0.2956972 -0.3483272 -0.30687973 -0.08820931 0.20685107 0.8240745 0.04185313
-0.38107046 0.00015142665 -0.14358385 0.17322002 0.487366 -0.19165714 1.1555086 -0.084534355
-0.028497703 0.4108639 -0.1878454 -0.56767625 1.0368499 0.65618014 -0.7979375 0.25547314
0.34778264 -0.8131947 0.18533014 0.014850428 0.1546719 0.30304748 -0.031830706 0.046858963
0.13213632 0.3912752 -0.25919762 -0.3063621 -0.20662643 -0.008666166 0.1404512 0.4761421
-0.06316638 0.15044384 -0.069099724 0.23931849 -0.5110481 0.05639451 0.33632794 0.031242235
-0.036881912 0.215233 -0.03943035 -0.40183246 -0.15327807 -0.18291748 -0.17185462 0.13392478
0.28625786 0.054419603 0.022162825 0.309568 -0.021140233 -0.13547754 0.21731794 -0.255588
0.47616464 -0.09293033 0.0353783 0.03807687 -0.11531908 0.15030196 0.7120312 0.09436303
-0.37125823 0.12677136 0.30447748 -0.14896181 -0.033955384 0.049132593 -0.21877088 -0.18119192
-0.19846602 -0.3553581 -0.21669528 -0.24629988 0.03030478 0.496099 -0.0528911 -0.046760194
0.09793898 -0.33718196 0.051464695 0.13933334 0.49247324 -0.23182677 0.3514631 0.13771884
-0.028166134 -0.1672961 -0.06081537 0.22243892 -0.04205078 0.32169706 -0.36814865 -0.12453631
-0.26839775 -0.36486316 -0.14616331 0.04456532 0.03558554 -0.24292548 0.026283814 0.23350945
-0.18749426 0.16695257 -0.41407922 0.034405336 0.12995131 -0.071959436 0.0409142 -0.10250301
-0.28956112 -0.25927398 0.30337718 -0.27643397 -0.23610817 0.36871377 -0.17826466 -0.03459157
-0.1488577 -0.16049272 -0.21468925 0.118734285 -0.0866432 0.1359375 -0.104464926 -0.17617127
0.04756946 -0.13522342 -0.23486604 -0.12897903 0.0031123771 0.016144812 0.3616417 -0.14889854
-0.2662845 -0.1542555 0.08347409 -0.17152226 -0.3154419 0.021920256 0.009781055 0.0408062
0.07615521 0.2036331 -0.26240304 0.2207075 0.0676142 0.018892532 0.06721072 0.23372635
0.18408813 -0.1624023 -0.17040269 0.059201878 -0.1331706 0.10046633 0.07678646 0.06049996
-0.068241544 0.004653841 0.29199544 -0.023112502 -0.11159002 0.14792034 0.128536 0.25108036
-0.26884237 0.029821604 0.21652833 0.20423692 0.027915677 -0.11871585 -0.10115837 0.27028415
00000000: 9b00 b13d 0d9d 683d d317 3c3e f700 d1be
00000010: f292 843c 51fd 3c3f c75d e7bd a3f7 7abe
00000020: 5387 50be 658e 5bbc f415 dcbd 8c23 ba3e
00000030: 342f 9abd 8a1b 753e 2b37 eebd 3cf9 e93e
00000040: 90f9 34bf 0cf7 253e a374 a13e 661c ddbd
00000050: 4d2e 5b3d 501f eb3a 4f3a 30be 2285 44be
00000060: 8a1c 553e bd34 c6bd edec 6f3e 3b03 c63d
00000070: 1b09 0c3f 44c9 4b3e 4c83 afbe 6bb6 2c3e
00000080: 8e19 40be 979d d1bd 0c4d 9f3e 018d a9be
00000090: 4660 2a3f 386f cbbd 5930 2cbe 14e8 683d
000000a0: 8211 093d f812 8bbc 6ca4 1d3f 5bcf 9c3e
000000b0: 8d14 f3be 1109 9c3e d9c9 ac3e d1f1 c6bd
000000c0: ae25 603e dc26 403e 0afe a0be 76ef 893d
000000d0: b8f7 1e3e 1973 cf3e 8d63 b33a 05d2 623f
000000e0: 6398 8dbe 08c4 51bf f393 35bf 5e48 d5be
000000f0: 2cda e0be abcf 523f 51af 94bd 3d0f 023f
00000100: a7fe 03bf 1f47 3c3f 82d8 43bf 8318 f93e
00000110: 813c 8c3e 44c9 493e 3a0f b83e 0c0b 833e
00000120: 70f2 eebe a065 97be f157 b2be 571f 9dbe
00000130: 15a7 b4bd c4d0 533e 8cf6 523f 306e 2b3d
00000140: ab1b c3be 48c8 1e39 a507 13be 9760 313e
00000150: 0988 f93e c541 44be b5e7 933f 5920 adbd
00000160: 0474 e9bc c15c d23e 8b5a 40be 3b53 11bf
00000170: 7fb7 843f 6cfb 273f a245 4cbf 60cd 823e
00000180: 9110 b23e 872d 50bf 2fc7 3d3e 364f 733c
00000190: 5062 1e3e 0a29 9b3e ea60 02bd 2fef 3f3d
000001a0: be4e 073e 3955 c83e 8db5 84be 7edb 9cbe
000001b0: e195 53be 89fc 0dbc 70d2 0f3e e6c8 f33e
000001c0: 605d 81bd f30d 1a3e 2884 8dbd e80f 753e
000001d0: 0cd4 02bf eefd 663d 2d33 ac3e b7ef ff3c
000001e0: 7d11 17bd 0a66 5c3e b881 21bd fcbc cdbe
000001f0: edf4 1cbe b84e 3bbe a8fa 2fbe 9423 093e
00000200: 6490 923e 17e7 5e3d d08e b53c b27f 9e3e
00000210: 482e adbc a0ba 0abe 9888 5e3e 6edc 82be
00000220: dacb f33e 4252 bebd d6e8 103d 7ef6 1b3d
00000230: 692c ecbd c2e8 193e ad47 363f 6741 c13d
00000240: 8f15 bebe 5ad0 013e 79e4 9b3e 7289 18be
00000250: cd14 0bbd 423f 493d 7905 60be 608a 39be
00000260: ad3a 4bbe 7ff1 b5be 5ee5 5dbe 0936 7cbe
00000270: bb41 f83c b000 fe3e 57a4 58bd 9e87 3fbd
00000280: 3b94 c83d 1da3 acbe a5cc 523d 66ad 0e3e
00000290: 7425 fc3e ff63 6dbe f9f2 b33e 2b06 0d3e
000002a0: aabc e6bc ab4f 2bbe 8a19 79bd 07c7 633e
000002b0: 703d 2cbd 7ab5 a43e fb7d bcbe e50c ffbd
000002c0: 6e6b 89be 58cf babe d6ab 15be 208a 363d
000002d0: 25c2 113d 75c1 78be 2751 d73c 1a1d 6f3e
000002e0: 7ffe 3fbe 9df5 2a3e 3102 d4be 9cec 0c3d
000002f0: f511 053e 785f 93bd a695 273d 19ed d1bd
00000300: 5b41 94be 8fbf 84be 4154 9b3e c188 8dbe
00000310: 57c6 71be 0dc8 bc3e 038b 36be e4af 0dbd
00000320: 276e 18be 3458 24be 80d7 5bbe f62a f33d
00000330: fd71 b1bd 3333 0b3e b5f1 d5bd 3e66 34be
00000340: 32d8 423d 0278 0abe b980 70be 1413 04be
00000350: 06f9 4b3b 2042 843c 1a29 b93e dc78 18be
00000360: 7156 88be 27f5 1dbe 77f4 aa3d 88a3 2fbe
00000370: 9a81 a1be 1c92 b33c b840 203c 6724 273d
00000380: 43f7 9b3d 3285 503e b159 86be 2601 623e
00000390: 5079 8a3d 83c4 9a3c c6a5 893d f655 6f3e
000003a0: 9981 3c3e ca4c 26be 0b7e 2ebe ab7d 723d
000003b0: e05d 08be 4bc1 cd3d 3842 9d3d cece 773d
000003c0: 39c2 8bbd 3f7f 983b 6d80 953e 6e56 bdbc
000003d0: 4f89 e4bd 6e78 173e f19e 033e 9b8d 803e
000003e0: b5a5 89be 704c f43c 9ab9 5d3e 7c23 513e
000003f0: 6baf e43c 4c21 f3bd 1f2c cfbd af62 8a3e

linears.0.bias f4 [512]
-0.29815823 -0.3260432 -0.2554267 0.27484596 0.010973972 -0.115536846 -0.31451198 0.024450079
0.17385186 -0.3607255 -0.058093045 -0.15269531 -0.4810396 0.100180306 -0.1789374 -0.29457474
-0.12099283 0.098908834 -0.16957515 -0.035125703 -0.0882543 0.50519246 0.23244052 -0.21492475
0.27634063 0.11787867 -0.041618176 0.34679902 -0.14672448 -0.10784674 -0.28628454 -0.13237233
0.29547706 0.1609744 -0.13283117 0.088580616 0.190811 0.21992742 0.06405241 0.0060641575
0.2926796 -0.08227825 0.04539648 -0.277091 -0.031900577 -0.056256868 0.16678968 0.2384035
0.08355168 0.32991874 0.54681575 0.37160796 -0.10507847 -0.10781969 -0.0410091 -0.43235427
0.2969636 -0.5293076 0.26903653 0.20503592 -0.16915978 -0.20364788 0.20350811 -0.16861996
0.029351981 0.05279655 -0.45286712 0.0041537504 0.00297191 0.16223226 0.083781585 0.051496334
0.1274496 0.20726733 0.2447263 0.26610902 -0.122669436 0.32952332 -0.07318297 -0.38432834
-0.23293546 0.1578652 0.1422815 0.15024796 -0.30544665 0.17502989 0.118474476 -0.03272992
0.41165042 0.13233024 0.3107403 -0.08046009 0.07907474 0.03711759 -0.26126093 -0.3412398
0.2076031 0.12378453 0.09832054 -0.3920515 -0.20816225 0.018491725 -0.23988363 0.044299427
0.2909144 0.37905642 -0.01244036 0.68112123 0.05583692 -0.26690018 0.15580995 -0.28114983
0.26419187 -0.50582606 0.39213854 -0.32026732 0.03741747 -0.158422 0.23650289 0.3913815
0.36010063 0.09356475 -0.20773154 -0.3354587 -0.06652173 -0.22508207 0.23823391 0.32979122
0.07766735 0.18586992 -0.08610153 -0.58340526 0.31694922 0.37377894 -0.2151237 -0.19548531
-0.07851739 0.010101156 -0.14646007 0.05920312 0.112122245 0.039784364 -0.019845983 0.015520385
0.3133638 0.3095821 0.08824177 -0.16781807 -0.34491095 -0.29462677 -0.25539938 -0.2142942
0.4078463 0.23522583 -0.14022884 0.1266774 0.24945527 0.070851006 0.17348343 0.057007905
0.0075027114 0.05869778 -0.33064565 0.22705455 -0.13728423 0.0034588962 -0.06806195 -0.3628132
0.030167986 0.1988374 0.4168838 -0.20710133 0.024082731 0.25360462 -0.04039383 -0.32535943
-0.13969894 -0.12510414 -0.17244677 0.021103207 -0.1375481 -0.17681105 -0.011710105 0.37360793
-0.15523191 0.049331844 -0.30257434 0.27974755 -0.060911026 0.2761245 0.22042254 -0.16880049
-0.5488076 0.21396731 0.1158848 0.067569286 -0.22309627 -0.06831975 0.123661004 0.3529546
-0.20475547 -0.41219705 -0.291522 -0.059921447 0.32305375 0.08110427 0.13771577 -0.36546093
0.296155 -0.083350666 0.060333613 -0.15749279 0.06978476 -0.11737766 -0.25642395 -0.28095347
-0.076638654 0.3750927 -0.089156665 0.06604433 0.0410554 -0.093271986 -0.03098001 0.07979285
-0.073728725 -0.09223458 0.28499967 0.55328006 0.3264313 0.02462824 -0.24828623 -0.07791797
-0.44599956 0.07339222 0.08602407 0.44775352 0.1425186 -0.16406968 0.085358515 0.07965294
-0.35749954 -0.21676224 -0.00062417705 -0.19995114 -0.16412865 -0.12573275 0.4167638 -0.019581309
-0.25341672 0.23022395 -0.1266803 0.047447547 -0.01282561 0.16184925 -0.08085809 0.1412477
00000000: 32a8 98be 22ef a6be 4ac7 82be 9cb8 8c3e
00000010: 2dcc 333c 959e ecbd b707 a1be 884b c83c
00000020: 3906 323e 03b1 b8be f9f2 6dbd 295c 1cbe
00000030: d34a f6be 552b cd3d 5e3b 37be 80d2 96be
00000040: 17cb f7bd b790 ca3d 1ca5 2dbe f8df 0fbd
00000050: acbe b4bd 4b54 013f e304 6e3e 3c15 5cbe
00000060: 857c 8d3e 5f6a f13d d277 2abd a48f b13e
00000070: f13e 16be c0de dcbd e393 92be 9d8c 07be
00000080: c548 973e 79d6 243e e504 08be c169 b53d
00000090: f563 433e a734 613e e92d 833d d7b5 c63b
000000a0: 1ada 953e 8081 a8bd a9f1 393d dfde 8dbe
000000b0: 2eaa 02bd 9a6d 66bd eaca 2a3e 0c20 743e
000000c0: 251d ab3d 1ceb a83e 1efc 0b3f 6643 be3e
000000d0: 6233 d7bd 92d0 dcbd 28f9 27bd 8a5d ddbe
000000e0: 9d0b 983e b480 07bf 28bf 893e f0f4 513e
000000f0: 3938 2dbe 1289 50be 6e64 503e b6aa 2cbe
00000100: 9173 f03c 3241 583d 33de e7be 2f1c 883b
00000110: 60c4 423b 3720 263e ae95 ab3d d2ed 523d
00000120: 2682 023e e33d 543e 8899 7a3e 713f 883e
00000130: 1d3a fbbd 48b7 a83e f4e0 95bd afc6 c4be
00000140: a286 6ebe 6aa7 213e 3eb2 113e 9ada 193e
00000150: 8163 9cbe 093b 333e bfa2 f23d cf0f 06bd
00000160: d8c3 d23e 9481 073e 5a19 9f3e 42c8 a4bd
00000170: f0f1 a13d 9d08 183d fec3 85be fcb6 aebe
00000180: e895 543e be82 fd3d 475c c93d f9ba c8be
00000190: 7c28 55be f57b 973c 0ea4 75be 5173 353d
000001a0: bbf2 943e af13 c23e a7d2 4bbc f65d 2e3f
000001b0: 41b5 643d 24a7 88be a58c 1f3e dff2 8fbe
000001c0: 2844 873e d17d 01bf 62c6 c83e 14fa a3be
000001d0: 1043 193d 6039 22be d02d 723e 2863 c83e
000001e0: 1c5f b83e e09e bf3d 94b7 54be 3ec1 abbe
000001f0: 8b3c 88bd ea7b 66be 97f3 733e 65da a83e
00000200: 0f10 9f3d af54 3e3e 0056 b0bd 0c5a 15bf
00000210: 2b47 a23e f45f bf3e 6349 5cbe 4d2d 48be
00000220: bacd a0bd 527f 253c a1f9 15be f97e 723d
00000230: 59a0 e53d eef4 223d 0b94 a2bc 3649 7e3c
00000240: 3871 a03e 8c81 9e3e 1ab8 b43d 80d8 2bbe
00000250: 2b98 b0be 52d9 96be b5c3 82be f06f 5bbe
00000260: 3bd1 d03e 0adf 703e 2698 0fbe b8b7 013e
00000270: 3471 7f3e 551a 913d a4a5 313e 1f81 693d
00000280: 4ed9 f53b 156d 703d 634a a9be fd80 683e
00000290: 3d94 0cbe a6ae 623b 1064 8bbd a7c2 b9be
000002a0: da22 f73c 089c 4b3e cb71 d53e 5f12 54be
000002b0: 2649 c53c 77d8 813e 0074 25bd 8395 a6be
000002c0: 3d0d 0fbe 4d1b 00be e395 30be a2e0 ac3c
000002d0: 69d9 0cbe f50d 35be bedb 3fbc 8a49 bf3e
000002e0: 1df5 1ebe 3010 4a3d 06eb 9abe 123b 8f3e
000002f0: d77d 79bd 3160 8d3e 72b6 613e 09da 2cbe
00000300: a87e 0cbf 3f1a 5b3e 0355 ed3d c461 8a3d
00000310: 5973 64be 3aeb 8bbd fb41 fd3d 77b6 b43e
00000320: 6bab 51be 7e0b d3be 5f42 95be 3170 75bd
00000330: 4d67 a53e ff19 a63d 5d05 0d3e b21d bbbe
00000340: a1a1 973e c1b3 aabd 6120 773d ca45 21be
00000350: 50eb 8e3d b363 f0bd 004a 83be 22d9 8fbe
00000360: baf4 9cbd 260c c03e c597 b6bd 4042 873d
00000370: b529 283d 6205 bfbd cac9 fdbc 6f6a a33d
00000380: 16ff 96bd 7ce5 bcbd 7aeb 913e c3a3 0d3f
00000390: 0122 a73e 2ac1 c93c bf3e 7ebe 7593 9fbd
000003a0: 0e5a e4be a94e 963d 632d b03d f33f e53e
000003b0: 65f0 113e e201 28be 72d0 ae3d 1521 a33d
000003c0: 2e0a b7be ecf6 5dbe d09f 23ba febf 4cbe
000003d0: 5711 28be 16c0 00be 1162 d53e fb68 a0bc
000003e0: d6bf 81be d4bf 6b3e 7bb8 01be 5c58 423d
000003f0: 8222 52bc cfbb 253e ed98 a5bd 3da3 103e

linears.1.weight f4 [2, 512]
0.0020251994 0.010216958 -0.00973685 -0.02765818 0.027483303 0.00035998947 -0.012816773 0.030113157
0.029955998 -0.0039223037 -0.010096697 -0.004025428 -0.12567261 -0.029131958 0.017635167 0.031352974
-0.0026985076 0.02027923 0.009881704 -0.035530407 0.0032781255 -0.015060764 -0.03805748 -0.0055523245
-0.0059671444 -0.017280139 0.008906857 0.008316917 -0.017841069 0.011106365 -0.021030318 -0.022000702
0.02847549 0.03210975 -0.0078008706 0.019711973 -0.018743282 0.03560168 -0.024636703 -0.037269462
0.015588369 0.018726332 0.01913194 0.0024856895 -0.034334287 -0.0034874105 0.008898208 0.02734813
0.0035445527 0.0060947808 0.026560215 0.0031758659 -0.007543364 0.009007267 0.014549439 0.01588367
0.00025049178 -0.071914695 -0.0011505159 0.041992474 -0.014736155 0.007314459 0.00976073 -0.02451296
-0.044162277 0.008539589 -0.03725273 0.005519266 0.0057353657 0.030612446 -0.044956427 -0.009162108
-0.013027251 0.0002850776 0.019209988 0.009424385 -0.014959222 0.048604447 -0.038069814 -0.022077283
0.007541484 0.044402584 -0.026480947 -0.0041181655 -0.033752687 -0.00055333204 -0.012332981 -0.031982943
-0.010468317 -0.0065119835 -0.021371273 0.019432327 0.00064346753 0.001745441 -0.020319631 -0.027645674
0.016194621 0.002056886 -0.004502334 -0.014390634 -0.019988976 0.023185259 -0.0036561447 -0.004339097
-0.0024786205 0.03703133 -0.00860556 0.5946356 0.0149894925 -0.027641468 0.010766333 0.026813757
-0.024709258 -0.039464626 -0.0022161095 -0.018436234 0.026468014 -0.02313657 -0.0007382389 0.00047940074
-0.007614939 0.0074933767 -0.0143805705 -0.01818723 0.008518558 0.010406556 0.036345985 0.012613701
-0.015688324 0.048806824 -0.004674579 -0.3134255 0.004058002 0.019970385 0.0038296694 -0.036305513
-0.028871778 -0.012408979 -0.00399574 0.017917933 0.009944594 0.021723531 0.0058157826 0.0177295
0.018038793 0.019741531 0.019441927 -0.0046741944 -0.05606606 0.0070946305 -0.007379199 0.011303462
-0.024891708 0.013846224 0.017704107 0.021041725 0.014376918 0.02136017 0.025018092 0.018039823
0.0035545514 -0.01130561 0.0099590225 0.032705165 -0.0031591235 -0.0055447347 -0.035622314 -0.0077876523
-0.010424968 0.01369183 0.006790117 0.00532047 -0.006214743 0.013315631 -0.00058990234 -0.03777301
0.005240525 -0.005023899 -0.017644837 -0.0090326 -0.015837891 -0.022865208 0.015386104 -0.027504163
-0.020627437 -0.022995625 -0.014411186 0.043057244 -0.014803905 -0.001029308 -0.017903024 -0.036942992
-0.16583277 0.049566984 0.028749328 -0.013460644 -0.019663908 0.0078123743 0.024886968 -0.0025774548
-0.020894915 -0.017920947 -0.026223488 0.0255268 0.029199006 0.03379404 -0.026015485 -0.017919425
-0.008705663 0.02223992 0.0010143872 0.015831951 -0.050373077 -0.03235707 -0.015915472 -0.011021245
0.0067487587 0.02049608 0.032472722 0.03616271 -0.025118597 -0.012040423 -0.007971692 -0.006832056
0.0104421945 0.019391015 -0.015115298 0.04773138 0.020015864 0.035435006 -0.03858982 0.010055695
-0.029984389 -0.0005021051 0.029475883 0.8464248 -0.0094868895 -0.015742252 -0.017259669 0.012293823
0.0014560292 0.02248249 -0.007053825 -0.0047672614 0.016739344 -0.020592004 0.041659012 -0.004199947
-0.05193113 0.027746279 0.0007801668 -0.00871584 0.019142428 -0.00075008336 0.042736553 0.020624593
00000000: 35b9 043b 0765 273c 4f87 1fbc 6893 e2bc
00000010: aa24 e13c f8bc bc39 71fd 51bc deaf f63c
00000020: 4866 f53c ab86 80bb 9e6c 25bc bde7 83bb
00000030: 52b0 00be 25a6 eebc a077 903c fa6b 003d
00000040: 72d9 30bb a120 a63c dfe6 213c 5588 11bd
00000050: d2d5 563b 6cc1 76bc 29e2 1bbd 46f0 b5bb
00000060: 0988 c3bb 148f 8dbc 11ee 113c ae43 083c
00000070: 6f27 92bc 79f7 353c c647 acbc d13a b4bc
00000080: 6e45 e93c 8385 033d 729e ffbb 017b a13c
00000090: 838b 99bc 11d3 113d e9d2 c9bc dda7 18bd
000000a0: 5c66 7f3c f767 993c 96ba 9c3c f3e6 223b
000000b0: 1ca2 0cbd 0a8d 64bb cac9 113c 2f09 e03c
000000c0: ba4b 683b bab6 c73b cf94 d93c 3022 503b
000000d0: 532e f7bb 3793 133c c560 6e3c 781e 823c
000000e0: 7054 8339 0348 93bd e8cc 96ba 4d00 2c3d
000000f0: ea6f 71bc 21ae ef3b 78eb 1f3c 67cf c8bc
00000100: 81e3 34bd a2e9 0b3c 5296 18bd f5da b43b
00000110: bcef bb3b f4c6 fa3c 3b24 38bd ab1c 16bc
00000120: 4070 55bc 7876 9539 445e 9d3c bc68 1a3c
00000130: 8617 75bc 7515 473d 18ef 1bbd 6bdb b4bc
00000140: 8e1e f73b 7cdf 353d 92ee d8bc adf1 86bb
00000150: 4240 0abd 7c0d 11ba 4610 4abc 8c00 03bd
00000160: 4e83 2bbc 7a62 d5bb cf12 afbc 8b30 9f3c
00000170: 60ae 283a 48c7 e43a 5b75 a6bc 2e79 e2bc
00000180: 95aa 843c d2cc 063b 5188 93bb b2c6 6bbc
00000190: ecbf a3bc 03ef bd3c ee9b 6fbb fc2e 8ebb
000001a0: 5a70 22bb 2aae 173d 56fe 0cbc 0a3a 183f
000001b0: 7d96 753c 5c70 e2bc 4665 303c 86a8 db3c
000001c0: 126b cabc a9a5 21bd 263c 11bb 9607 97bc
000001d0: 73d3 d83c e788 bdbc 6086 41ba 1458 fb39
000001e0: bd86 f9bb 008b f53b 7c9c 6bbc 63fd 94bc
000001f0: 6c91 0b3c 4280 2a3c 87df 143d b2a9 4e3c
00000200: cd84 80bc aae9 473d 362d 99bb 4f79 a0be
00000210: fdf8 843b ef98 a33c 31fb 7a3b 17b5 14bd
00000220: 8284 ecbc 084f 4bbc b2ee 82bb a1c8 923c
00000230: a7ee 223c 8cf5 b13c 5292 be3b 753d 913c
00000240: 17c6 933c feb8 a13c ad44 9f3c fc29 99bb
00000250: 86a5 65bd 137a e83b 35cd f1bb 2832 393c
00000260: b2e9 cbbc 46db 623c 3408 913c b25f ac3c
00000270: 2a8d 6b3c 86fb ae3c bef2 cc3c 40c8 933c
00000280: 7af3 683b 2a3b 39bc 2b2b 233c daf5 053d
00000290: 4c09 4fbb 9bb0 b5bb b4e8 11bd 902f ffbb
000002a0: 7ccd 2abc b353 603c a17f de3b 5657 ae3b
000002b0: 0ba5 cbbb ce29 5a3c ada3 1aba dfb7 1abd
000002c0: b6b8 ab3b 859f a4bb e88b 90bc 78fd 13bc
000002d0: 77be 81bc d14f bbbc ff15 7c3c 6950 e1bc
000002e0: dffa a8bc 5261 bcbc e51c 6cbc cb5c 303d
000002f0: 148c 72bc d8e9 86ba 5da9 92bc 8951 17bd
00000300: 11d0 29be c006 4b3d b683 eb3c 088a 5cbc
00000310: 3416 a1bc f2fe ff3b c1df cb3c 84ea 28bb
00000320: d02b abbc f3ce 92bc a4d2 d6bc 941d d13c
00000330: c132 ef3c 9f6b 0a3d 6d1e d5bc c2cb 92bc
00000340: 32a2 0ebc 7e30 b63c 30f5 843a 02b2 813c
00000350: 0054 4ebd d988 04bd 2a61 82bc 7492 34bc
00000360: b124 dd3b 65e7 a73c 1e02 053d 5a1f 143d
00000370: 84c5 cdbc 3245 45bc b39b 02bc 71df dfbb
00000380: bd15 2b3c e8d9 9e3c 28a6 77bc fb81 433d
00000390: 4ff8 a33c 4c24 113d 5c10 1ebd a4c0 243c
000003a0: d2a1 f5bc b49f 03ba 6877 f13c 4caf 583f
000003b0: e66e 1bbc e5f5 80bc 2664 8dbc 086c 493c
000003c0: 3cd8 be3a 332d b83c c623 e7bb b036 9cbb
000003d0: f320 893c 90b0 a8bc a4a2 2a3d b69f 89bb
000003e0: bdb5 54bd 2a4c e33c 1c84 4c3a e2cc 0ebc
000003f0: 95d0 9c3c 3ea1 44ba 860c 2f3d e8f4 a83c

linears.1.bias f4 [2]
0.17958924 -0.12107899
00000000: 3ee6 373e 43f8 f7bd
