hw3/model_with_Sigmoid.pth (torch, 110824 bytes, 4 tensors)

linears.0.weight f4 [512, 50]
-1.0048108 -0.11354464 -0.1604016 0.68806267 0.7810972 1.79039 -0.9190129 -1.9398105
-1.1255527 -0.60855734 -1.1042138 1.9475917 -0.0019743985 0.2519651 -1.4991465 1.612404
-1.5069687 0.97352 0.7143867 0.54207045 1.1829413 0.8143192 -1.0010502 -0.34693155
-1.0943543 -0.7654519 -0.025927957 -0.4350279 1.0671574 0.30270484 -0.4357946 -0.24669483
0.3663696 -0.053944714 0.77179515 -1.1456244 2.5235124 -0.5725308 0.25882265 1.6003295
0.045197718 -0.7047838 1.671108 1.0653406 -1.7627693 0.8242016 0.45650613 -1.6669397
0.44658336 0.17010783 0.60035175 -0.9603609 -0.6092308 0.15767522 1.0059694 0.95376456
-1.4584974 -0.8181195 0.10198613 -2.3695602 -0.47644287 -0.6003675 0.29488826 1.1270957
6.2293057 1.441787 -2.8724864 1.4140558 1.2188588 0.1819529 -2.1866422 0.7240453
-0.5937215 -0.6494544 3.6781054 -0.6648012 -1.0374521 -3.561943 -0.43860656 3.713934
0.8414455 -1.5017041 -0.696944 -0.52324206 1.0149584 -0.27209878 -0.14742617 4.956647
-1.8116881 -1.5169755 -0.02988626 3.7774367 1.4363984 -2.3575919 0.41542932 -1.1978334
-0.6971632 2.8575642 1.4544561 1.7498034 -0.40276548 -0.50523853 -0.47796145 0.42579922
0.1722859 -0.72675526 -0.25870577 0.01559391 0.52221966 -0.4004998 -0.8504987 0.55217785
0.5449234 -0.2580033 -0.24992698 0.047494203 -0.39539814 0.12320705 0.34633225 0.2639274
0.7743141 -1.8319 0.39890164 -0.35273865 0.029791724 -0.509239 0.57617295 0.28552744
-0.38960496 0.27888015 0.8005584 -0.8006183 0.50510585 1.2758999 -0.35554528 -0.62342405
0.26617047 0.7293333 0.7962894 0.41688374 0.46385294 -0.7704344 -0.30138105 -0.35122138
-0.48781213 0.3162112 -0.8694594 -1.3906738 0.5164481 0.24005783 -0.4322842 -0.2373522
-0.63089496 0.08865623 0.2448057 -0.7236905 -0.2432166 0.21389782 0.6046968 -0.081500635
-0.8568004 0.48563546 0.44517744 -0.41212767 -0.3154563 0.24810396 -0.5766605 0.3544188
0.29859978 0.4431993 0.41413084 -1.7816797 0.6849956 -0.41929668 0.2339723 -0.40914157
0.6370906 0.16593508 -0.49465704 0.49170324 0.7513869 -0.60758644 0.64610887 1.1238601
-0.45606562 -0.45487583 0.1973024 0.61807495 0.6573503 0.43194652 0.42253956 -0.60593677
-0.6370519 -0.78835213 -0.6495246 0.2927504 -0.68693405 -0.31708732 0.35709858 0.24335124
-0.67707074 -0.5803217 -0.60962737 0.6769573 0.8873207 0.88506913 -0.767877 -1.6742864
-0.5710897 -0.21310474 -1.1508689 1.4606569 0.22683358 0.23323895 -0.63269717 1.3579423
-1.002318 0.85065633 0.66828895 0.57003754 0.23952462 0.70883965 -0.34877363 -0.5593962
-0.63245136 -0.7304873 -0.84962964 -0.38680133 0.25883156 0.2498622 -0.17228387 -0.5491148
0.5716598 0.20248863 0.23073277 -0.9372413 1.7973804 -0.3859614 0.32777616 1.1167018
0.25927106 -0.85152 0.810678 0.23617573 -1.3164978 0.9456048 -0.025047872 -0.74548316
0.49339083 0.45669076 -0.66377735 -0.45674732 -0.27139503 0.4095514 0.74688876 0.62438303
00000000: a49d 80bf 188a e8bd 5140 24be e024 303f
00000010: fcf5 473f 802b e53f 6e44 6bbf b64b f8bf
00000020: 1c12 90bf 6aca 1bbf e156 8dbf af4a f93f
00000030: e964 01bb 9201 813e 08e4 bfbf 4163 ce3f
00000040: 5ae4 c0bf 9b38 793f 0ce2 363f 21c5 0a3f
00000050: 9f6a 973f 3977 503f 6a22 80bf 03a1 b1be
00000060: cd13 8cbf a8f4 43bf de66 d4bc fabb debe
00000070: 9d98 883f 21fc 9a3e 7820 dfbe 929d 7cbe
00000080: cc94 bb3e 22f5 5cbd 5e94 453f d2a3 92bf
00000090: 3a81 2140 6191 12bf 6784 843e 99d7 cc3f
000000a0: 3e21 393d b66c 34bf dee6 d53f 155d 883f
000000b0: 6da2 e1bf e0fe 523f 2cbb e93e 485e d5bf
000000c0: 93a6 e43e bf30 2e3e a7b0 193f 36da 75bf
000000d0: 8df6 1bbf 9d75 213e 9bc3 803f ea29 743f
000000e0: 0bb0 babf 4870 51bf 1bde d03d e0a6 17c0
000000f0: 52f0 f3be afb1 19bf 98fb 963e ac44 903f
00000100: 7956 c740 7a8c b83f d1d6 37c0 c8ff b43f
00000110: 9103 9c3f dc51 3a3e f2f1 0bc0 085b 393f
00000120: 22fe 17bf a542 26bf 1466 6b40 6930 2abf
00000130: 3bcb 84bf e0f6 63c0 0a91 e0be 18b1 6d40
00000140: f968 573f d737 c0bf ec6a 32bf 31f3 05bf
00000150: 28ea 813f 8850 8bbe e3f6 16be da9c 9e40
00000160: 65e5 e7bf 412c c2bf 08d4 f4bc 86c1 7140
00000170: e7db b73f c9e2 16c0 27b3 d43e 9b52 99bf
00000180: 4a79 32bf 55e2 3640 9e2b ba3f 8ff9 df3f
00000190: 4737 cebe 5057 01bf 5db7 f4be 5b02 da3e
000001a0: b76b 303e a20c 3abf 1575 84be 997d 7f3c
000001b0: 30b0 053f 4f0e cdbe 48ba 59bf 875b 0d3f
000001c0: 1a80 0b3f 0219 84be dcec 7fbe 4889 423d
000001d0: a071 cabe fa53 fc3d 7652 b13e 7e21 873e
000001e0: 7339 463f b37b eabf d63c cc3e 299a b4be
000001f0: c60d f43c 7d5d 02bf 1280 133f a730 923e
00000200: 4d7a c7be 61c9 8e3e 65f1 4c3f 52f5 4cbf
00000210: 9e4e 013f b050 a33f 080a b6be b898 1fbf
00000220: 7f47 883e 96b5 3a3f 9fd9 4b3f c971 d53e
00000230: 227e ed3e 303b 45bf 9e4e 9abe 4ad3 b3be
00000240: 83c2 f9be 6fe6 a13e e494 5ebf 9901 b2bf
00000250: f135 043f b8d1 753e 5b54 ddbe 750c 73be
00000260: 5582 21bf 6691 b53d 58ae 7a3e c843 39bf
00000270: c60d 79be 0808 5b3e 69cd 1a3f cee9 a6bd
00000280: 4557 5bbf 36a5 f83e 4cee e33e 6602 d3be
00000290: 7d83 a1be f70e 7e3e 06a0 13bf 6276 b53e
000002a0: 12e2 983e 05eb e23e f508 d43e 150e e4bf
000002b0: df5b 2f3f 0eae d6be 6f96 6f3e 017b d1be
000002c0: 5f18 233f e3ea 293e b043 fdbe 87c0 fb3e
000002d0: e45a 403f c98a 1bbf 6467 253f a6da 8f3f
000002e0: 6f81 e9be 7ce5 e8be a409 4a3e 293a 1e3f
000002f0: 1c48 283f 1828 dd3e 1b57 d83e ac1e 1bbf
00000300: d515 23bf 72d1 49bf 3f47 26bf 61e3 953e
00000310: e9da 2fbf 4559 a2be a0d5 b63e 1131 793e
00000320: 8254 2dbf f78f 14bf 8a10 1cbf 134d 2d3f
00000330: 7327 633f e493 623f 9693 44bf 044f d6bf
00000340: ef32 12bf 2138 5abe ac4f 93bf cef6 ba3f
00000350: 1047 683e 31d6 6e3e 71f8 21bf 0ed1 ad3f
00000360: f54b 80bf 9dc4 593f fc14 2b3f fbed 113f
00000370: f145 753e 8476 353f 7592 b2be 9734 0fbf
00000380: 55e8 21bf 3701 3bbf 5481 59bf d30a c6be
00000390: 9285 843e e0db 7f3e 2f6b 30be ca92 0cbf
000003a0: 4c58 123f 2e59 4f3e 3645 6c3e 0cef 6fbf
000003b0: 9010 e63f bc9c c5be 47d2 a73e 16f0 8e3f
000003c0: 2dbf 843e 37fd 59bf 9888 4f3f 0dd8 713e
000003d0: 0083 a8bf 2813 723f 3231 cdbc fcd7 3ebf
000003e0: b99d fc3e 5fd3 e93e 50ed 29bf c9da e9be
000003f0: 4af4 8abe b9b0 d13e 1a34 3f3f 91d7 1f3f

linears.0.bias f4 [512]
-0.66576517 -0.6921719 -0.28612915 -0.42377448 -0.70020103 -0.62536776 -0.5543 -0.33803406
-0.27183414 -0.08236761 -0.26242617 -0.2890924 -0.15714374 -0.28958064 -0.40242434 0.051199183
-0.19506215 -0.3847706 -0.66106236 -0.35170814 -0.47877595 -0.46994892 -0.4746459 0.020984422
-0.45277816 -0.35755888 -0.23875552 -0.1705861 -0.18034722 -0.48780164 -0.39371952 -0.4699406
-0.1260103 -0.20644704 -0.20118281 -0.47280517 -0.45736217 -0.36790973 -0.005112677 -0.36018658
-0.67422813 -0.31954852 -0.69229764 -0.24997742 -0.59480417 -0.34477952 -0.31493923 -0.4889514
-0.31079313 -0.3649006 -0.33155918 -0.09924218 -0.44376516 -0.16860136 -0.36171556 -0.13805972
-0.1346081 -0.36245278 -0.10415799 -0.18647517 -0.11492015 -0.57703334 -0.56306845 -0.32466045
-0.17338017 -0.16798043 -0.12187621 -0.10078854 -0.68563056 -0.49707365 -0.529218 -0.35166082
-0.3164239 -0.30772445 -0.44459838 -0.47146434 0.067154236 -0.18685065 -0.39664876 -0.07343474
-0.6260801 -0.5752426 -0.20966087 -0.15878002 -0.65380394 -0.5404061 -0.58548814 -0.3860693
-0.23453452 -0.41040662 -0.24928363 -0.394657 -0.37299815 -0.45941558 -0.42366493 -0.28084043
-0.35896263 -0.22446065 -0.7630312 -0.59239817 0.049856886 -0.5098685 -0.34917414 -0.5080917
-0.22709793 -0.1894389 -0.51587015 -0.39369914 -0.38335562 -0.52683944 -0.48131126 -0.39895862
-0.26083046 -0.26174495 -0.15752986 -0.41842178 -0.51334476 -0.46118483 -0.6521076 -0.078482404
-0.32443023 -0.44825807 -0.39922976 -0.4520211 -0.41133487 -0.73358274 -0.6128959 -0.2382741
-0.12950502 -0.57171434 -0.41093755 -0.37927794 -0.050447404 -0.052810952 -0.16701216 -0.15589628
-0.39731717 -0.14181697 -0.3825691 -0.1135587 -0.5035474 -0.5632522 -0.2764924 -0.13594702
-0.36286 -0.62726927 -0.5645209 -0.11335817 -0.32140774 -0.2878593 -0.6617191 -0.3955972
-0.3141771 -0.20542347 -0.3067159 -0.19783705 -0.1750464 -0.38028356 -0.47504595 -0.22459246
-0.60008806 0.098991476 -0.503392 -0.14913096 -0.019693684 -0.44013983 -0.60233027 -0.4635779
-0.31622922 -0.54318786 -0.49775738 -0.5203328 -0.46798614 -0.59377617 -0.16608861 -0.41684234
-0.06941986 -0.56662595 -0.6798688 -0.4018391 -0.31522715 -0.4402755 -0.3660508 0.08853099
-0.23263265 -0.25750908 -0.2154229 -0.5087548 -0.4376748 -0.36002508 -0.5788224 -0.7018558
-0.37337846 -0.61743015 -0.5545439 -0.27659136 -0.30689773 -0.7021753 -0.3959638 -0.7962147
-0.062866956 -0.41404197 -0.63094205 -0.14253676 -0.26652744 -0.2740915 -0.36467588 0.055305783
-0.44402146 -0.24960123 -0.42189363 -0.48218438 -0.42787153 -0.43602356 -0.6722722 -0.26427892
-0.18969166 -0.24033865 -0.30011478 -0.13212536 -0.10692144 -0.046220604 -0.43506616 -0.17784822
-0.17971195 -0.57444596 -0.19327898 -0.11297571 -0.17673522 -0.050744962 0.0061086128 0.15909776
-0.5402534 0.09397737 -0.25894055 -0.35520062 -0.3325969 -0.2016525 -0.22656846 -0.09387346
-0.4047455 -0.17627253 -0.20361632 -0.22898728 -0.3646417 -0.31961983 -0.16882767 -0.13390927
-0.405401 -0.73528016 -0.38896173 -0.44148332 -0.15475634 -0.3108886 -0.13306458 -0.3343924
00000000: 966f 2abf 2d32 31bf 857f 92be f8f8 d8be
00000010: 6040 33bf 1a18 20bf 9be6 0dbf cd12 adbe
00000020: d82d 8bbe 59b0 a8bd b95c 86be eb03 94be
00000030: 4aea 20be ea43 94be 900a cebe 3cb6 513d
00000040: 5fbe 47be a700 c5be 623b 29bf 1713 b4be
00000050: 1f22 f5be 259d f0be ca04 f3be 86e7 ab3c
00000060: 8ad2 e7be f511 b7be 547c 74be 1fae 2ebe
00000070: f1ac 38be 23c1 f9be 9b95 c9be 0e9c f0be
00000080: d808 01be da66 53be de02 4ebe 8513 f2be
00000090: 602b eabe aa5e bcbe 3e88 a7bb 606a b8be
000000a0: 379a 2cbf dd9b a3be 6b3a 31bf 15fa 7fbe
000000b0: 1645 18bf f186 b0be b73f a1be d757 fabe
000000c0: 4720 9fbe 40d4 babe 20c2 a9be 7c3f cbbd
000000d0: 3035 e3be d6a5 2cbe c832 b9be 875f 0dbe
000000e0: b5d6 09be 6993 b9be c950 d5bd 59f3 3ebe
000000f0: 415b ebbd 75b8 13bf 4125 10bf e539 a6be
00000100: 928a 31be 1003 2cbe 3c9a f9bd 396a cebd
00000110: 7c85 2fbf 7080 febe d57a 07bf e30c b4be
00000120: 5002 a2be 0f8e 9dbe 66a2 e3be c663 f1be
00000130: 2988 893d c755 3fbe 8c15 cbbe f464 96bd
00000140: c946 20bf 1943 13bf 57b1 56be 3b97 22be
00000150: b25f 27bf 0e58 0abf 8de2 15bf e0aa c5be
00000160: d129 70be d120 d2be 3544 7fbe 7b10 cabe
00000170: 9df9 bebe 8538 ebbe 9cea d8be 51ca 8fbe
00000180: f3c9 b7be 03d9 65be 0356 43bf 68a7 17bf
00000190: bc36 4c3d be86 02bf f4c6 b2be 4c12 02bf
000001a0: 5c8c 68be 45fc 41be 1110 04bf ef92 c9be
000001b0: 3047 c4be f3de 06bf 6e6e f6be 4e44 ccbe
000001c0: 928b 85be 6f03 86be 824f 21be 613b d6be
000001d0: 906a 03bf 6b20 ecbe 86f0 26bf 62bb a0bd
000001e0: b81b a6be 1582 e5be d867 ccbe 4f6f e7be
000001f0: 7c9a d2be 14cc 3bbf bfe6 1cbf 20fe 73be
00000200: f79c 04be df5b 12bf 6866 d2be b830 c2be
00000210: f0a1 4ebd 4c50 58bd 3c05 2bbe 46a3 1fbe
00000220: 286d cbbe 7838 11be 19e0 c3be 7791 e8bd
00000230: 7be8 00bf 4c31 10bf 6990 8dbe b235 0bbe
00000240: c9c8 b9be b894 20bf 7184 10bf 5428 e8bd
00000250: 8e8f a4be 4b62 93be 6c66 29bf b78b cabe
00000260: d2db a0be 885a 52be de09 9dbe cc95 4abe
00000270: 5d3f 33be 87b4 c2be 3939 f3be 91fb 65be
00000280: 5f9f 19bf 0bbc ca3d 4cde 00bf c9b5 18be
00000290: a654 a1bc 025a e1be 5132 1abf 155a edbe
000002a0: cce8 a1be 5c0e 0bbf 0eda febe 8834 05bf
000002b0: e19b efbe b701 18bf 2213 2abe 5c6c d5be
000002c0: 002c 8ebd 660e 11bf e20b 2ebf dbbd cdbe
000002d0: 7465 a1be ca6b e1be 036b bbbe bc4f b53d
000002e0: 4137 6ebe 3bd8 83be d297 5cbe c13d 02bf
000002f0: e916 e0be 3555 b8be b42d 14bf d2ac 33bf
00000300: 762b bfbe e70f 1ebf 97f6 0dbf 629d 8dbe
00000310: b321 9dbe c3c1 33bf c4bb cabe bad4 4bbf
00000320: 64c0 80bd 4ffd d3be 6b85 21bf 28f5 11be
00000330: 4976 88be b955 8cbe ccb6 babe 5188 623d
00000340: c856 e3be 7797 7fbe 7102 d8be dfe0 f6be
00000350: fa11 dbbe 7b3e dfbe 081a 2cbf 914f 87be
00000360: 883e 42be 561b 76be a5a8 99be df4b 07be
00000370: a1f9 dabd d151 3dbd fec0 debe d81d 36be
00000380: 6906 38be e40e 13bf edea 45be cf5f e7bd
00000390: 14fa 34be f3d9 4fbd c22a c83b 86ea 223e
000003a0: 0c4e 0abf 3577 c03d db93 84be dbdc b5be
000003b0: 244a aabe fe7d 4ebe 9001 68be bb40 c0bd
000003c0: cd3a cfbe c980 34be cc80 50be a47b 6abe
000003d0: 51b2 babe 36a5 a3be 29e1 2cbe 831f 09be
000003e0: b890 cfbe 523b 3cbf fe25 c7be 1a0a e2be
000003f0: 7278 1ebe ca2c 9fbe 1542 08be 7b35 abbe

linears.1.weight f4 [2, 512]
-0.15120873 -0.20772001 0.07312591 0.013901773 -0.014334505 -0.016782565 -0.3085436 0.09965274
0.02370372 0.14403595 0.09599443 0.09119946 0.14933035 0.07083216 0.041006967 0.13970852
0.041570432 0.03349301 -0.22390848 0.058197077 0.053844977 0.029233398 -0.0035458314 0.1965002
0.033983488 0.054125596 0.09685917 0.0951709 0.11462642 0.032722373 0.08673142 0.0102085695
0.26141933 0.2070184 0.11135354 0.06784527 0.081292726 0.05703328 0.25851363 0.026648404
0.006643839 0.0568728 0.03262186 0.07163759 -0.34251294 0.051347952 0.06543152 0.05842474
0.05480433 0.10908922 0.10152646 0.29248738 0.06591533 0.25464535 0.06912575 0.1542677
0.07434151 0.08681727 0.35844532 0.07999532 0.0952484 -0.1777819 -0.0019405334 0.09797092
0.08633912 0.20192268 0.046003215 0.20139118 -0.013936014 -0.0055255992 -0.0014432489 0.08139232
0.07583701 0.042279817 0.05277607 -0.005074078 0.35131705 0.061271563 0.06878907 0.31994426
0.026636442 -0.004253696 0.09201374 0.072189935 -0.06718002 0.043954805 -0.049671657 0.09677255
0.0404798 0.05691782 0.07594022 0.089827396 0.06941457 0.060854107 0.06660718 0.09745688
0.050280202 0.11154968 -0.0075366795 -0.28427103 0.25296947 0.042069517 0.040883854 -0.013959467
0.07197527 0.08329649 -0.22231542 0.038843773 0.051779613 0.022449471 -0.3426987 0.029398706
-0.53506047 0.07826776 0.04437887 0.09758021 0.062173743 -0.015892088 0.04276765 0.18590213
0.12801392 0.10677833 0.070863314 0.083807826 0.029563988 0.034650326 -0.006248004 0.04833467
0.16769892 0.05214565 0.061547227 0.043325957 0.18611167 0.34854037 0.10899128 0.10317655
0.07185289 0.046378195 0.035476908 0.100479044 0.022074359 0.011809164 0.035913683 0.17245679
0.09088496 0.017772423 0.029159535 0.06859852 0.054090098 0.067950234 -0.05738394 0.05818824
0.046722475 0.08304501 0.11669 0.10273335 0.20885833 0.039155662 0.042762987 0.059891947
-0.0046862257 0.52645403 0.06219289 0.154439 0.40362477 0.03464416 -0.028422372 0.08084959
0.12965451 -0.2014163 0.017190961 0.012096653 0.01517549 -0.16148064 0.099482104 0.028670918
0.14786237 0.06714878 -0.005477077 0.088936806 0.068043545 0.024151137 0.032088734 0.29777637
0.09040312 0.073468395 0.15023139 0.082571335 0.018231342 0.05448754 0.013300639 0.0051408103
0.043811206 -0.072193146 -0.56290454 0.055200007 0.08883738 -0.008568864 0.05946762 -0.050985828
0.37667498 0.05428848 -0.1630885 0.02971002 0.03983124 0.10307563 0.08037293 0.28769472
0.058622587 0.104952484 0.07405652 0.086517304 0.068572365 0.04046575 -0.03964518 0.064804606
0.03746715 0.11479102 0.13741893 0.28281426 0.18700008 0.14108402 0.09612562 0.04755494
0.098537736 -0.04541584 0.2510053 0.28114748 0.08775337 0.1204331 0.31230444 0.46528304
0.039015844 0.36146277 0.17133234 0.07600669 0.1224875 0.117281504 0.04959 0.120983616
0.06447878 0.2103996 0.0870339 0.19513883 0.11681455 0.05467943 0.17916347 0.13434625
0.07600934 -0.037087113 0.08883579 0.08034094 0.089782655 0.05761188 0.10277 0.090195194
00000000: 76d6 1abe 8eb4 54be 09c3 953d 43c4 633c
00000010: 46db 6abc 977b 89bc 6df9 9dbe bc16 cc3d
00000020: 4e2e c23c 297e 133e ba98 c43d c8c6 ba3d
00000030: 0eea 183e 7410 913d ecf6 273d c00f 0f3e
00000040: c245 2a3d f72f 093d 4448 65be 0f60 6e3d
00000050: 8d8c 5c3d e17a ef3c 2e61 68bb 5937 493e
00000060: 4532 0b3d cdb2 5d3d 1a5e c63d f6e8 c23d
00000070: 42c1 ea3d e507 063d 3ea0 b13d d841 273c
00000080: c1d8 853e a2fc 533e 530d e43d 76f2 8a3d
00000090: cd7c a63d bb9b 693d e65b 843e c14d da3c
000000a0: 90b4 d93b 74f3 683d 809e 053d bbb6 923d
000000b0: db5d afbe 3b52 523d f600 863d c84e 6f3d
000000c0: 817a 603d 2b6a df3d 1bed cf3d e8c0 953e
000000d0: 9efe 863d e060 823e cd91 8d3d 5af8 1d3e
000000e0: 5d40 983d 41cd b13d 2586 b73e 96d4 a33d
000000f0: 9811 c33d 750c 36be 7f59 feba faa4 c83d
00000100: 91d2 b03d d2c4 4e3e de6d 3c3d 7d39 4e3e
00000110: e153 64bc 1610 b5bb 662b bdba 04b1 a63d
00000120: 6f50 9b3d 9a2d 2d3d b82b 583d 7444 a6bb
00000130: d4df b33e e4f7 7a3d 49e1 8c3d bccf a33e
00000140: ab34 da3c 9762 8bbb b371 bc3d 51d8 933d
00000150: ae95 89bd f409 343d 8274 4bbd b030 c63d
00000160: 26ce 253d a922 693d 8c86 9b3d 6df7 b73d
00000170: 3a29 8e3d 2842 793d 5869 883d 7997 c73d
00000180: 9df2 4d3d 2974 e43d 40f6 f6bb f98b 91be
00000190: 3785 813e 1651 2c3d d475 273d 40b6 64bc
000001a0: c567 933d 5a97 aa3d a7a6 63be a61a 1f3d
000001b0: dc16 543d f4e7 b73c 3476 afbe 8ed5 f03c
000001c0: b9f9 08bf d94a a03d 9ec6 353d 22d8 c73d
000001d0: e5a9 7e3d 2030 82bc 222d 2f3d 215d 3e3e
000001e0: 1516 033e 99ae da3d c920 913d 70a3 ab3d
000001f0: 2d30 f23c 80ed 0d3d 0ebc ccbb 93fa 453d
00000200: 44b9 2b3e ad96 553d f218 7c3d 8f76 313d
00000210: 0f94 3e3e e273 b23e d236 df3d 3a4e d33d
00000220: 9c27 933d 10f7 3d3d 3c50 113d f5c7 cd3d
00000230: 49d5 b43c 397b 413c 3a1a 133d 8398 303e
00000240: e521 ba3d 7997 913c fadf ee3c 617d 8c3d
00000250: 948d 5d3d 7e29 8b3d 6c0b 6bbd cb56 6e3d
00000260: 1160 3f3d 8113 aa3d 2bfb ee3d dd65 d23d
00000270: f5de 553e b061 203d 3e28 2f3d 4251 753d
00000280: e98e 99bb b1c5 063f f9bd 7e3d 4225 1e3e
00000290: e8a7 ce3e 09e7 0d3d 09d6 e8bc 7894 a53d
000002a0: 27c4 043e 1340 4ebe 0fd4 8c3c 0a31 463c
000002b0: 9ea2 783c 2e5b 25be 46bd cb3d 46df ea3c
000002c0: 3c69 173e 4d85 893d 0d79 b3bb 8024 b63d
000002d0: 6a5a 8b3d 9bd8 c53c 7a6f 033d 2576 983e
000002e0: 4525 b93d 9976 963d 42d6 193e 291b a93d
000002f0: e559 953c 542e 5f3d ecea 593c 3e74 a83b
00000300: 6173 333d 00da 93bd 831a 10bf 6719 623d
00000310: 5ff0 b53d 6c64 0cbc 5294 733d 84d6 50bd
00000320: 8bdb c03e 995d 5e3d ac00 27be 6e62 f33c
00000330: 1526 233d 5119 d33d 909a a43d b94c 933e
00000340: 3d1e 703d 54f1 d63d f2aa 973d fc2f b13d
00000350: ab6f 8c3d 6abf 253d fc62 22bd 47b8 843d
00000360: 2777 193d 8e17 eb3d 8cb7 0c3e 08cd 903e
00000370: f37c 3f3e 5478 103e 82dd c43d f8c8 423d
00000380: 27ce c93d f605 3abd c483 803e 90f2 8f3e
00000390: 0ab8 b33d a1a5 f63d 5ee6 9f3e 9439 ee3e
000003a0: 14cf 1f3d a611 b93e bf71 2f3e 65a9 9b3d
000003b0: bada fa3d 4931 f03d e21e 4b3d 42c6 f73d
000003c0: 730d 843d fe72 573e d43e b23d 79d2 473e
000003d0: 773c ef3d 8af7 5f3d a176 373e 1092 093e
000003e0: c9aa 9b3d a8e8 17bd 8aef b53d ca89 a43d
000003f0: f8df b73d 6ffa 6b3d 1479 d23d 42b8 b83d

linears.1.bias f4 [2]
-0.0013512266 -0.032366235
00000000: a41b b1ba 7592 04bd
