hw3/model_learned_at_0.02.pth (torch, 110848 bytes, 4 tensors)

linears.0.weight f4 [512, 50]
000000 5f 92 21 bf 56 04 04 bf e3 8c 2a bf 8b 86 39 be
       -0.6311397 -0.51569116 -0.66621226 -0.1811773
000010 4b 28 e0 3e 7e 9e 82 be 76 0e 1d bf ae c3 02 bf
       0.4378074 -0.25511545 -0.6135019 -0.51079834
000020 da 21 9d 3e 18 f0 29 bf 54 e9 65 bf 89 a8 f6 3e
       0.3068989 -0.6638198 -0.89809155 0.48175457
000030 e7 32 24 3f ac b6 87 3e 5b 53 26 bb a5 e7 38 3f
       0.6414017 0.26506555 -0.0025379274 0.7222846
000040 d7 d6 02 bf 90 ab 46 3f 69 a1 04 3f f9 f2 d1 3e
       -0.5110907 0.77605534 0.5180879 0.41005686
000050 16 e6 0f be 39 3d 43 bf 71 60 92 3e 62 b5 d4 be
       -0.14052615 -0.76265293 0.28589204 -0.41544634
000060 80 c5 29 be 91 e7 12 bf f5 3f f4 3c f8 3c 97 be
       -0.16579247 -0.5738459 0.029815653 -0.29538703
000070 d6 22 8a be b9 c3 95 3e 19 db 60 3e 7a 3b 37 bf
       -0.26979703 0.29250887 0.21958579 -0.7157513
000080 c8 d8 14 3f 8e f4 3c 3f 99 f8 63 be f6 47 15 bf
       0.5814328 0.7381066 -0.22262801 -0.5831293
000090 08 3a 4d 3f 05 70 ea 3e 98 49 24 3f 59 a4 1f 3f
       0.80166674 0.4578859 0.64174795 0.6236015
0000a0 89 e8 18 3f 02 c2 46 bf 4a 30 56 be 87 1c 61 be
       0.5972982 -0.7763978 -0.20916858 -0.21983539
0000b0 8c 9a 5e bf 5c 0f 06 3f 86 f8 08 bf 7f 98 58 bf
       -0.8695457 0.52367187 -0.53504217 -0.8460769
0000c0 8d d5 1f 3f 13 b6 03 3f d6 01 7b bf 2a f9 3f bf
       0.6243523 0.514497 -0.98049676 -0.7498957
0000d0 71 e0 11 bf fb 00 e9 3e 6a 2b 71 bf 29 dd 7f bf
       -0.56983095 0.4550856 -0.9420687 -0.9994684
0000e0 32 e0 2f be 21 3b 74 3f 9c aa 3c 3f b8 11 b0 be
       -0.17175367 0.95402724 0.7369783 -0.34388518
0000f0 81 8f 15 bf 2b 72 fa 3e b7 50 16 3f 1d 5b 1d bf
       -0.58422095 0.48915228 0.5871691 -0.6146715
000100 f7 f0 65 be 81 5f 74 3e 13 74 0f bf 1b 16 ce 3e
       -0.22455202 0.23864557 -0.5603649 0.4025124
000110 81 8f 89 3e f6 7e 8b 3e ac ea 09 40 a5 1d 02 c0
       0.26867297 0.272453 2.1549482 -2.0330594
000120 52 a6 6c 3e 28 8a 59 be 1e e9 83 bf e9 d4 47 bf
       0.23110321 -0.21244109 -1.0305517 -0.7805925
000130 dd 8a 82 3f d9 33 bb 3d 6e 89 98 be 05 5c d8 3d
       1.0198628 0.091407485 -0.2979235 0.10564426
000140 b9 47 33 3f d0 34 31 bf e0 21 09 3f aa 28 34 3f
       0.70031315 -0.6922121 0.53567314 0.7037455
000150 c7 15 63 bf 86 38 1c bf 97 c5 d4 3e 6a 45 6d 3f
       -0.88705105 -0.6102375 0.41557 0.9268404
000160 5f 74 88 3f 4f c9 8c 3e 63 b3 24 3f b0 62 85 bf
       1.0660514 0.27497336 0.6433622 -1.0420742
000170 e5 15 74 bf e6 a0 df bc b6 7e 1b bf b7 e5 86 3e
       -0.9534591 -0.027298402 -0.6074022 0.26347134
000180 55 a0 68 bf 53 02 99 bf 6f db e5 3e 9d 23 28 3d
       -0.9086965 -1.1953834 0.44893977 0.04104959
000190 32 25 13 bf e0 3b ad bf 5c 10 1d bf f6 94 e9 3d
       -0.5747863 -1.3533897 -0.6135309 0.11405365
0001a0 6b b8 5b bf 29 c6 a5 bf 24 ad b9 be d8 b3 d2 3f
       -0.85828274 -1.2951099 -0.36264908 1.6461134
0001b0 52 2e f4 3e 47 03 d1 3e 8b ef 0c bf bf 78 e2 3e
       0.4769159 0.40822813 -0.55053014 0.44232747
0001c0 97 36 06 3f 86 87 51 bf 33 79 74 3e 4e f7 1d be
       0.5242705 -0.8184742 0.23874359 -0.1542637
0001d0 01 8e dc be d5 91 c2 3d 90 50 de 3d 36 d9 7a 3d
       -0.4307709 0.095004715 0.1085521 0.061242305
0001e0 02 cc 01 40 28 81 2f c0 12 d4 c7 3e 55 02 08 be
       2.0280766 -2.742258 0.39028984 -0.1328214
0001f0 13 7e d8 bd 8a b0 28 bf e6 0b a5 3f ff a7 4b be
       -0.10570922 -0.6589438 1.2894256 -0.19888304
000200 4e cd fd be a2 68 a2 3d 3e 1f b3 3e 39 0b 2b bf
       -0.49570698 0.079301134 0.34984773 -0.66814
000210 63 b2 52 3e f0 b0 69 3f cd d8 50 bf 73 ff 87 be
       0.20575862 0.9128561 -0.8158081 -0.2656208
000220 09 69 6a be 3d cd 4a 3f 48 2b db 3e d4 7b 7e 3e
       -0.2289163 0.7921942 0.42806458 0.24851924
000230 c3 66 e9 3e d6 cd 6f bf 25 34 90 bf 3f bf c1 bd
       0.45586213 -0.93673456 -1.1265913 -0.094603054
000240 92 e1 96 be cf 93 2f 3d 69 0a 85 bf 97 ff 5f be
       -0.29468971 0.04286557 -1.0393802 -0.21874844
000250 f4 e9 73 3e a4 2e 57 3d 86 22 c3 bd b5 23 7f bf
       0.23819715 0.052534714 -0.09528069 -0.9966386
000260 d0 09 db be d7 9c d3 bc c3 50 0e bf e6 6e d5 bf
       -0.42780924 -0.025831623 -0.5559198 -1.6674469
000270 93 f9 1f be c2 c3 a6 3f 5e ac 67 3f 1a c8 53 3f
       -0.15622549 1.302849 0.90497386 0.82727206
000280 17 61 c0 bd b0 03 eb be 8d a3 06 3f a9 07 3a bf
       -0.093935184 -0.4590125 0.5259331 -0.7266794
000290 ca 33 85 3e b6 dc 76 be 52 ca 8e 3e 11 de 66 be
       0.26016074 -0.24107632 0.27888733 -0.22545649
0002a0 bd 4f 33 be d2 cb b8 3e 8e 6c 20 3f 2c c6 c2 bf
       -0.17510886 0.36093003 0.6266564 -1.5216727
0002b0 cb b1 49 3f 33 99 af 3e 51 8b 4d bd e1 09 77 be
       0.78786916 0.3429657 -0.05018169 -0.24124862
0002c0 2c 5b 83 3f c6 5a 27 bf a4 b7 43 bf d0 69 83 3e
       1.0262198 -0.65372884 -0.7645209 0.25666666
0002d0 3e f5 af bc b9 1b 46 bf 70 ab dc 3e 1a 91 36 3f
       -0.021479245 -0.7738605 0.43099546 0.7131516
0002e0 da f7 81 bf b6 5d 29 be a4 ed 87 bf 35 6a 54 3e
       -1.0153763 -0.16539654 -1.0619397 0.2074364
0002f0 00 bc f0 b8 3a 9c b4 3e 05 be f2 3e 13 09 95 be
       -0.000114791095 0.3527544 0.47410598 -0.29108486
000300 8e b9 be bf b1 7c 4b bf 67 ae 45 3e af 2c 64 be
       -1.4900377 -0.7948714 0.1930481 -0.2228267
000310 22 94 3e bf 3c f8 2d 3f 84 a3 15 3e 9c d2 e4 bd
       -0.7444478 0.679569 0.14613158 -0.11172983
000320 58 f6 64 bf 00 65 90 bf 10 65 f0 be d3 ec d8 3e
       -0.8943839 -1.1280823 -0.46952105 0.42368183
000330 05 69 83 bf 41 95 7e bf 77 6a cd be be b7 81 3f
       -1.0266424 -0.99446493 -0.4012029 1.0134199
000340 ab b9 fb 3e 6d 08 04 bf 46 5d 21 bf 9e 2c 56 3f
       0.4916509 -0.51575357 -0.6303295 0.8366183
000350 d6 ff 27 3f bf 77 a6 be 6f 0f 7f bd f6 de 24 bb
       0.6562475 -0.32513234 -0.062270578 -0.002515731
000360 b3 b5 12 bf 51 71 c2 3e 41 8c c1 3e 26 6c 37 ba
       -0.573085 0.3797708 0.37802318 -0.00069970114
000370 11 cf 10 40 01 47 25 c0 a2 69 85 3e 17 d3 6a be
       2.2626383 -2.5824587 0.26057154 -0.22932087
000380 70 bd 15 bf 43 22 6c bf f3 fd b3 3f b2 8f b0 3e
       -0.58492184 -0.9223978 1.4061874 0.3448463
000390 82 66 b2 be d8 5b 5d bd da 0f 24 3f 91 48 44 bf
       -0.34843832 -0.054042667 0.6408669 -0.7667323
0003a0 27 19 5d 3e 69 27 7d 3f 21 14 50 bf e0 fe 23 bf
       0.21591626 0.9888826 -0.81280714 -0.64060783
0003b0 4a 99 83 3e 84 df 92 3f e1 0f 8a 3f 2d 98 02 3f
       0.25702888 1.1474462 1.0786096 0.5101345
0003c0 db 35 09 3f c2 d2 a6 bf ad 40 82 bf 4e 57 30 3e
       0.535978 -1.3033068 -1.0175987 0.17220804
0003d0 36 1c 28 bf 58 60 b0 3e 29 ff a6 bf 86 28 f3 bf
       -0.65668046 0.34448504 -1.3046619 -1.8996742
0003e0 98 64 f9 3e 9d 36 1d 3c fd 26 4f bf 5d 9b 04 c0
       0.4870956 0.00959554 -0.80918866 -2.0719826
0003f0 8f 82 01 bf 1d aa 00 3f 74 8d e0 bf 7b 19 c5 bf
       -0.5058984 0.5025957 -1.7543168 -1.5398401

linears.0.bias f4 [512]
000000 38 2b 16 bf 79 30 7b be 3b cd 91 be 29 fd 55 be
       -0.58659697 -0.2453021 -0.2847689 -0.20897354
000010 84 52 a8 be 5a bf 76 be 1f c5 99 be 23 74 eb be
       -0.32875454 -0.24096432 -0.30033204 -0.45987043
000020 dc 99 27 bf 10 f7 2c bf 22 5a 6b bf db e3 8d be
       -0.65469146 -0.6756449 -0.91934407 -0.27712902
000030 a9 19 11 be 45 b2 01 bf b3 59 f1 be f4 3a fd be
       -0.14169945 -0.5066264 -0.47138748 -0.4945904
000040 1a dd 0b bf 0c 08 d3 be 47 ec 1d bf 7f 62 b2 be
       -0.5463425 -0.41217077 -0.61688656 -0.34840772
000050 a6 b8 02 bf 0f 6c e7 be 37 88 f5 be 55 a3 20 bf
       -0.51063 -0.4519963 -0.47955486 -0.62749225
000060 76 ec de be 66 ce 03 bf 7c f0 ed be 49 7b 75 be
       -0.4353978 -0.51486814 -0.46472538 -0.23972811
000070 12 fa 2d bd 59 33 f4 be 4f 0a 74 be 76 ba 8d be
       -0.042474814 -0.47695425 -0.23832057 -0.2768132
000080 ec 0a 00 bf 17 e7 20 bf 5f b0 99 be 24 b0 1c bf
       -0.50016665 -0.62852615 -0.30017373 -0.6120627
000090 d5 31 82 be 99 b7 17 bf ab 55 1b bf 95 fd 31 bf
       -0.25428644 -0.5926452 -0.60677594 -0.6952756
0000a0 b6 e3 46 3c 0c 2e 21 bf 41 06 ec be 20 29 74 bf
       0.012139251 -0.62960887 -0.4609852 -0.9537525
0000b0 b3 f3 a2 be 36 3f 2c bf 9d db f7 be 05 ce 9a be
       -0.31826553 -0.6728395 -0.4840974 -0.30235305
0000c0 a2 0d 7a bd 97 f1 35 bf 42 1c 08 bf 2f da b4 be
       -0.061048158 -0.7107176 -0.5316812 -0.3532271
0000d0 a3 48 a9 be ba d8 b3 be d8 b7 24 bf d2 c5 08 bf
       -0.3306323 -0.35126287 -0.64343023 -0.5342685
0000e0 84 d7 5b bf 77 cd db be 6c e5 91 be e4 a2 a6 be
       -0.85875726 -0.42930195 -0.28495347 -0.3254615
0000f0 45 79 bc be 4a 00 36 bf 51 01 43 bf 52 00 21 bf
       -0.3681127 -0.7109419 -0.76173884 -0.62891114
000100 e1 6a 11 bf 85 03 0e bf 01 f9 30 bf 3b 5a b5 3d
       -0.5680371 -0.5547412 -0.6912995 0.08855101
000110 d0 4f fe be 74 18 f6 be fc f4 89 bf 8a 27 46 bf
       -0.49670267 -0.4806553 -1.0777888 -0.7740408
000120 e7 a9 4d bf af 09 c6 be 31 d8 c4 be 6f 12 d9 be
       -0.80337375 -0.38679263 -0.3844619 -0.42396876
000130 d5 aa 84 be f6 1b 06 bf a7 d8 d1 be 61 1b 47 bf
       -0.25911584 -0.52386415 -0.40985605 -0.7777615
000140 19 5b 16 be a8 aa 02 bf fe d7 f7 be 86 f1 14 bf
       -0.14683188 -0.5104165 -0.48406976 -0.58181036
000150 24 4b 28 bf cf 09 dc be 64 93 a5 bd 15 85 e5 be
       -0.65739655 -0.42976233 -0.08084753 -0.44828096
000160 89 97 1a bf 40 64 a1 be 16 6f 09 bf 9c 57 28 bf
       -0.60387474 -0.31521797 -0.5368513 -0.6575868
000170 15 c7 0a be 95 a1 00 bf 40 e5 de be 9d a2 bd bd
       -0.13552506 -0.50246555 -0.4353428 -0.09259532
000180 2d 22 09 bf c2 13 84 be 63 2d 88 be c0 0c a3 be
       -0.53567773 -0.25796324 -0.26597127 -0.31845665
000190 96 41 9e be 08 7e 33 bf 03 0b d4 be 2c 2e 3f bf
       -0.30909413 -0.70114183 -0.4141465 -0.7467983
0001a0 f9 71 fa be 7e 2e b1 be f8 d8 e5 be 0d cc 03 bf
       -0.4891508 -0.34605783 -0.44892097 -0.5148323
0001b0 c5 6b 19 3e 6f 64 34 bf 88 36 32 be 22 ca 02 bf
       0.14982517 -0.7046575 -0.17403615 -0.5108968
0001c0 36 8c 0c bf 6e b1 2b bf e0 f4 71 be cf f2 ca be
       -0.54901445 -0.6706761 -0.23628569 -0.39638373
0001d0 76 51 c7 be 6a 72 7f be eb df 2b bf 72 b5 1f bf
       -0.38929337 -0.24945989 -0.67138547 -0.6238624
0001e0 3f 38 5b bf 18 6d f8 be 32 7f dd be f7 52 da be
       -0.856327 -0.48520732 -0.43261105 -0.42641422
0001f0 c7 5b f2 bb 0d e9 b6 be 46 3f bd be 3e c9 01 bf
       -0.0073961946 -0.3572468 -0.36962336 -0.50697696
000200 23 93 ce bb 98 21 11 bf c1 71 09 bf b5 b9 d8 be
       -0.006304161 -0.56691885 -0.536892 -0.42329183
000210 31 27 f5 be bf 2e 1a be 57 ad b7 be e3 e6 20 bf
       -0.47881463 -0.15056895 -0.35874435 -0.62852305
000220 20 dd b3 be 5a 95 35 bf 7e 86 0a bf c1 1c 63 bf
       -0.35129642 -0.7093102 -0.5411147 -0.8871575
000230 ce 27 ec be 7d 59 2c bf 76 46 29 bf 43 29 e7 be
       -0.4612412 -0.6732405 -0.6612314 -0.45148668
000240 80 4f 77 be ef e7 e9 be b2 72 81 bd fb 36 66 3d
       -0.2415142 -0.45684764 -0.063207045 0.056204777
000250 41 11 df bd 0c 9d 5a be 31 17 8e be a7 60 17 bf
       -0.10891963 -0.21348971 -0.2775207 -0.59131855
000260 6f 95 14 bf 2c 97 00 bf 25 e8 ed be 4f fd a1 be
       -0.5804052 -0.5023067 -0.46466175 -0.31638572
000270 d6 94 0d be b9 74 08 bf 68 5b 0a bd 3f 97 2c bf
       -0.13826308 -0.53303105 -0.033778578 -0.67418283
000280 63 b9 9d be 78 78 28 bf a9 23 1f 3e 7e e6 05 bf
       -0.308055 -0.6580882 0.15540947 -0.5230483
000290 cd 9c 2a bf 87 19 d6 be 6b 62 00 bf c2 c3 7d be
       -0.6664551 -0.4181635 -0.50150174 -0.24781707
0002a0 fc b7 39 bf f8 c9 65 3e 67 ee 4a bf ef 9f 34 bf
       -0.7254636 0.22440326 -0.79270023 -0.7055654
0002b0 86 e8 74 be 74 ff 44 be 21 4c 3b bf 60 73 84 3e
       -0.23916826 -0.19238073 -0.7316304 0.25869274
0002c0 b1 47 81 be 28 0f 7a be 9e de 56 be 09 5a 96 be
       -0.2525001 -0.24419844 -0.20983359 -0.29365566
0002d0 c2 8c ea be ed d6 0c bf c2 dd 17 bf 86 c0 a8 be
       -0.45810515 -0.5501545 -0.5932275 -0.32959384
0002e0 c1 96 fd be f0 be 3a bf 41 35 9b be 68 15 38 bf
       -0.4952908 -0.729476 -0.30314067 -0.71907663
0002f0 b1 65 ed be 49 8e d3 3c a7 34 7b be eb a3 90 be
       -0.46366647 0.025824683 -0.24531804 -0.2825006
000300 e4 14 2f bf b9 89 0c bf 78 d4 82 be 3e 14 2e bf
       -0.6839125 -0.5489765 -0.25552726 -0.6799964
000310 e0 a4 3c bf 50 48 1f bf 26 cf ff be 45 b0 9a be
       -0.7368908 -0.62219715 -0.4996273 -0.30212608
000320 25 e1 05 bf 52 ee 94 be 80 4e 25 be 09 93 c3 be
       -0.5229667 -0.29088074 -0.16143227 -0.38198116
000330 c3 43 15 bf 89 1e b1 bc f3 ba 8c be a9 a0 b1 be
       -0.5830652 -0.021621006 -0.2748638 -0.34692886
000340 cf c6 02 bf af 64 12 bf b9 74 9b be be ba 06 be
       -0.5108461 -0.5718488 -0.3036249 -0.13157174
000350 06 a0 07 bc d5 b9 a5 be b7 79 dd be d4 c2 be be
       -0.008277899 -0.3236834 -0.43256924 -0.37258017
000360 98 8d 3f bf 3c 9b c0 be 3d bc f2 be 57 ce 8e be
       -0.7482543 -0.37618434 -0.4740924 -0.278918
000370 f6 a2 18 bf 2e a4 5f bf 3c 55 b3 bd 1a f6 a2 be
       -0.5962366 -0.87359893 -0.087564915 -0.31828386
000380 e6 0c 3b bf 2e 26 b1 be 19 f1 d8 be 71 b3 c9 be
       -0.73066556 -0.3459944 -0.42371443 -0.39394715
000390 37 be 2a bf e0 e2 04 bf 85 98 e3 be 33 cf 64 be
       -0.66696495 -0.51908684 -0.444523 -0.22344665
0003a0 52 74 2b bf 83 bc 44 bf d0 46 02 bf e9 65 da be
       -0.66974366 -0.76850146 -0.508893 -0.42655876
0003b0 3b e3 5d be 42 c0 84 be 99 d2 10 bf db 5f c4 be
       -0.21668713 -0.2592793 -0.56571347 -0.38354382
0003c0 af 33 0e bf 7f df 86 be 3f b9 5c be 18 79 17 bf
       -0.5554761 -0.2634239 -0.21555041 -0.5916915
0003d0 c3 eb c1 be 68 0d 0c bf 9a cf f1 be fe ca f2 be
       -0.37875184 -0.54707956 -0.472287 -0.47420496
0003e0 a6 f9 39 bf d7 70 ec be ae 05 0d bf 9c b3 0e 3e
       -0.7264656 -0.4617984 -0.5508679 0.13935703
0003f0 d6 f2 34 bf b6 3b 31 bf 33 56 5a bf f1 26 a1 be
       -0.7068304 -0.69231737 -0.8528778 -0.31475022

linears.1.weight f4 [2, 512]
000000 54 cd 4e 3c 1c 49 e7 3d a1 ff ed 3d a9 5c f6 3d
       0.012622196 0.112932414 0.11621023 0.12029392
000010 f4 fa a6 3d 82 71 12 3e d7 f6 44 3e e5 b4 51 3d
       0.08153334 0.14301112 0.19234787 0.051197905
000020 80 17 a9 3c 63 c6 24 3d 70 23 06 be 25 b1 f0 3d
       0.020641088 0.04022826 -0.13099456 0.11752538
000030 9c 08 04 3e 48 2b 8a 3d 54 a2 15 3d 78 ba b9 3c
       0.12893909 0.067465365 0.03653176 0.022671923
000040 ce 0d a6 3d 07 c3 7a 3d fa 9b 7e 3d ac 32 04 3e
       0.08108102 0.06122115 0.06216047 0.12909955
000050 42 40 c0 3c b7 f6 51 3d 89 62 ce 3d 12 e6 7f bc
       0.02346814 0.051260676 0.10077388 -0.015618818
000060 68 2b 8b 3d 6f 8e b6 3d 0e 96 9b 3d d9 0f 94 3d
       0.067953885 0.08913886 0.0759698 0.07229585
000070 4c 6b 06 3e 53 7b 8c 3d e5 e2 96 3d df 1f 24 3e
       0.13126868 0.0685946 0.073674954 0.16027783
000080 43 d0 2d 3d 32 cc 2e 3d 03 7a c2 3d f6 e9 62 ba
       0.042434942 0.042675205 0.09495928 -0.0008656079
000090 bc ff d6 3d 57 6d 95 bc 12 03 33 3d e5 f2 84 3b
       0.10497996 -0.018240614 0.0437041 0.0040572756
0000a0 b6 4d e1 3e 85 0c 50 3c c2 44 39 3d 4d 81 66 be
       0.440046 0.012698297 0.04523159 -0.22510262
0000b0 e2 6b 94 3d 28 0b d5 3c 5c a7 9a 3d 8a 27 7f 3d
       0.072471395 0.026006296 0.075514525 0.062293567
0000c0 d7 6a ea 3d ca b1 90 bd 5a 6e 6c 3d a9 a2 05 3e
       0.11446159 -0.070651606 0.057722427 0.13050331
0000d0 e7 2f cf 3d 52 3b ac 3d 0c 81 30 3d 1b 12 14 3d
       0.101165585 0.08409752 0.04309182 0.03615008
0000e0 3b fb bb be b5 10 99 3d d8 fc 2e 3e 30 46 5e 3d
       -0.3671511 0.0747389 0.1708864 0.054266155
0000f0 bb 11 0c 3e b4 49 38 3c 89 57 18 bd 83 81 83 3d
       0.13678639 0.011248041 -0.037192855 0.06421187
000100 5b 7a d2 3d fe db a7 3d 62 eb 59 be 94 a2 d0 3e
       0.10277244 0.08196257 -0.21281198 0.40749037
000110 88 fa 65 3c 72 4a 83 3c 5e 60 c8 be 11 dc 8c bc
       0.014036782 0.01602671 -0.39136022 -0.01719478
000120 9f 4a 9a be 24 86 e9 3d 18 f8 2b 3d 31 0b bb 3c
       -0.30135056 0.114025384 0.041984648 0.022832485
000130 6d 44 c9 3d 81 a4 0e 3c 50 08 09 3d b1 7d 45 bc
       0.09827504 0.008706213 0.033455193 -0.012053893
000140 fb a8 0b 3e 8b dc 92 3d 47 c7 b8 3d f0 74 e6 3c
       0.1363868 0.071709715 0.09022384 0.028131932
000150 30 29 d3 bb 66 aa 34 3d 65 b6 d0 3e 13 d9 8a 3d
       -0.006444119 0.044107817 0.40764156 0.06779685
000160 fc a9 21 3d 3c ea 4b 3d 26 a6 51 3d 1d 82 14 3c
       0.03946875 0.04978393 0.051183842 0.009064225
000170 02 06 db 3d cd f4 fa 3c b3 ca 8f 3d fb 02 0f 3e
       0.10694505 0.030634308 0.07021084 0.1396598
000180 cb d6 74 3c 7e 41 98 3d 49 f8 c2 3d ba a5 a6 3d
       0.014943789 0.07434367 0.09520013 0.081370786
000190 26 13 ab 3d a7 95 da 3c 4e 68 92 3d 73 c6 08 bd
       0.08353262 0.026682688 0.07148801 -0.03339238
0001a0 5f b8 4d 3d 75 6c 61 3d 97 d2 61 3d ba ce 63 3d
       0.050224658 0.055035073 0.055132475 0.05561707
0001b0 fe de 0a 3f f2 75 02 3c 0b 53 11 3e 8a 53 a5 3d
       0.5424651 0.007962691 0.14191835 0.080725744
0001c0 4f 8d bc 3d 3b 73 35 bd 2b b3 e2 3d 20 4c 70 3d
       0.0920664 -0.044299345 0.1106933 0.05866635
0001d0 6f 98 c5 3d 00 79 d4 3d ef 1b 20 3d a7 52 6b 3d
       0.09648215 0.103746414 0.03908914 0.05745187
0001e0 b0 d2 43 bd 8a 0a ab 3d bd e6 7a 3c d7 5f 8f 3d
       -0.04780835 0.083516195 0.015313801 0.07000702
0001f0 23 f8 d1 3e 2f 35 20 3d 07 2b 8c 3d d6 b8 90 3d
       0.41009626 0.03911322 0.06844144 0.07066505
000200 81 a6 01 3f 26 53 a8 3c ca 43 f6 3c 1a 97 ba 3d
       0.5064469 0.02054746 0.030061621 0.091108516
000210 56 54 61 3c c4 21 a4 3e f0 97 9c 3d a7 88 07 3d
       0.013753017 0.3205701 0.07646167 0.033089306
000220 6c 74 af 3d 62 d1 4e 3d 99 d1 9d 3d 6d 11 73 be
       0.085671276 0.05049265 0.07705993 -0.23737116
000230 ff be 5e 3d fe 4f 6a 3d 20 1d 5d 3d b3 e4 c7 3d
       0.054381367 0.057205193 0.053982854 0.09760418
000240 21 3e b9 3d 34 a3 07 3d eb 1b 2c 3e ac 10 e3 3e
       0.09045053 0.033114627 0.16807525 0.44348657
000250 fb 32 a5 3d db 86 3a 3e 0e 64 ef 3d c9 7d f4 3c
       0.080663644 0.18215506 0.11689006 0.029845135
000260 d6 eb 33 3d 8f 87 86 3d 8b b2 06 3d 46 c0 27 3e
       0.043926083 0.065688245 0.032885116 0.1638194
000270 bd 3f 87 3d f4 82 96 3d e2 25 9d 3e 83 ee 34 bd
       0.06603954 0.07349196 0.30692965 -0.044172775
000280 a7 bf af 3d a0 a9 89 b9 21 fd c4 3e 61 79 34 3d
       0.08581477 -0.00026257057 0.38474372 0.04406107
000290 f0 47 7a 3d 16 bc aa 3d f3 77 9f 3c fa 60 93 3d
       0.06110376 0.08336656 0.019466376 0.07196231
0002a0 e9 8e 41 3d 49 86 30 3f e4 47 f5 bb 2b e8 96 bd
       0.04725543 0.689549 -0.0074853767 -0.07368501
0002b0 12 0d 19 3e 75 df 8d 3d db 2e c0 bc b4 df ef 3e
       0.14946392 0.06927387 -0.023459842 0.4685036
0002c0 cb ab 92 3d 0b ca bf 3d d5 83 e1 3d e7 1d 07 3d
       0.07161673 0.093647085 0.11011473 0.0329875
0002d0 2d c9 6f 3d 0d ad 61 3c 78 8f 16 3d 46 31 79 3d
       0.058541466 0.013774169 0.036757916 0.060838006
0002e0 77 7b 9e b9 1a 4b 14 bc b4 61 43 3e e8 19 ce be
       -0.00030228097 -0.009051109 0.1908024 -0.4025414
0002f0 c6 7a ee 3a 53 3a b3 3e e9 58 c3 3d 1a 05 2b 3e
       0.0018194548 0.35005435 0.09538443 0.16701165
000300 a9 d7 a5 bc 50 ca e3 3c 87 ed 2f 3d d2 9e da bd
       -0.020244436 0.027806431 0.042951133 -0.10674824
000310 7c 6f 09 3d 5e b8 6e be 76 05 0b 3d 2e 0a df 3d
       0.033553585 -0.23312518 0.033940755 0.108906135
000320 2e 9e 4f 3d c9 3c 89 3d 59 32 1d 3e 47 83 eb 3d
       0.05068796 0.06701047 0.15351237 0.114996485
000330 1e 94 d7 3c 41 74 18 3e 8d 62 3b 3d c6 f3 b6 3d
       0.026315745 0.14888097 0.045748282 0.08933215
000340 5d 15 77 3d 01 bd 86 3d ea 26 c2 3d df 1b 37 3e
       0.060323108 0.065790184 0.094800785 0.17881726
000350 a4 c8 c2 3e df 9f 33 3d da 15 3d 3d 01 51 c0 3d
       0.38043702 0.043853637 0.046163417 0.0939045
000360 a8 ce 78 be db 94 15 3d 9f 19 aa 3d 21 68 be 3d
       -0.24297583 0.036518913 0.08305668 0.09297205
000370 94 cc 9a 3c aa a8 1c bf 1b ae bd 3e 19 87 ca 3d
       0.018896379 -0.6119486 0.37046894 0.09889049
000380 27 63 86 3b 86 43 d3 3d 4a fa 84 3d b8 f6 f4 3d
       0.0041011753 0.103156134 0.06493051 0.1196112
000390 dd 77 34 3c cd 3f 2b 3c e9 2e 8e 3d de 7a 1c 3e
       0.011014906 0.010452223 0.06942541 0.15281245
0003a0 0f 2b 98 bc 63 c0 63 bd 80 54 23 3d c5 8d 03 3d
       -0.01857522 -0.055603396 0.039875507 0.032117624
0003b0 fc bf 95 3d c0 84 84 3d f1 af a2 3d 19 a6 76 3c
       0.07312009 0.064706326 0.079437144 0.015054249
0003c0 af 14 45 3d e9 51 fd 3d da b0 19 3e b5 46 48 bb
       0.04811543 0.12369139 0.1500887 -0.0030559723
0003d0 44 ae ca 3c bb 40 2d 3c 0c 5a ba 3d cf 4f 70 3d
       0.0247413 0.010574515 0.09099206 0.05866986
0003e0 f8 a1 5f bd ad 82 67 3d 06 5f 83 3d 50 29 d7 3e
       -0.054597825 0.056521107 0.06414609 0.42023706
0003f0 67 ea 85 bc 2e 42 13 bc a9 13 17 bd fc 3e a3 3d
       -0.016347123 -0.008987946 -0.036883984 0.07970998

linears.1.bias f4 [2]
000000 73 bd ee bd af 8e 88 3d
       -0.11657228 0.0666784
