hw3/model_with_ReLU.pth (torch, 110800 bytes, 4 tensors)

linears.0.weight f4 [512, 50]
0	0xbd3d289e	-0.046181314
1	0xbe203f25	-0.15649088
2	0xbe2b3ba9	-0.16721977
3	0xbe11cbf3	-0.14237957
4	0x3d5a11cf	0.05323964
5	0xbe3701b5	-0.17871745
6	0xbe81f239	-0.25380114
7	0xbd9c0eb1	-0.0761999
8	0x3e7fb989	0.2497312
9	0xbe036b26	-0.12833843
10	0xbc5d8ead	-0.013522786
11	0x3e40d438	0.18830955
12	0x3db8bff1	0.09020985
13	0xbdc2248d	-0.09479628
14	0x3e432099	0.19055404
15	0x3dbe3200	0.092868805
16	0xbd9b5c66	-0.07585983
17	0x3da51ddd	0.080623366
18	0x3cfcab25	0.030843327
19	0x3e2244c6	0.15846547
20	0xbe104562	-0.14088967
21	0xbd5b53d8	-0.053546757
22	0x3e091fff	0.13391112
23	0xbe01ddd3	-0.12682275
24	0x3dbec58a	0.09315021
25	0xbc9cd9f3	-0.019146895
26	0x3e5954ad	0.21223707
27	0xbe8ee5a7	-0.27909586
28	0xbe5333a3	-0.20625167
29	0x3e6be5bf	0.2303686
30	0xbcf5e56c	-0.030016623
31	0xbd72abfa	-0.05924604
32	0x3ddb3d9f	0.10705113
33	0x3e3e6d13	0.18596296
34	0xbe0cbbc7	-0.13743506
35	0xbe1c11be	-0.15241143
36	0x3e47d970	0.1951654
37	0x3e8dfc31	0.2773147
38	0x3e3e2ce2	0.18571809
39	0x3dc97202	0.098361984
40	0x3e27e7d1	0.16397025
41	0xbde50672	-0.1118287
42	0xbe67e125	-0.2264448
43	0xbe20f8e7	-0.15719949
44	0xbc90c738	-0.01767312
45	0x3e56dcd7	0.20982681
46	0xbd77bacf	-0.06048089
47	0x3dbf4f0c	0.09341249
48	0x3d2bb29e	0.04191839
49	0x3d9c964e	0.07645856
50	0xbe84b593	-0.2591978
51	0xbe033727	-0.12814008
52	0xbd177bc2	-0.03698326
53	0x3e63db52	0.22251633
54	0x3e7bc041	0.24585058
55	0xbe3604cb	-0.17775266
56	0xbe0f6322	-0.1400266
57	0xbe0737a9	-0.13204826
58	0x3e38957e	0.18025777
59	0xbd3a7f06	-0.045531295
60	0xbe408bcb	-0.18803327
61	0x3e1d0105	0.1533242
62	0x3e0d7c1e	0.13816878
63	0xbdba809c	-0.091065615
64	0xbcadb4dc	-0.021204405
65	0x3e1b214e	0.15149423
66	0xbe2bd772	-0.16781405
67	0x3c821e5f	0.015883623
68	0xbb3e268d	-0.0029014677
69	0xb912a371	-0.00013984532
70	0xbb81ded5	-0.003963331
71	0xbe0e52eb	-0.13898818
72	0x3dcf8d49	0.1013437
73	0xbd83aaf9	-0.06429095
74	0x3e199a2f	0.15000223
75	0xbdc9ba8a	-0.09850033
76	0x3c823319	0.015893506
77	0xbe2c736c	-0.16840905
78	0xbe06b91f	-0.13156556
79	0x3d8b5796	0.06803815
80	0x3e39764b	0.18111531
81	0xbcca58bb	-0.024700513
82	0x3d3a3095	0.045456488
83	0xbd2a5684	-0.041586414
84	0xbe1bd691	-0.1521857
85	0xbd9e1dd3	-0.07720532
86	0x3d7092f5	0.0587339
87	0x3df1193b	0.117723905
88	0x3e0fb8c7	0.1403533
89	0x3e75c5aa	0.24001184
90	0x3e553ac9	0.20823206
91	0xbd238337	-0.039920058
92	0xbd67c344	-0.056582704
93	0xbe209db5	-0.1568516
94	0xbdcb6818	-0.09931964
95	0x3deb7f3b	0.11498877
96	0xbe69c396	-0.22828516
97	0xbcf5ef65	-0.030021379
98	0x3e3b1a6d	0.182718
99	0x3c85284e	0.01625457
100	0xbdc69e80	-0.096982
101	0x3cf6e2a0	0.03013736
102	0xbcbc495f	-0.022984205
103	0xbe15b09f	-0.14618157
104	0x3e3347c8	0.17507851
105	0xbe5e2018	-0.2169193
106	0xbe50167f	-0.20321082
107	0xbe46e1c1	-0.19422056
108	0x3e376719	0.17910422
109	0x3ca8259a	0.020525742
110	0xbda640a8	-0.08117801
111	0x3dc80bbc	0.09767863
112	0x3d839dd7	0.0642659
113	0xbe87f151	-0.26551297
114	0x3c77d679	0.015126818
115	0x3e6e1b1d	0.2325253
116	0xbd951fb2	-0.07281436
117	0xbca6fe09	-0.020384805
118	0x3da526a8	0.08064014
119	0xbc666885	-0.014063005
120	0xbded3ebd	-0.11584232
121	0xba5ff8b2	-0.00085438334
122	0x3e80a1e3	0.2512351
123	0xbd95469a	-0.07288857
124	0xbdd363b0	-0.10321748
125	0xbe826636	-0.25468606
126	0x3e843089	0.2581828
127	0xbe4e78f1	-0.20163323
128	0xbe523507	-0.20528041
129	0x3e0090cf	0.1255524
130	0x3e029661	0.12752678
131	0xbd3cbf0e	-0.04608064
132	0x3d3b8bd0	0.045787632
133	0x3d97d4cf	0.07413637
134	0xbd5ab0f2	-0.053391404
135	0xbe20828d	-0.15674801
136	0x3e1b5948	0.15170777
137	0x3e3c474e	0.18386576
138	0x3d7e3a13	0.062067103
139	0x3ca8dfa0	0.020614445
140	0x3e38a0e4	0.18030125
141	0xbe274c0a	-0.163376
142	0xbc9472e0	-0.018121183
143	0xbded1cfe	-0.115777954
144	0xbe38ad4b	-0.18034856
145	0x3d939a85	0.07207207
146	0xbdc4f617	-0.096172504
147	0x3d9ad9ae	0.0756105
148	0x3cbf16e0	0.023326337
149	0x3deb9656	0.11503284
150	0xbe349205	-0.17633827
151	0xbe35d685	-0.17757614
152	0xbe2a54a8	-0.16633856
153	0xbe8fac0d	-0.28060952
154	0xbcc17ce9	-0.023619132
155	0xbe801931	-0.2501922
156	0xbceea46b	-0.029131135
157	0xbe04a90b	-0.1295511
158	0x3e7f7efd	0.24950786
159	0xba837f32	-0.0010032414
160	0xbe6d2e30	-0.2316215
161	0xb7cc181a	-2.4329918e-05
162	0x3daa29c9	0.08308751
163	0xbdf96cdf	-0.12178969
164	0x3e0f0430	0.13966441
165	0x3e4ca31b	0.19984095
166	0xbe5a4d43	-0.21318536
167	0x3da7e02e	0.08197056
168	0x3e3bca14	0.18338805
169	0x3c45aa46	0.012064522
170	0xbe256949	-0.16153444
171	0xbbfe18ef	-0.007754437
172	0x3ddec5da	0.10877581
173	0xbd88dd4c	-0.06682834
174	0xbd2b2072	-0.04177899
175	0xbdc8769f	-0.0978825
176	0x3e2cfad1	0.16892554
177	0xbe82ed03	-0.2557145
178	0xbd6be6d3	-0.057593178
179	0x3e25744a	0.16157642
180	0xbd354efe	-0.044264786
181	0xbe127f20	-0.14306307
182	0x3dd0ce28	0.10195571
183	0xbc4906a4	-0.01226965
184	0xbe012591	-0.12611987
185	0xbe79bd11	-0.2438853
186	0x3e42e7ce	0.19033739
187	0x3dfaa126	0.12237768
188	0x3dab57f0	0.08366382
189	0x3ca449b5	0.020054678
190	0xbcbcf082	-0.023063902
191	0xbdcc0e7f	-0.099637024
192	0xbe3ab3fe	-0.18232724
193	0xbe43d40a	-0.19123855
194	0xbd901b84	-0.07036498
195	0x3de66142	0.11249019
196	0xba4c8e2c	-0.00078031677
197	0x3e561919	0.20908011
198	0x3e1ef7b1	0.15524174
199	0x3e41cd93	0.18926077
200	0x3cfa2dd0	0.030539423
201	0xbdb38cc8	-0.08767086
202	0xbd9667ae	-0.07343994
203	0xbdd5b60e	-0.10435115
204	0x3e0a3a93	0.13498907
205	0xbc158f50	-0.009128407
206	0xb9c3b200	-0.0003732592
207	0x3dbe07cc	0.09278831
208	0x3de2beea	0.1107157
209	0x3cbfe1e8	0.02342315
210	0x3d93cd3c	0.0721688
211	0xbbc3c180	-0.0059739947
212	0x3df8561a	0.121257976
213	0xbe03a7f7	-0.12857042
214	0xbc140d10	-0.0090363175
215	0xbce443fc	-0.027864449
216	0x3b95ece0	0.004575357
217	0xbdd11ec8	-0.10210949
218	0x3d31c104	0.043396965
219	0x3d1416bc	0.036154494
220	0xbcad0f48	-0.02112545
221	0x3d9861ea	0.074405506
222	0xbe1071d5	-0.14105923
223	0xbdd3253c	-0.10309836
224	0x3cad1dd8	0.021132395
225	0x3db9e838	0.09077495
226	0x3d81f34e	0.06345235
227	0xbdbea87e	-0.09309481
228	0xbe033970	-0.1281488
229	0x3e0b302d	0.13592596
230	0x3d040a14	0.032236174
231	0x3de521b2	0.111880675
232	0x3dbb0908	0.09132582
233	0x3df8a272	0.12140359
234	0xbdc47132	-0.09591903
235	0xbc004780	-0.007829547
236	0x3d8196da	0.06327601
237	0x3dd6a526	0.10480718
238	0xbdce0b9d	-0.10060809
239	0xbd01d244	-0.031694666
240	0x3cd7e558	0.026354477
241	0xbd98e9c7	-0.074664645
242	0xbd76aec6	-0.06022527
243	0x3d9d91ce	0.07693826
244	0x3da9516e	0.082674846
245	0xbd7aa502	-0.06119252
246	0x3b8b5fa0	0.0042533427
247	0x3d160a08	0.03663066
248	0xbc90233c	-0.017594926
249	0xbe0739d7	-0.13205658
250	0x3db27edc	0.08715603
251	0xbd933b84	-0.07189086
252	0xbd3cbe3c	-0.04607986
253	0x3d2ee8c8	0.042702466
254	0x3d895b20	0.06706834
255	0xbd67cc56	-0.056591354

linears.0.bias f4 [512]
0	0xbd5efa0c	-0.054437682
1	0xbcc2a918	-0.02376227
2	0xbdf91529	-0.12162239
3	0x3c29c851	0.010362701
4	0x3dad6290	0.08466065
5	0xbceb18dc	-0.028698377
6	0xbd30fa12	-0.043207236
7	0xbd800923	-0.06251743
8	0xbdd73840	-0.10508776
9	0xbe66c0db	-0.22534506
10	0xbe5bd9db	-0.21469824
11	0xbe0d40b9	-0.13794221
12	0xbe3d9612	-0.18514279
13	0xbd1fb818	-0.038993925
14	0xbdecfe6e	-0.11571966
15	0xbe62fa7f	-0.22165869
16	0xbe4f4e01	-0.202446
17	0xbe3bea29	-0.18351044
18	0xbe064ac9	-0.13114466
19	0xbe195d55	-0.1497701
20	0x3c76e440	0.0150690675
21	0xbd6b5e29	-0.057462845
22	0xbe40c601	-0.18825532
23	0xbdb2c679	-0.08729262
24	0xbdb5b6b9	-0.08872742
25	0xbe05597e	-0.1302242
26	0xbd36977e	-0.044578068
27	0xbc806a36	-0.015675645
28	0xbe1ff150	-0.15619397
29	0xbdcb9b43	-0.09941723
30	0xbdaf28ba	-0.0855269
31	0xbe0be1b3	-0.13660316
32	0xbe39037a	-0.18067732
33	0xbe5929ce	-0.21207353
34	0xbf0cce6d	-0.5500248
35	0xbc12a648	-0.008950777
36	0xbdcaca53	-0.099018715
37	0xbf0ed97b	-0.558006
38	0xbdad5ddc	-0.08465168
39	0xbd217d57	-0.039426174
40	0xbcd7cd08	-0.026342884
41	0xbe94ceae	-0.29063934
42	0xbd26dc64	-0.040737525
43	0x3d9eb456	0.0774924
44	0xbe25d9e2	-0.16196397
45	0xbdfe462f	-0.1241573
46	0xbe82a436	-0.25515908
47	0xbc9fbab2	-0.019498203
48	0xbd901a5b	-0.07036277
49	0xbe9b0fd3	-0.3028551
50	0xbe0eaede	-0.13933894
51	0xbce7e732	-0.028308485
52	0x3e00b965	0.12570722
53	0xbdba6423	-0.09101131
54	0x3dcf167c	0.101117104
55	0xbd483f73	-0.048888635
56	0xbe83a87f	-0.2571449
57	0xbe1eccca	-0.15507808
58	0xbdf436dc	-0.11924526
59	0xbdf92bc7	-0.12166553
60	0xbddcd859	-0.107834525
61	0x3cdb2870	0.02675268
62	0x3dc4559a	0.0958664
63	0xbe7013e9	-0.23445095
64	0xbdad89fa	-0.084735826
65	0x3dddae24	0.1082423
66	0xbd7233e6	-0.059131525
67	0xbcbb863f	-0.022891162
68	0xbde4b0f4	-0.11166564
69	0xbde671cd	-0.112521745
70	0xbd6e8e14	-0.058240965
71	0xbe494678	-0.19655788
72	0xbe0a8cc6	-0.13530263
73	0xbe2f7cdd	-0.17137475
74	0xbe3e15e0	-0.18563032
75	0xbe0e9668	-0.13924563
76	0xbe102764	-0.14077526
77	0xbe0094ad	-0.12556715
78	0xbe020f26	-0.12701091
79	0xbc343600	-0.010999203
80	0xbda2f237	-0.07956355
81	0xbdf3791b	-0.118883334
82	0xbd4db3f6	-0.050220452
83	0x3bb6180d	0.0055570663
84	0xbdc583a6	-0.096442506
85	0x3ca88d60	0.020575225
86	0x3d3eff90	0.046630442
87	0x3dbfbb9a	0.09361954
88	0xbca16410	-0.019701034
89	0xbe79aefd	-0.24383159
90	0xbd38c292	-0.04510743
91	0x3d22acc0	0.03971553
92	0xbe3b6588	-0.1830045
93	0xbe2a92b5	-0.16657527
94	0x3c07dc30	0.008292243
95	0xbd447668	-0.047964483
96	0x3ddc9e26	0.10772352
97	0xbe703550	-0.23457837
98	0xbcb79200	-0.022408485
99	0x3cfd8af8	0.030950055
100	0xbdb030cc	-0.08603057
101	0xbe01bfc0	-0.12670803
102	0xbe24cd61	-0.16093971
103	0x3bb04530	0.0053793415
104	0xbdbc65fd	-0.0919914
105	0x3d8c5e5a	0.06853934
106	0x3ca29006	0.019844066
107	0xbe83d3b7	-0.25747463
108	0xbe0e81b7	-0.1391667
109	0x3e044b61	0.1291938
110	0xbd8dda39	-0.06926388
111	0x3c27bb91	0.01023759
112	0xbdbf6884	-0.09346107
113	0xbe04eaf7	-0.12980257
114	0x3d9072b9	0.070531316
115	0xbdd0be0f	-0.10192501
116	0xbdb7e0b0	-0.089784026
117	0xbd635624	-0.055502072
118	0xbcfee458	-0.031114742
119	0xbe246da8	-0.16057456
120	0xbddd1470	-0.10794914
121	0xbb9f8808	-0.004868511
122	0x3e054d93	0.13017873
123	0xbe34b83a	-0.17648402
124	0xbe4fe731	-0.20303036
125	0x3d87434e	0.06604634
126	0xbe2b2b61	-0.16715766
127	0xbd8cf9f0	-0.06883609
128	0xbce052ca	-0.027383227
129	0xbd205469	-0.039143
130	0x3d81d6c8	0.063397944
131	0xbe123aeb	-0.14280288
132	0xbe51ddfd	-0.20494838
133	0x3ccc7c74	0.024961688
134	0xbf0623c6	-0.52398336
135	0xbc9a4a64	-0.0188343
136	0xbe6983df	-0.22804211
137	0xbe4c37bb	-0.19943134
138	0xbde99647	-0.11405616
139	0xbdc0b24a	-0.09409006
140	0xbe5d51f2	-0.21613291
141	0xbde68750	-0.112562776
142	0xbe1ecdb2	-0.15508154
143	0xbe70e05e	-0.2352309
144	0xbe049fef	-0.12951635
145	0xbd8a0843	-0.06739857
146	0xbe9a1428	-0.30093503
147	0xbe81fb95	-0.25387254
148	0xbde79c1a	-0.11309071
149	0x3baffec0	0.0053709447
150	0xbdd60d07	-0.104517035
151	0x3b326e91	0.0027226547
152	0xbd3bd0d7	-0.045853462
153	0xbe54e808	-0.20791638
154	0xbe384a99	-0.17997207
155	0xbd3f9a06	-0.046777748
156	0xbd8767f8	-0.06611627
157	0xbe33465c	-0.17507309
158	0xbe595352	-0.2122319
159	0xbdc309a9	-0.09523327
160	0xbe79dc93	-0.24400549
161	0x3ddc6e58	0.10763234
162	0xbd811611	-0.06303037
163	0xbd937727	-0.07200461
164	0x3d0ccecc	0.034376904
165	0xbe0a2365	-0.13490064
166	0xbe8cbaa4	-0.27486145
167	0xbe3de69a	-0.18544999
168	0xbe1be0d9	-0.15222491
169	0xbe1aec84	-0.15129286
170	0xbd9f30b7	-0.077729635
171	0xbdbee9de	-0.093219504
172	0xbc22b763	-0.009931418
173	0xbd8f7344	-0.07004407
174	0x3d4f4b40	0.050608873
175	0xbdfc4625	-0.123180665
176	0xbe212057	-0.15734993
177	0xbdcb5815	-0.0992891
178	0xbe021a4f	-0.12705348
179	0xbe3ea9f1	-0.18619515
180	0xbe23bcd5	-0.15990002
181	0xbe7a1419	-0.24421729
182	0xbd7daa7e	-0.061930172
183	0xbe6370cf	-0.22211002
184	0xbe017f30	-0.12646174
185	0x3c192db0	0.009349272
186	0xbe0c72f6	-0.13715729
187	0xbd0f707a	-0.035019375
188	0xbdd23462	-0.102638975
189	0xbd85d810	-0.06535351
190	0xbce922dc	-0.028459005
191	0xbe41bc45	-0.18919475
192	0xbe5248d7	-0.20535599
193	0xbdde540b	-0.10855874
194	0xbe0952d5	-0.13410504
195	0x3e101991	0.14072253
196	0xbda3b27a	-0.07993026
197	0x3cf9bf90	0.030486852
198	0xbd178673	-0.036993455
199	0xbd6b574f	-0.05745631
200	0xbe4da215	-0.2008136
201	0xbd05d719	-0.032675836
202	0xbde194e0	-0.11014724
203	0xbd520c3e	-0.051281206
204	0xbe45fec8	-0.19335473
205	0xbe538ebe	-0.2065992
206	0xbd38b4ff	-0.045094486
207	0xbd09fb42	-0.033686884
208	0x3db85221	0.0900004
209	0xbe08d82e	-0.13363716
210	0xbce85602	-0.028361324
211	0xbe27050c	-0.16310519
212	0xbf1aa0be	-0.60401523
213	0xbe19f004	-0.15032965
214	0xbcbfefc9	-0.023429768
215	0xbe6cc8d8	-0.23123491
216	0xbd43e6a2	-0.04782737
217	0xbd7fe484	-0.06247379
218	0xbd2e3ec5	-0.04254033
219	0xbca2aa9c	-0.019856744
220	0xbe6dc9af	-0.23221467
221	0x3def4456	0.11682956
222	0xbe30f6fc	-0.17281717
223	0xbf02f65b	-0.5115716
224	0xbd9800d9	-0.07422037
225	0xbdcc7c05	-0.09984592
226	0xbd7978a0	-0.060906053
227	0x3dfa962e	0.12235676
228	0xbd8d98f0	-0.06913936
229	0xbc9a1094	-0.018806733
230	0xbe58f364	-0.21186596
231	0xbcf7423d	-0.030182952
232	0xbda44afb	-0.08022114
233	0x3e0b5f4f	0.13610576
234	0xbc03fd66	-0.00805602
235	0xbe5e3ef9	-0.2170371
236	0xbe241dee	-0.16027042
237	0xbe5cdcf0	-0.21568656
238	0xbdf8d3fd	-0.121498086
239	0xbc8f7e84	-0.017516382
240	0x3cf5eb64	0.03001947
241	0xbe5f25e9	-0.21791805
242	0xbf0b846e	-0.54498947
243	0xbdd06225	-0.101749696
244	0xbe927720	-0.2860651
245	0xbd913654	-0.070904404
246	0x3c111497	0.008855007
247	0xbd1ea486	-0.03873112
248	0x3ca6ba33	0.020352459
249	0xbe30b1da	-0.17255345
250	0xbe07fe93	-0.13280706
251	0xbdeb459c	-0.11487886
252	0xbd77d212	-0.060503073
253	0xbe82b5cf	-0.25529334
254	0xbdff8ac4	-0.12477639
255	0xbe1a4b97	-0.15067898

linears.1.weight f4 [2, 512]
0	0xbdf3681e	-0.11885093
1	0x3dbfeec3	0.09371712
2	0xbdb0331a	-0.08603497
3	0xbd235e18	-0.039884657
4	0x3d1ce2b7	0.03830215
5	0x3c09ff50	0.008422688
6	0xbe0c59eb	-0.13706176
7	0xbdbdfdd7	-0.09276932
8	0xbbb7df28	-0.005611319
9	0xbe19298e	-0.14957258
10	0xbd1f7a84	-0.0389352
11	0xbc89db61	-0.01682824
12	0xbd129aa2	-0.035792
13	0xbdd6b327	-0.10483389
14	0x3d88d0c5	0.06680445
15	0xbd8ced3d	-0.06881187
16	0xbda2bf20	-0.079466105
17	0x3e3788f2	0.17923334
18	0xbdb55d3d	-0.088556744
19	0x3d076a0a	0.03306011
20	0x3de92302	0.1138363
21	0x3d1bd839	0.038048003
22	0x3dd67918	0.104723155
23	0xbc624290	-0.013809815
24	0xbceab951	-0.028652819
25	0xbde65743	-0.112471126
26	0x3da71084	0.08157447
27	0x3dea1422	0.11429621
28	0xbd51d8ac	-0.051232025
29	0xbd0f2084	-0.03494312
30	0xbce9d893	-0.028545653
31	0xbe62420e	-0.2209551
32	0xbda69fe4	-0.081359655
33	0xbba5beef	-0.0050581614
34	0xbe493473	-0.19648914
35	0xbd1e2ca7	-0.038616803
36	0xbdd0b892	-0.10191454
37	0x3d60b16f	0.054856714
38	0xbcfb26d5	-0.030658165
39	0xbd6e3ec3	-0.058165323
40	0xbcc9f00b	-0.024650594
41	0xbd3aae2d	-0.045576263
42	0xbdcef21e	-0.10104774
43	0xba7b94c0	-0.00095970556
44	0xbc326913	-0.010889309
45	0x3e0b1373	0.13581638
46	0x3d894541	0.06702662
47	0xbc3c4a38	-0.0114923045
48	0x3bca3b90	0.006171651
49	0xbdf6b1c9	-0.120456286
50	0xbda8a18f	-0.0823394
51	0xbddc3e9d	-0.1075413
52	0xbd1b1d48	-0.03786972
53	0x3cb150ae	0.021644916
54	0xbc85da2c	-0.016339384
55	0x3db9d8a8	0.09074527
56	0xbdf6d347	-0.12052017
57	0xbda5ec5d	-0.08101723
58	0x3d3231af	0.043504413
59	0x3cb61b5e	0.022229847
60	0xbe04d7f6	-0.12973008
61	0x3d1ddee5	0.038542647
62	0xbcc58030	-0.024108976
63	0x3d82d1ef	0.06387698
64	0xbc5c1df6	-0.013434878
65	0x3c00a7e8	0.007852532
66	0xbd254901	-0.040352825
67	0x3d7a8be4	0.061168566
68	0x3c3a5494	0.011372704
69	0xbda7f2ba	-0.08200593
70	0xbd883086	-0.0664988
71	0xbdfb4297	-0.122685604
72	0xbdc4e33c	-0.09613654
73	0xbd7bd197	-0.061479177
74	0xbd9b0447	-0.07569175
75	0xbe057d64	-0.13036114
76	0x3c84af28	0.016196802
77	0x3d5e624c	0.054292962
78	0xbe12a0bf	-0.14319132
79	0x3dcaaa9c	0.098958224
80	0xbc01f020	-0.007930785
81	0x3d2f7523	0.04283632
82	0xbd08600c	-0.033294722
83	0xbdbc8222	-0.09204508
84	0x3c6e6aa6	0.014551794
85	0xbcc0f574	-0.023554541
86	0x3cd14c82	0.025549177
87	0x3d2623d5	0.040561516
88	0x3d92d7fa	0.071701005
89	0x3bf6d2b1	0.0075324406
90	0xbc66097c	-0.014040347
91	0x3cc1b736	0.023646932
92	0xbd5aea40	-0.053446054
93	0xbc2748f9	-0.010210269
94	0xbd3203c3	-0.04346062
95	0x3dc9fd5d	0.09862778
96	0x3d0435ed	0.03227799
97	0xbda6ce57	-0.08144825
98	0xbce46249	-0.027878897
99	0xbd1df270	-0.038561285
100	0x3c8e35f2	0.017359708
101	0x3c6e94c4	0.014561836
102	0xbdf20a23	-0.1181834
103	0xbde8ab6f	-0.11360823
104	0x3daf556e	0.08561216
105	0xbb817648	-0.003950868
106	0xbd88a3a1	-0.06671835
107	0xbdad1f70	-0.08453262
108	0xbda63d87	-0.08117204
109	0x3b9bc190	0.004753299
110	0xbe5fbf0b	-0.21850221
111	0xbd1ea986	-0.03873589
112	0x3ccc593a	0.02494489
113	0xbbd75e20	-0.0065725
114	0x3f4ea4ce	0.8072022
115	0xbd99ba94	-0.0750629
116	0xbe056b0f	-0.13029121
117	0xbd99ed34	-0.07515946
118	0xbd2df36b	-0.04246847
119	0xbdd88fcd	-0.10574303
120	0xbdd61fa1	-0.104552515
121	0xbd8184f7	-0.06324189
122	0x3d135cef	0.0359773
123	0xbde985d7	-0.11402481
124	0xbde65297	-0.112462215
125	0x3d03cdfb	0.03217886
126	0x3dffde42	0.12493564
127	0x3d9853c6	0.074378535
128	0xbd91ab7a	-0.07112785
129	0x3d4264ea	0.04745952
130	0x39460300	0.00018883869
131	0xbdc730d8	-0.09726113
132	0xbdbccec7	-0.09219127
133	0x3d44f0e4	0.048081294
134	0xbef4a5bd	-0.47782698
135	0xbd1f990a	-0.03896431
136	0xbd183c59	-0.037166927
137	0xbcf0b41d	-0.02938276
138	0xbd9f6922	-0.07783724
139	0xbd2a9286	-0.041643642
140	0xbd44723e	-0.047960512
141	0xbd84a412	-0.064766064
142	0xbdf0a757	-0.117506675
143	0xbde1a387	-0.110175185
144	0xbc459d44	-0.012061421
145	0x3dd0e261	0.10199428
146	0xbe443ed9	-0.191646
147	0x3dea2b83	0.114340805
148	0xbd85df94	-0.06536785
149	0x3c8cb6de	0.017177042
150	0xbd58c046	-0.05291774
151	0xbd9a0e64	-0.07522276
152	0x3d1c031b	0.0380889
153	0xbd8885bc	-0.06666133
154	0xbd928cbc	-0.07155749
155	0x3dbf8ea1	0.09353376
156	0xbc804733	-0.01565895
157	0xbd3ce091	-0.0461126
158	0x3b7ccbdf	0.0038573665
159	0xbd831f19	-0.06402416
160	0xbdfda118	-0.12384242
161	0x3ba604d8	0.0050664954
162	0xbdb4f817	-0.08836382
163	0x3c93fe24	0.01806552
164	0x3ce711fe	0.028206822
165	0xbdb6e527	-0.08930426
166	0xbde55560	-0.111979246
167	0xbdd8ef6b	-0.1059254
168	0xbc3ef67c	-0.011655446
169	0xbd38237b	-0.04495571
170	0x3c9a1282	0.018807653
171	0xbda4a075	-0.08038417
172	0xbce610fe	-0.028084274
173	0x3e0d5f08	0.13805783
174	0x3d23d201	0.039995197
175	0x3dee1418	0.11624926
176	0x3dff103b	0.124542676
177	0xbd31aa4a	-0.04337529
178	0xbd72714f	-0.05919009
179	0x3d9bc538	0.07605976
180	0xbe233fb4	-0.1594227
181	0xbd4171ea	-0.047227778
182	0xbdf87ab4	-0.12132779
183	0xbd8c522d	-0.06851611
184	0xbe21fd6d	-0.1581933
185	0x3d02767f	0.031851288
186	0x3dd28a81	0.10280324
187	0x3e020afa	0.126995
188	0x3d0386b4	0.032110885
189	0xbd7d5615	-0.061849672
190	0xbc8f9465	-0.017526815
191	0xbd2c2114	-0.042023733
192	0xbdb0af98	-0.08627242
193	0xbdcdf54d	-0.10056553
194	0xbc9ab817	-0.018886609
195	0xbc11c080	-0.008895993
196	0xbe017591	-0.12642504
197	0xbd328830	-0.04358691
198	0xbe0845a7	-0.1330782
199	0xbda101dd	-0.078616835
200	0xbd9e3db3	-0.07726612
201	0xbb98adb6	-0.00465938
202	0xbd13ecf3	-0.036114644
203	0xbd858eaf	-0.06521355
204	0xbec03e54	-0.37547553
205	0x3dd04658	0.10169667
206	0xbde6cdc4	-0.112697154
207	0xbb9c8648	-0.0047767498
208	0x3db81d87	0.08990007
209	0xbe47a1d5	-0.19495328
210	0xbdf0f01b	-0.117645465
211	0xbdd09da1	-0.10186315
212	0xbf0aeb61	-0.5426541
213	0xbcfc0936	-0.03076611
214	0x3d96ebe3	0.073692106
215	0xbe0e9d54	-0.13927203
216	0xbd19413f	-0.03741574
217	0xbbb6e352	-0.005581298
218	0xbd80f1c6	-0.062961146
219	0x3cb971be	0.022637244
220	0xbda3308e	-0.079682454
221	0xbd1eaf27	-0.038741257
222	0xbdaaa3d8	-0.08332032
223	0xbe9fdb11	-0.31221822
224	0x3c8fdb70	0.01756069
225	0xbc9ea94e	-0.01936784
226	0xbd46364c	-0.048391625
227	0x3c58d344	0.013233963
228	0xbde44f14	-0.111478955
229	0xbd88c99f	-0.06679081
230	0xbe10b039	-0.14129724
231	0xbd79cdbb	-0.060987215
232	0xbdc954a3	-0.09830596
233	0xbcae828b	-0.021302482
234	0x3dc1cbb5	0.09462682
235	0xbd90607a	-0.070496514
236	0x3d966394	0.07343212
237	0x3db2c675	0.08729259
238	0xbd82a42d	-0.0637897
239	0x3c3041c0	0.0107578635
240	0x3da0de66	0.07854919
241	0xbdd4f505	-0.10398296
242	0xbe8af767	-0.27141878
243	0xbce59616	-0.028025668
244	0xbe0610d4	-0.13092357
245	0x3b6eb510	0.003642384
246	0xbd91f544	-0.07126859
247	0xbca0910b	-0.019600412
248	0x3d8cd235	0.06876031
249	0xbe242b2f	-0.16032098
250	0x3dcd3b3f	0.10021066
251	0x3d208d19	0.03919706
252	0xbdbf6482	-0.09345342
253	0x3db691bb	0.08914515
254	0x3c54b0e8	0.012981631
255	0xbd24fc8f	-0.04027992

linears.1.bias f4 [2]
0	0x3f2cf85a	0.67566454
1	0xbf2787a4	-0.65441346
