hw3/model_learned_at_2e-05.pth (torch, 110920 bytes, 4 tensors)

linears.0.weight f4 [512, 50]
00000000: 666b 5cbd cff5 00bd b1f7 67bd 3d55 063e
00000010: 79bd 873d a7cf 3cbd 9678 69bd 6ef7 93bd
00000020: 18d8 ae3d fbf1 1fbd 4624 39bd 8594 f53d
00000030: 1852 933d 01a1 183e f5ba aa3d 8fa7 48bc
00000040: 4117 f7bd 3a64 f23c 4ab9 d4bd 4de3 c1bd
00000050: 980b dfbc cbc7 cfbd a6dc 81bd 0c13 87bd
00000060: 3c06 00be 31c7 d53a 227e 003e f5c1 52bd
00000070: ba9d fb3d 07f7 ecbd 72ed 0b3e df99 d8bd
00000080: ec52 fcbb 95c3 3dbd a309 ca3d 5d45 013e
00000090: dd73 5d3d 6cc8 d4bd 8847 193d 914e 453d
000000a0: a347 ddbd 5bfd 88bd 3309 ce3d 51a9 44bd
000000b0: 65ae 4abb 9860 803d c859 ffbc 0fcc 1c3c
000000c0: d9bb 01bd ea85 193d 347a 393c 3a8e dabd
000000d0: 3500 073d e8e9 1ebc 5ae8 533d b80d c33d
000000e0: 4dcb d4bd 1a56 a3bd 34fa 06be 3c65 b93c
000000f0: 338f b13d b729 ee3d a3c3 043d 7ed0 29bc
00000100: a2ca e63d 51cb cbbd 1575 063e 071b 0f3d
00000110: 8961 da3d 483e 7e3d de8a 773d a993 993d
00000120: 6d82 503d c79f 07be cbee 653b 117f 10bd
00000130: 9e96 d1bd 7958 23bd 56bc fcbb 4f86 01be
00000140: 7539 94bd 55ec ddbd 3952 503d 5bb9 24bd
00000150: 19c8 31ba 9498 eb3d ba07 bf3d ae3b cb3d
00000160: 5a89 95bd 2248 8d3d 240f 9fbd fe17 d0bc
00000170: afb5 0dbe b72b 3f3d ef18 aa3d 70fa 8ebd
00000180: df6d 8e3d 46b5 81bd 4747 c7bd 26f5 2bbc
00000190: 9836 f53d 9930 babd 6b90 a63c 5d14 063e
000001a0: 476a ad3d 6ab5 f0bd 7d5f cdbd 8f3d a7bd
000001b0: 5090 133e 51bb eb3d 27b5 913c e4d8 abbd
000001c0: a8a6 073e 3b16 a9bd b3c3 ffbd 5fc1 d6bd
000001d0: 15e2 c8bc d306 d7bd d9dc fa3b ea28 a4bc
000001e0: 608b 0dbe 978f e13d 756a f1bd 0e4c 7dbc
000001f0: 1bca e33d f607 093e 3adc 24bd 52c6 5bbd
00000200: 3f79 aa3d ee25 103e c2b9 14be 0348 c1bd
00000210: b4e1 923b ca03 053e c6ec d8bd ceaa 9ebc
00000220: 8194 9d3d 73db f3bd 2a3d 62bd 6d71 a2bd
00000230: 4bdd ab3d 351c 93bd f965 d5bd bccb b0bd
00000240: 05c2 e1bd baee 14bd cbea 6e3c de0c 77bd
00000250: 8c09 f6bd 487e 033d 9715 c4bc 8166 ddbd
00000260: 8c8b 40bd 98d9 033e 1a3f e4bb 4d10 aabc
00000270: bbd6 0d3d 3d58 14bd 9576 d7bc 3ad7 b6bd
00000280: cbba 433d 1018 fcbd a77c a9bc d980 cf3d
00000290: f140 a03c a199 9fbd e0dc d63d c9e4 f73d
000002a0: 9b79 eebd c178 7e3d cdd7 38bd c955 133d
000002b0: e399 bf3c 04bd 0e3b 77c6 7d3d 3c1a d1bd
000002c0: 6e2b 53bd 35be 4bbd 6e67 cebd 8a2f d4bd
000002d0: 48ec e7bc 94c5 dabd 4172 f5bd 09be 4ebc
000002e0: 8af7 e8bd fdba ccbd b06a aabc 4cee 55bc
000002f0: 0fd2 953d 0d7a 3abd 2b26 36bd 504a 1ebc
00000300: 4a65 143d 0534 f73d 0bc8 54bd 0127 b63d
00000310: 8c60 1fbd c06f fbbc 1f18 9bbd ca5e f537
00000320: a728 e4bd 771b 6b3d 8fc1 89bd 1c8c 0e3e
00000330: 876a e6bd 45e4 89bd 6d5d 893d ac8a cf3d
00000340: d930 be3d 3ab2 e43d 2a9c ec3d a4f2 02be
00000350: 6c20 8f3c 9fd2 1e3d f662 41bd a8b9 c3bd
00000360: 3b9b a4bd bb36 2d3d 74d8 53bd 638a fb3d
00000370: 123f c23c a417 21bd 4345 f83d 2812 933d
00000380: ca97 aebd 3f30 4ebd 4a76 8c3c e148 8d3d
00000390: eb43 9bbd db6d 6d3d f4b1 163e 3ef0 dfbc
000003a0: f4e7 c4bd f150 2f3d 1406 05be 9048 773d
000003b0: 51a7 f0bd f063 ee3d 9052 81bd 71be c5bd
000003c0: 6b99 83bc c95a bcbd c223 59bd cec9 a73d
000003d0: c939 c4ba 642c 03bd 05b9 34bd 8004 5bbd
000003e0: 4c52 f13d baac e73c 0d43 8bbd c7fb 2dbd
000003f0: 2e12 703d 4b0c 1e3d 3c51 a63d b25b 35bc
-0.05381336 -0.03148442 -0.0566327 0.13118453 0.06627936 -0.04609647 -0.056999765 -0.07224928
0.0853731 -0.03904913 -0.04520061 0.119912185 0.071933925 0.14905168 0.083364405 -0.01224698
-0.12064982 0.029588807 -0.103869036 -0.09467182 -0.027227208 -0.10145529 -0.063409135 -0.0659543
-0.12502378 0.0016309974 0.12548116 -0.051454503 0.12285943 -0.11570554 0.13664797 -0.105762236
-0.0077003147 -0.0463291 0.09865119 0.12624116 0.054065574 -0.1038979 0.037421733 0.04817063
-0.10804679 -0.06688949 0.10060348 -0.048013035 -0.00309267 0.06268424 -0.03117074 0.009570136
-0.031673286 0.037481226 0.011320639 -0.10671659 0.03295918 -0.009699322 0.05173526 0.09524101
-0.10390339 -0.07975407 -0.13181382 0.02263128 0.08669891 0.1162905 0.032413136 -0.01036465
0.11269118 -0.09950889 0.13130601 0.034937885 0.106631346 0.062071115 0.06043517 0.07498867
0.050905634 -0.13244544 0.0035084959 -0.03527743 -0.10233806 -0.039879296 -0.007712881 -0.12648891
-0.072375216 -0.108360924 0.050859664 -0.04021583 -0.0006781831 0.11503711 0.093276456 0.09923492
-0.07301588 0.06898524 -0.0776656 -0.025402065 -0.13838838 0.04667255 0.08305537 -0.06981361
0.0695455 -0.06333403 -0.09730392 -0.01049546 0.119733036 -0.090913005 0.020332536 0.13093705
0.084675364 -0.11753352 -0.100279786 -0.08166038 0.1441052 0.11510337 0.017786575 -0.08390978
0.13247168 -0.08256193 -0.124884985 -0.10486101 -0.024521867 -0.104993485 0.0076557216 -0.02003904
-0.13822699 0.11013716 -0.11787883 -0.015460027 0.11122533 0.13381943 -0.040249087 -0.05365593
0.08323907 0.14076969 -0.14523986 -0.09437563 0.0044824723 0.12989727 -0.10592036 -0.019368555
0.076943405 -0.11907091 -0.05523411 -0.079317905 0.08391818 -0.071831144 -0.1041984 -0.08632609
-0.110233344 -0.03636048 0.014582346 -0.060315005 -0.1201354 0.032102853 -0.023936076 -0.10810567
-0.047008082 0.12875974 -0.00696553 -0.020759726 0.03462861 -0.036216963 -0.026301662 -0.0892777
0.04778556 -0.12309277 -0.020689322 0.101319976 0.019562216 -0.07792974 0.10491347 0.12104184
-0.11644288 0.06212688 -0.04512768 0.035970483 0.023388809 0.0021780143 0.06195685 -0.10210082
-0.05155509 -0.049741942 -0.100783214 -0.1036063 -0.02831091 -0.10682216 -0.11984683 -0.01261855
-0.11375339 -0.09996603 -0.020802826 -0.013057303 0.07315456 -0.045526553 -0.044469994 -0.009661272
0.03622941 0.12070469 -0.05194859 0.08894158 -0.038910434 -0.030692935 -0.0757296 2.9250416e-05
-0.11140566 0.05739924 -0.067263715 0.13920635 -0.11250787 -0.06732992 0.06707273 0.101338714
0.09286661 0.111668065 0.115532234 -0.12787873 0.017471515 0.038775083 -0.047213517 -0.095568955
-0.0803742 0.042288523 -0.051720098 0.122822545 0.023711715 -0.039329186 0.121225856 0.071811974
-0.08525045 -0.05033898 0.017146248 0.06898666 -0.07581314 0.057966094 0.14716321 -0.027336236
-0.09614554 0.0428018 -0.129906 0.060371935 -0.11750663 0.11640155 -0.06314576 -0.096554644
-0.016064366 -0.091970034 -0.053012617 0.08192788 -0.0014970835 -0.032024756 -0.04412176 -0.05347109
0.11783275 0.028280605 -0.06799898 -0.04247644 0.058611088 0.038585942 0.08120963 -0.011069225

linears.0.bias f4 [512]
00000000: 312d f3bc a926 323c b9d5 bbbd fccb 05bd
00000010: ecfe e23d fe39 953d 5619 17bd 4468 b93b
00000020: b5e8 07be 932c 093e 6c04 db3d 5010 21bd
00000030: c92b 0fbe 9d23 5c3d f9f5 8d3d cf08 dcbd
00000040: 5a9d a23d 11e0 243c 1328 693d 288a d4bd
00000050: 6d95 a63d 6044 bbbd a4e5 e7bd 500b ccbc
00000060: 0965 0e3e 974a 2a3d 2be5 be3d ba6b 55bd
00000070: f97e 14bd 05a1 15bd 4171 4c3d 773e 9b3d
00000080: e817 8c3d 2e2b 9d3c fd84 a23d 6185 053e
00000090: 5fc1 f83d e98d a63d c4e5 b3ba c9c1 dd3d
000000a0: 66a9 0e3e 2c0f 803d 370f 13bd a023 fcbd
000000b0: 27f0 fe3c 3989 a63d da9f fe3d ac68 20bd
000000c0: 92ee b03d b58f 563d 61ba 75bd 7995 a4bd
000000d0: 1ef0 9f3d e237 97bc 09b1 8fbc d3f8 8ebd
000000e0: 48ca f63c c42a 63bc 85f0 c5bd c1c6 513d
000000f0: 1797 f43d 7cbc 46bd 30ac b13d 4589 753c
00000100: 3198 663d 3403 97bd 20e6 503d 1b59 193b
00000110: a3f3 d9bc dc60 e9bd 4ba9 053e aa4b 853d
00000120: 728b 50bd 5e2b 0d3e 73c9 88bc 36c9 d1bd
00000130: a98f da3d b157 1b3d b56e 063c c527 13bd
00000140: 372f 15bd 32ee 9ebd de50 ac3d 62bc 81bd
00000150: 40dd f13d 81a8 0dbc 565d 913d 50a1 61bd
00000160: 9696 e7bd 0256 8c3d bce8 a4bb 9afd 603d
00000170: 7676 f83d ba49 e7bd f57f 423d c2d7 9c3c
00000180: 3c33 c13b 3fca c63d 111b f0bc b6b0 983d
00000190: 5771 343d d563 bb3d af9a f23c 02ab 9abc
000001a0: 4cd7 8a3d fe27 003e eae5 05be 0ec9 03be
000001b0: af3c 1dbd 20b8 14bc fdcd b7bd 79af 2a3d
000001c0: 052c f13d cdd4 01be 2395 c8bd 7c90 2d3d
000001d0: 6164 70bd 2394 c93d 85b0 79bc 4e7a bf3c
000001e0: 82a0 993d c7c1 e6bd 5eee 373c afce 18bb
000001f0: 76b9 eabd 9cef debd 8380 87bd 5663 03bd
00000200: b761 a33d 6ce9 24ba 780a dabd 590b e33d
00000210: 55f0 9d3c 9184 ba3d 8313 52bd b94a 4abd
00000220: c5fb cd3d ff4b c3bd f485 27bd d135 9bbb
00000230: 235d efbd ce6b 0b3e 7587 7bbc b6da 9b3c
00000240: 3076 203d bde1 e33d 2f31 e7ba d709 aa3d
00000250: 5b11 363d dfa1 d3bd 2f5d 71bd 738a f43d
00000260: ea84 c53d ba32 3b3a bff6 c1bc 4bb1 ddbd
00000270: a878 d2bd b6e3 493d 9410 87bd 9130 2bbd
00000280: 70b8 c7bb b095 613c b191 503d 9f6a ccbb
00000290: 35e1 873c 905a a5bd 0a0e 093e b232 933d
000002a0: 5cf1 803d 45d9 303c 4757 9cbc f95a c23d
000002b0: c616 c6bd e532 82bb 4ca2 0dbe ee63 5bbc
000002c0: ea59 febd ae34 8d3d 4035 4b3c 4dd2 6a3d
000002d0: 9afe cd3d 0705 8dbd 1eb1 d9bd d989 243d
000002e0: 5bd9 213c ff9a 12bd 36de 11bd ffbe c53d
000002f0: 3bc4 283d 21df 543d c2b3 3fbc 3c61 bc3d
00000300: 7cf6 e63d a317 793d a460 f53c cda1 d0bc
00000310: a403 1e3d 3eef c7bb 6710 a8bd 7bdf d2bc
00000320: 929d 073e 0f12 0c3e ff44 ee3d bc13 f9bc
00000330: 4321 d6bd 1489 70bd 1d2d 343c 70e2 4abd
00000340: 4b35 373d 3500 e23d b2f5 8cbd 33f6 d33d
00000350: 77a5 1a3d 330b 10be 6da1 4e3b 55d4 05be
00000360: 3fc8 be3b b5c3 933d 5370 68bd 1f27 81bc
00000370: da9d 85bd 969b e7bd fc2c ebbd 54e4 28bd
00000380: c671 b33d 73a2 f8bd 9869 b63d 863d 0a3e
00000390: 288a 69bc cdbc 32bd 7407 b3bd 585e 82bd
000003a0: f007 23bd 0aad 3d3d c9cf e239 699d bebd
000003b0: f912 d83c 946d 15bc 3c89 b2bd 8d7b 71ba
000003c0: 8e42 35bd 4a3d 943d 1b34 083e f062 283d
000003d0: 7ad4 46bd 4a0e 5b39 26d4 a83d eb7d 51bd
000003e0: a4e9 f2bd 1c3d 24ba 0aea 083e 7877 9cbd
000003f0: 0fe7 e5bd 3b9f 73bc 20ee f53d a70c 10be
-0.029684635 0.010873475 -0.09171624 -0.032665238 0.11083779 0.07286452 -0.036889397 0.0056581814
-0.13272364 0.1339591 0.10694203 -0.039322197 -0.13981546 0.0537449 0.06931681 -0.107438676
0.07940169 0.010063187 0.056922983 -0.10377914 0.081339695 -0.09143901 -0.11323097 -0.024907738
0.1390573 0.04157504 0.09321054 -0.05210469 -0.036253903 -0.036530513 0.049912695 0.075802736
0.06840497 0.019185629 0.07935522 0.13039161 0.121462576 0.08132536 -0.0013725092 0.10827977
0.13931808 0.06252894 -0.035903182 -0.123114824 0.031120373 0.08131642 0.12432833 -0.039162323
0.08639254 0.052383143 -0.059992198 -0.08036322 0.078094706 -0.018459264 -0.017540472 -0.06981053
0.030125752 -0.013865177 -0.09665016 0.051214937 0.119428806 -0.048519596 0.0867542 0.014986341
0.056297485 -0.07373658 0.051000714 0.0023399058 -0.026605433 -0.113954276 0.13052861 0.065085724
-0.050914235 0.13786075 -0.016697621 -0.10243456 0.10671932 0.037925426 0.008205106 -0.0359266
-0.03642198 -0.07760276 0.08413862 -0.06334759 0.11809778 -0.0086461315 0.070978805 -0.05508548
-0.11308019 0.06852342 -0.005032627 0.054929353 0.1213197 -0.11293359 0.04748531 0.01914585
0.005896 0.09706544 -0.029309781 0.0745558 0.0440534 0.09149901 0.029614775 -0.018880371
0.06779346 0.12515256 -0.13075987 -0.12869665 -0.03838795 -0.009077102 -0.08974836 0.04167125
0.11775974 -0.12678833 -0.097940706 0.04237412 -0.05868948 0.09842708 -0.015239839 0.02337375
0.075013176 -0.11267429 0.011226265 -0.0023316552 -0.11461155 -0.108855456 -0.066163085 -0.032077156
0.07977622 -0.0006290886 -0.10646528 0.11086149 0.019279638 0.09107316 -0.05128814 -0.049387667
0.10057787 -0.095359795 -0.040899232 -0.00473664 -0.11687686 0.13615343 -0.01535212 0.019025188
0.039175212 0.111270405 -0.0017638559 0.08302658 0.044450145 -0.10333609 -0.058926757 0.119404696
0.09644492 0.0007141043 -0.023677228 -0.108248316 -0.102769196 0.049289428 -0.06594959 -0.041794363
-0.0060949847 0.013768598 0.050920192 -0.006238296 0.01658688 -0.08073914 0.13384262 0.07187404
0.06296036 0.010793989 -0.019084586 0.09490008 -0.096723124 -0.0039733523 -0.13831443 -0.013390524
-0.124194935 0.068948135 0.0124028325 0.057329465 0.10058327 -0.068857245 -0.106294855 0.040170524
0.009878482 -0.035792347 -0.035612307 0.0965557 0.041202765 0.051970605 -0.011700572 0.091982335
0.11277482 0.060813557 0.029953308 -0.025467778 0.03857769 -0.006101518 -0.082062535 -0.02574133
0.13243702 0.13678764 0.11634254 -0.030404918 -0.10455563 -0.058724478 0.010997084 -0.049532354
0.04472856 0.11035196 -0.068828 0.10349693 0.037755456 -0.14066772 0.0031529323 -0.1306928
0.005822211 0.072150625 -0.056747746 -0.015765725 -0.065242484 -0.113089725 -0.114831895 -0.041233376
0.08761935 -0.1214036 0.08906859 0.13500032 -0.01425413 -0.043637086 -0.08741656 -0.06365651
-0.03980249 0.0463076 0.0004326089 -0.09307367 0.026376234 -0.009120364 -0.08717582 -0.0009211831
-0.044252925 0.072382525 0.13301127 0.04110998 -0.048542477 0.0002089079 0.08243589 -0.051145475
-0.1186097 -0.00062652095 0.13370529 -0.07639974 -0.112257116 -0.0148695065 0.12008309 -0.14067326

linears.1.weight f4 [2, 512]
00000000: 2446 14bd 20b1 e43c dc3c 1b3d c1af 37bd
00000010: 8400 af3c 5dd3 e33a bc72 5abc 0430 f1bc
00000020: 27fa 80bc aef2 7fbc c1d6 093d a968 d23c
00000030: e78e af3b 8533 afbc 2b49 bd3c d67e 783b
00000040: 89aa cb3c a433 1abd 806e afbc e46b 013b
00000050: 343d 163d fb86 3b3a 9a09 8d3c 54e7 e03c
00000060: 70fc cfbb c7c5 1abc 981e 023d e36a 843c
00000070: 8a02 ec3c 0964 a23c 99ea f23b 2042 bcbc
00000080: 5666 5abc c60f 8a3b 0609 2abd 7c09 12bc
00000090: 683a 123d 89d5 643c ede7 293d c6c7 033d
000000a0: bd4c 83bc a49d 2dbc 49c9 d9bc 3000 19bd
000000b0: 4400 223d c934 d6bc a4b9 bebb 6273 19bd
000000c0: 9888 003b ea9e 80bc 75ed 56bc 04e6 59bb
000000d0: df4b 04bd 98f6 973c 8ac2 33bd 8829 223d
000000e0: 72ba 0b3c 3cd8 00bc a8d8 073d de1c 7b3c
000000f0: b87c 48bb 66c1 363c 5c84 f23c 46ec 28bb
00000100: 6827 243d ff40 26bc a0d6 6bb9 50eb 1cbc
00000110: 3256 2ebd 9c69 5c3c 5bdc 24bd 6b49 fd3b
00000120: b425 2dbc f0ff 26bd 05e6 f93c 1e7e c63c
00000130: f230 52bc 1a79 073d de1a 103c e79e c6bc
00000140: 2eaf bf3c 5e79 fb3b c957 ae3c 787c 5d3c
00000150: 99f7 f5bc d09e 2ebc 875a 9dbc 28e7 923c
00000160: af50 df3c b1fe 2cbd 9677 c6bc 9823 26bd
00000170: 7f9e 98bc c95e 45bc 4103 9dbc 6ceb de3b
00000180: add8 033d bbda d2bc 26bb b03c 677f 243d
00000190: 606e 18bd 488c 05bd 684f b43b 3645 15bd
000001a0: 5f52 1f3d feef 173d e8e4 46bc 94ac 313d
000001b0: 0fc1 02bd 4434 7e3c ab7e 193d 30c9 02bd
000001c0: 792d a2bc 1d85 20bd b4f7 2ebc cb07 03bd
000001d0: bebf 5dbc 1f47 a0bc 75be d13c 4c72 92b9
000001e0: 0cff 86bc d0bd 023d b78a adbc b72d 12bd
000001f0: b4f9 f93b 795b f8bb 12cc 20bd 0964 49bb
00000200: c922 04bd 9e1f b1bc 084b 093d c677 41bc
00000210: 2a61 e4bc bedf 003d cf3a 11bd 452c 953c
00000220: 7c98 9ebc 3259 94bc d18e 303d 847b 003d
00000230: 8d0d e13c bc6b 4ebb c75a f93c 1f9a cb3c
00000240: 7ea8 eabc c476 1b3d b213 e2bc ec3f 81b9
00000250: 2f73 5fbb eced b13c 3a2b 1fbd e728 af3c
00000260: 916b 72bc 3b02 89bc e31f 18ba 390e 4ebb
00000270: 9642 413c de1b 603c 7a7e 83bc e7b8 a03c
00000280: 3edd a53c 4dd7 b3bc cb72 fabc f8e4 063c
00000290: 15a3 d2bc aa75 103c e970 463c 56e8 3fbc
000002a0: bb4c cfbc 7216 3bbb c943 2ebd 14ae ab3a
000002b0: 0456 f1bb 39eb 0cbd 74f0 453c ab04 85bc
000002c0: 906a 97bc 3633 1d3d 7601 8ebb 6f81 12bd
000002d0: c685 c3bc 001b 623c 139b a93c 15b4 c9bb
000002e0: bd3e 263d 009c 863c 9c23 083d 3a5b 10bd
000002f0: 0d70 c33c 48e8 4d3c e142 bcbc dde7 df3a
00000300: 996d 34bd 7a30 143d 36de 233c cdb7 1ebd
00000310: 22da 243d 89c2 7d3b c3bf 6aba 7da2 cb3c
00000320: b3bd fe3a 1e55 753c 6978 1ebd 9e4b 003d
00000330: 6099 18bd 76bf 083d 177d 263d 994f be3c
00000340: 744f 7e3c f52e a63c 1e20 15bd b5a0 8d3c
00000350: 928f f8bc 2749 acbc b4ec d9bc ce42 fe3b
00000360: f54a 9b3c feda 153d d959 1d3d 455d 93bb
00000370: 2602 113d b62d c83a bd24 723c 136a f6bc
00000380: 7fe0 cbbc 07e2 ee3b bcfb 943c f08e a8bc
00000390: f4cb b5bc fb87 3cbc 4739 d1bc c61a 02bc
000003a0: 88a5 133c 47e8 34bd a2d6 cb3c 7b4e 3cbb
000003b0: 23fb 20bc 25f3 28bc 79b5 a5bc fcf3 143c
000003c0: 5cfc 0bbc ac2e 233d 7bbf 95bc fe5e 123d
000003d0: 3505 98bc 9073 353c e7b0 e23c e08c 233b
000003e0: ffac 19bb 891d 873c ba82 1bbd a528 26bd
000003f0: e6ad 953b 3670 0ebd 4972 3cbc 4b05 1cbd
-0.036199704 0.027916491 0.037899837 -0.044845346 0.02136255 0.0017381717 -0.013333019 -0.029441841
-0.015744282 -0.015621824 0.03365207 0.025684671 0.0053576115 -0.021386871 0.023106178 0.0037917397
0.024861591 -0.037646905 -0.021414995 0.0019748146 0.03667946 0.00071535975 0.017216492 0.027454056
-0.0063472316 -0.009446568 0.031767458 0.016164249 0.028809804 0.019823091 0.00741322 -0.02298075
-0.013330063 0.004213306 -0.04151251 -0.008913394 0.03570023 0.013966926 0.041480947 0.03217294
-0.016027803 -0.0105966665 -0.026585238 -0.037353694 0.039551035 -0.026148217 -0.00582047 -0.037463553
0.0019612666 -0.015700776 -0.013118138 -0.0033248672 -0.03229892 0.018550202 -0.0438867 0.03959039
0.008528339 -0.007864054 0.033165604 0.015326707 -0.0030591916 0.011154508 0.02960413 -0.0025775596
0.040076643 -0.010147332 -0.000224913 -0.009577587 -0.04256267 0.013452914 -0.04024921 0.0077296994
-0.010568071 -0.040771425 0.03050519 0.02423006 -0.012829052 0.033074476 0.008795468 -0.024245692
0.023398962 0.00767438 0.021282094 0.013518445 -0.03002529 -0.010657981 -0.019208206 0.01793249
0.027260153 -0.04223508 -0.024226945 -0.04056129 -0.018630264 -0.012046524 -0.01916659 0.006802967
0.03218906 -0.025739064 0.021573614 0.040160563 -0.037214637 -0.032604486 0.00550263 -0.036442958
0.038896915 0.03709411 -0.012139536 0.043377474 -0.031922396 0.015515391 0.037474316 -0.03193015
-0.019797074 -0.039189447 -0.010679174 -0.031989854 -0.013534484 -0.019565163 0.025603512 -0.00027932448
-0.016479038 0.0319193 -0.021184308 -0.03568813 0.007628644 -0.0075792638 -0.039257117 -0.0030729792
-0.032259736 -0.021621522 0.03351882 -0.011808341 -0.027878363 0.031463377 -0.035456475 0.018209586
-0.01935982 -0.018108938 0.04310495 0.031367794 0.027472282 -0.003149732 0.030438794 0.024853764
-0.028644796 0.03795506 -0.027597282 -0.00024652423 -0.0034095754 0.021719895 -0.038859583 0.021381808
-0.014796154 -0.016724696 -0.00058030913 -0.0031441583 0.0117956605 0.013678519 -0.01605152 0.019619418
0.020247098 -0.02195325 -0.030572316 0.008233301 -0.02571253 0.008817116 0.012111881 -0.011713108
-0.025305143 -0.0028547314 -0.042545114 0.0013098144 -0.00736499 -0.034404013 0.012081254 -0.016237577
-0.01848343 0.038378917 -0.0043336703 -0.03576797 -0.0238675 0.013800383 0.020703828 -0.0061555007
0.040587176 0.016431808 0.033237085 -0.03524325 0.02385714 0.012567587 -0.02298111 0.001708265
-0.044049833 0.036179043 0.01000171 -0.038749505 0.04024709 0.0038720688 -0.00089549663 0.024857754
0.0019435197 0.014973907 -0.03868905 0.031322114 -0.037255645 0.033385716 0.04064664 0.023231314
0.015521873 0.020286063 -0.036407582 0.017288545 -0.030341897 -0.021030976 -0.026602127 0.0077594286
0.01895664 0.0365858 0.038415764 -0.0044972026 0.03540244 0.0015272412 0.014779267 -0.030079877
-0.024887322 0.007290128 0.018186443 -0.02057597 -0.022191979 -0.01150703 -0.025540007 -0.007940954
0.009011634 -0.04416683 0.024882618 -0.0028733301 -0.009825501 -0.010311876 -0.020228134 0.0090913735
-0.008544054 0.03983943 -0.018279782 0.035735123 -0.01855717 0.0110749155 0.027672244 0.0024955794
-0.002344906 0.016493576 -0.037966467 -0.040566105 0.0045678494 -0.03477498 -0.011501857 -0.038090985

linears.1.bias f4 [2]
00000000: 98df fb3c 24f2 b43c
0.030746266 0.022088118
