hw3/model_with_GeLU.pth (torch, 110800 bytes, 4 tensors)

linears.0.weight f4 [512, 50]
0	0xbdadcb8b	-0.08486088
1	0xbe231a6a	-0.15928045
2	0x3e01fb52	0.12693527
3	0x3ea8f38e	0.32998317
4	0x3eab7789	0.33489636
5	0x3f13f356	0.57793176
6	0xbe8bbcac	-0.27292383
7	0xbf29c5d2	-0.66317475
8	0xbe7006ad	-0.23440047
9	0xbea5d99b	-0.32392582
10	0xbeba8001	-0.36425784
11	0x3f771149	0.9651075
12	0xbdee0be2	-0.1162336
13	0xbe0620d5	-0.13098462
14	0xbec577c7	-0.38567945
15	0x3f2810c6	0.65650594
16	0xbf345557	-0.7044272
17	0x3cc1b23b	0.023644557
18	0x3eb1eb60	0.3474989
19	0x3e9f43ac	0.31106317
20	0xbe8793c6	-0.2647993
21	0x3f0dc032	0.5537139
22	0xbd95bcd0	-0.07311404
23	0xbe8fa9b5	-0.28059164
24	0xbf19387b	-0.5985181
25	0xbedfc76c	-0.43706834
26	0xbda76951	-0.081743844
27	0x3d13660d	0.035985995
28	0x3e9071fa	0.28211957
29	0x3e3512f6	0.17683014
30	0xbd821f01	-0.0635357
31	0x3deb26fe	0.114820465
32	0x3e224a7b	0.15848725
33	0xbe757e95	-0.23974068
34	0x3e31e917	0.17374073
35	0xbe6c7577	-0.23091684
36	0x3f6d9b08	0.92814684
37	0xbef912f0	-0.4864726
38	0xbea1ecfa	-0.3162611
39	0x3eca619d	0.39527598
40	0xbdc65524	-0.09684208
41	0xbd5caccd	-0.053875733
42	0x3f367b15	0.7128156
43	0x3daa242d	0.08307681
44	0xbf019e59	-0.50632244
45	0x3ec26aa7	0.37971994
46	0x3e15bb53	0.1462224
47	0xbea6e070	-0.32593107
48	0x3e3a3bc7	0.18186866
49	0xbded8fa3	-0.11599662
50	0xbd91fc9f	-0.07128262
51	0xbdbfdf85	-0.09368805
52	0xbeaee6b6	-0.34160393
53	0xbe2bb341	-0.16767599
54	0x3e1e957a	0.15486708
55	0xbf427851	-0.7596484
56	0xbe0881f3	-0.13330822
57	0xbd67fd11	-0.056637827
58	0x3f2cd322	0.67509663
59	0x3e2bc500	0.16774368
60	0xbdbfcf2c	-0.09365687
61	0xbd670728	-0.05640331
62	0x3e632cb5	0.22185023
63	0xbeebd96e	-0.46064323
64	0x3c2cffed	0.010559064
65	0xbd875411	-0.06607831
66	0x3e700888	0.23440754
67	0x3dfe1407	0.12406164
68	0xbdfb291a	-0.12263699
69	0x3e975c75	0.29562727
70	0x3d39c3f7	0.045352902
71	0xbee31ffb	-0.44360337
72	0x3ecfa2c5	0.4055387
73	0x3e2a2ac1	0.16617872
74	0x3d05ba5d	0.032648433
75	0xbe2aaaf5	-0.16666777
76	0x3e13c4c1	0.14430524
77	0xbe9bba1b	-0.30415425
78	0xbf15f82b	-0.585818
79	0x3e2cab57	0.16862236
80	0xbe807a23	-0.25093183
81	0xbeb4e00a	-0.35327178
82	0x3eb5ebbf	0.35531422
83	0x3ed97749	0.4247382
84	0xbf15a659	-0.5845695
85	0xbe7667aa	-0.24062982
86	0xbe45545f	-0.19270466
87	0x3e1aaf30	0.15105891
88	0xbdf46eef	-0.119352214
89	0x3e9a27e0	0.30108547
90	0x3e8496c0	0.25896263
91	0x3e4dcbcc	0.20097274
92	0xbf11b8f5	-0.5692285
93	0xbfa79d4f	-1.3094882
94	0x3c4e2e84	0.012584332
95	0xbdbc1592	-0.09183802
96	0xbef540bd	-0.47900954
97	0x3ec7cc31	0.39022973
98	0x37a85ba0	2.0069827e-05
99	0x3e408a94	0.18802863
100	0xbf2110e1	-0.6291638
101	0xbf25e8b2	-0.6480819
102	0xbea41932	-0.32050472
103	0xbe8fa6a0	-0.28056812
104	0x3eacb8fb	0.3373488
105	0x3cb552b0	0.022134155
106	0xbea76f5a	-0.32702142
107	0xbf07d2d4	-0.53056073
108	0xbe220b42	-0.15824607
109	0xbf1f3ab5	-0.62198955
110	0xbf40938a	-0.75225127
111	0x3f7da685	0.99082214
112	0x3e7d065d	0.24709459
113	0xbdf8a9a0	-0.121417284
114	0x3e967cf3	0.29392204
115	0x3f120e11	0.57052714
116	0xbf1d62d3	-0.6147892
117	0x3f1333df	0.57501024
118	0x3e9ac972	0.30231816
119	0x3e93dae4	0.28877938
120	0xbd93b9a3	-0.07213142
121	0xbdf52f20	-0.11971879
122	0xbdf9b7a0	-0.12193227
123	0xbe9bc1b0	-0.3042121
124	0x3e9b12ef	0.30287883
125	0xbf29c491	-0.6631556
126	0x3d6a4740	0.057196856
127	0xbdcab356	-0.09897487
128	0x3ceb2a95	0.028706828
129	0x3defc973	0.11708345
130	0x3cb62972	0.02223656
131	0xbf2669c2	-0.65005124
132	0x3e6021c7	0.21887885
133	0x3ecf294f	0.40461203
134	0x3da1ec88	0.07906443
135	0xbeff5208	-0.49867272
136	0x3f681a6e	0.9066533
137	0x3ebcbba6	0.36861914
138	0x3ed8174e	0.4220528
139	0x3ea536a0	0.32268238
140	0x3e994a3c	0.2993945
141	0xbf2fe0e5	-0.68702537
142	0x3e583194	0.21112663
143	0x3f0898b8	0.5335803
144	0xbf079115	-0.5295575
145	0x3f26493c	0.64955497
146	0xbec41dfb	-0.38304123
147	0xbf636d2a	-0.88838446
148	0x3eb837d7	0.35980102
149	0xbc69cb6b	-0.01426969
150	0xbe979da0	-0.29612446
151	0xbe0869cd	-0.1332161
152	0xbe9fd1a1	-0.31214622
153	0xbf02a588	-0.5103383
154	0x3f2756c9	0.653668
155	0xbe4c3814	-0.19943267
156	0xbeb19688	-0.3468516
157	0x3e51a155	0.204717
158	0x3e39b3c8	0.18134987
159	0x3d8b9d0a	0.06817062
160	0xbee5f20f	-0.4491124
161	0x3f0757e0	0.5286846
162	0x3e5061d4	0.20349818
163	0xbc18dcf7	-0.009330026
164	0xbec9b5b0	-0.3939643
165	0x3e83bc88	0.25729775
166	0xbf0bfb02	-0.5467988
167	0xbdd4b67c	-0.10386369
168	0x3ebd53a5	0.36977878
169	0x3ea200f5	0.31641355
170	0xbeb74320	-0.357934
171	0xbf279019	-0.6545425
172	0x3f0d88d9	0.5528694
173	0xbced4e10	-0.028967887
174	0x3d5837a2	0.05278743
175	0xbf177044	-0.5915568
176	0xbf02343a	-0.5086094
177	0xbf1bca34	-0.6085541
178	0xbec50d43	-0.3848668
179	0x3d189cf8	0.037259072
180	0xbf7d7145	-0.9900096
181	0xbe888543	-0.2666417
182	0x3e5333d9	0.20625247
183	0x3ef66a7a	0.4812811
184	0xbd002edd	-0.031294692
185	0xbec3ea7b	-0.38264832
186	0x3ede1c80	0.4338112
187	0x3e04f418	0.1298374
188	0xbd228000	-0.03967285
189	0x3eb52570	0.35380125
190	0x3e9d6669	0.30742195
191	0x3e26ef16	0.16302142
192	0xbd2a04fd	-0.041508663
193	0xbe85ab4e	-0.26107258
194	0xbeb7b1ef	-0.3587794
195	0x3eb010ca	0.3438781
196	0xbe856a68	-0.26057744
197	0x3ef049e9	0.4693139
198	0x3ecd2a66	0.4007141
199	0x3ebc13fb	0.36733994
200	0x3f06411d	0.52443105
201	0x3da7410b	0.08166703
202	0xbe0abad4	-0.13547832
203	0xbef8db49	-0.486048
204	0xbef6497d	-0.48102942
205	0xbf83180c	-1.0241714
206	0x3eec67ad	0.46172848
207	0x3f5def71	0.86693484
208	0x3f91408d	1.1347824
209	0x3f392587	0.7232289
210	0x3fa9a3da	1.3253129
211	0xbf802ad9	-1.0013076
212	0x3e561b1c	0.20908779
213	0xbef6b6e8	-0.4818642
214	0x3f2081e9	0.6269823
215	0xbf24fbdd	-0.6444681
216	0x3fd671fa	1.6753533
217	0xbe9783cd	-0.29592744
218	0xbf02cae6	-0.5109085
219	0x3e24b1c9	0.16083445
220	0xbf579ba3	-0.8422186
221	0x3f3be3f2	0.7339469
222	0x3e385f4d	0.18005104
223	0x3edfbfef	0.4370112
224	0xbe623f7e	-0.22094533
225	0x3eb5aef3	0.35485038
226	0xbebc6e10	-0.3680272
227	0xbf20c8da	-0.62806475
228	0xbf94e6e1	-1.1632959
229	0x3d2b9e22	0.041898854
230	0xbec9a8f1	-0.39386705
231	0xbea3a16a	-0.31959087
232	0x3d7f24de	0.06229102
233	0xbee4368f	-0.44572875
234	0xbf356c6e	-0.70868576
235	0x3e5f570d	0.21810551
236	0xbfdbaa0e	-1.7161272
237	0xbea72606	-0.32646197
238	0xbe78362b	-0.24239413
239	0x3c962205	0.018326769
240	0xbde45eea	-0.11150916
241	0x3f7c8cae	0.9865216
242	0xbfc1467d	-1.5099636
243	0xc004155f	-2.0638044
244	0x3f90e0c3	1.1318592
245	0xbf2d92fd	-0.6780241
246	0xbdef2c85	-0.11678413
247	0x400139db	2.0191562
248	0xbf00c257	-0.5029654
249	0xbf1a4202	-0.6025697
250	0xbe89af23	-0.2689143
251	0xbec78831	-0.38971093
252	0xbf22d877	-0.6361155
253	0xbf2f4636	-0.6846651
254	0x3de68439	0.11255688
255	0xbe416380	-0.18885612

linears.0.bias f4 [512]
0	0xbdad9a04	-0.08476642
1	0xbe65f022	-0.22454885
2	0xbed82d12	-0.42221886
3	0xbe8a2509	-0.2698138
4	0x3ec5648c	0.38553274
5	0xbe58bed8	-0.21166551
6	0xbe3da221	-0.18518879
7	0xbd0d8566	-0.034551047
8	0xbe8ab580	-0.270916
9	0xbe29f8ee	-0.16598865
10	0xbd7e620c	-0.062105224
11	0xbe9916f4	-0.29900324
12	0xbe179502	-0.14802936
13	0xbe1d2d4e	-0.15349314
14	0xbec94bf0	-0.39315748
15	0xbe1b90a4	-0.15191895
16	0xbe7fa09b	-0.2496361
17	0xbe97ab2f	-0.2962279
18	0x3e8168db	0.2527531
19	0xbafa9320	-0.0019117333
20	0xbe8ab154	-0.27088416
21	0x3e5e3918	0.21701467
22	0x3d6a075d	0.05713593
23	0xbd0f30f9	-0.034958813
24	0xbd08969d	-0.03334676
25	0xbe3506b7	-0.17678343
26	0xbe8fb29b	-0.28065953
27	0xbe9c319d	-0.30506602
28	0xbea7c5e3	-0.32768163
29	0x3e834e54	0.25645697
30	0xbe3b57bf	-0.18295191
31	0xbe6b2074	-0.22961599
32	0xbe3f5ddc	-0.18688148
33	0xbe716502	-0.23573688
34	0xbed53de6	-0.41648787
35	0xbdf7c761	-0.120985754
36	0xbea7e1e7	-0.32789537
37	0xbdfce8a0	-0.12349057
38	0xbddf494c	-0.10902652
39	0xbe4e3773	-0.2013834
40	0xbddaad33	-0.106775664
41	0xbebea648	-0.37236238
42	0xbe190719	-0.14944114
43	0xbe12391a	-0.14279595
44	0x3d59aa32	0.053140827
45	0xbe76d2d4	-0.24103862
46	0xbeaf2c88	-0.34213662
47	0xbed3baf4	-0.4135357
48	0xbe718c4c	-0.23588675
49	0xbebcd9a7	-0.36884806
50	0xbeaea0c9	-0.34107044
51	0xbee01078	-0.43762565
52	0xbec3ad74	-0.38218272
53	0xbe7c5781	-0.24642755
54	0xbd9a70ce	-0.07541047
55	0xbe6ed2d7	-0.23322617
56	0xbee4fca3	-0.44723997
57	0xbe678db0	-0.22612643
58	0xbdea972a	-0.114546135
59	0xbdc99656	-0.098431274
60	0xbe2765bc	-0.16347402
61	0xbefb15bb	-0.49040017
62	0xbeb869a3	-0.36018094
63	0xbe995169	-0.29944924
64	0xbe5b779d	-0.21432348
65	0xbdb5ddc5	-0.0888019
66	0x3e0985fa	0.13430014
67	0xbe933500	-0.28751373
68	0xbee3cc20	-0.44491673
69	0xbe1ebd47	-0.15501891
70	0xbdacd1b9	-0.08438439
71	0xbe36720c	-0.17816943
72	0xbf05e188	-0.5229726
73	0xbec04adf	-0.37557122
74	0xbe52bc40	-0.20579624
75	0xbeaea0e1	-0.34107116
76	0xbd246d1e	-0.040143125
77	0xbe3b2713	-0.18276624
78	0x3d886594	0.066599995
79	0xbe767f35	-0.24071963
80	0xbe46b7ae	-0.19406006
81	0xbde2388f	-0.11045944
82	0xbe67f7e8	-0.22653162
83	0xbde2280d	-0.11042795
84	0xbe60e620	-0.21962786
85	0xbd440abd	-0.047861803
86	0xbea90e97	-0.33018944
87	0x3d131861	0.03591192
88	0xbeca726a	-0.39540416
89	0xbebdc1fc	-0.3706206
90	0xbc5a09b5	-0.013307978
91	0x3e256c7a	0.16154662
92	0x3d878bd8	0.0661847
93	0xbefe3b30	-0.4965453
94	0x3c676921	0.014124186
95	0xbf039d1c	-0.51411605
96	0xbeb9acdb	-0.3626469
97	0xbd9c7374	-0.076392084
98	0xbe48be12	-0.19603756
99	0x3daf7c01	0.08568574
100	0x3d509ca2	0.050930627
101	0xbe9ee800	-0.31036377
102	0xbeaa3c0c	-0.33248937
103	0xbe792776	-0.2433146
104	0xbdea58b6	-0.114427015
105	0xbd2ebf2c	-0.042662784
106	0xbe17f60c	-0.14839953
107	0xbdaaaba8	-0.08333522
108	0xbe909d91	-0.28245214
109	0xbe6528b4	-0.22378808
110	0xbf028f5a	-0.5099999
111	0xbeb2c86b	-0.34918532
112	0xbdc5de89	-0.09661586
113	0xbe544d6e	-0.20732662
114	0xbe4e3f02	-0.20141223
115	0xbec65dc3	-0.3874341
116	0xbe6cee91	-0.23137881
117	0xbed84f03	-0.4224778
118	0xbe91cdb4	-0.28477252
119	0xbe60569d	-0.2190804
120	0xbf0f0038	-0.5585971
121	0xbe5f0ee8	-0.2178303
122	0x3e2cb2cf	0.16865085
123	0xbe979ad3	-0.2961031
124	0xbe515a46	-0.20444593
125	0xbe139dd5	-0.14415677
126	0xbe3af847	-0.18258773
127	0xbe2eb8fc	-0.17062753
128	0xbecf5439	-0.40493944
129	0xbec8ec01	-0.39242557
130	0xbeb8ada4	-0.36069977
131	0xbea1d8f0	-0.31610823
132	0xbeaeab3a	-0.3411501
133	0xbd69797a	-0.057000615
134	0xbe7243b1	-0.23658635
135	0x3d9bd1d4	0.07608381
136	0xbe0dc235	-0.13843615
137	0xbe7c648a	-0.24647728
138	0xbbae527a	-0.0053198906
139	0xbe511a04	-0.2042008
140	0xbedb6906	-0.42853564
141	0xbeb3e6bb	-0.3513697
142	0xbeca05ab	-0.3945745
143	0xbd9fed90	-0.07808983
144	0xbe8b535d	-0.2721204
145	0xbea6720c	-0.32508886
146	0xbe5af2c0	-0.21381664
147	0xbed24304	-0.41066754
148	0xbdddc53b	-0.10828634
149	0xbe99d54c	-0.30045545
150	0xbdc1ed74	-0.09469119
151	0xbe383be9	-0.17991604
152	0xbe9497ed	-0.2902216
153	0xbeba617f	-0.3640251
154	0x3e43cd11	0.19121195
155	0xbe78b176	-0.24286446
156	0xbdce91ec	-0.10086426
157	0xbe8d1b44	-0.27559865
158	0xbe887498	-0.26651454
159	0xbe5335b7	-0.2062596
160	0xbef22146	-0.4729101
161	0xbe35275d	-0.17690797
162	0xbe9fb5bf	-0.3119335
163	0xbe6efcad	-0.23338576
164	0xbe9b1164	-0.30286705
165	0xbdf0261b	-0.11726018
166	0xbeb41be5	-0.35177532
167	0xbe55a6d9	-0.20864429
168	0xbe708908	-0.23489773
169	0xbc47eed6	-0.012202939
170	0xbe4e315c	-0.20136017
171	0xbec6c307	-0.3882067
172	0xbed36977	-0.412914
173	0xbeeba074	-0.46020854
174	0xbddcf77b	-0.10789391
175	0xbe7650f1	-0.24054314
176	0xbe832627	-0.25615045
177	0xbec0fbfa	-0.37692243
178	0xbe8c65ae	-0.27421325
179	0xbd5d2f1c	-0.054000005
180	0xbebb7f4e	-0.36620563
181	0xbeddf680	-0.43352127
182	0xbdb2b8b0	-0.087266326
183	0xbe838898	-0.2569015
184	0xbd843f20	-0.06457353
185	0xbddd291c	-0.107988566
186	0xbd8f04be	-0.069833264
187	0xbdd908cd	-0.10597382
188	0xbed31f2a	-0.41234714
189	0xbdf7f284	-0.12106803
190	0xbdff84c8	-0.12476498
191	0xbed96836	-0.4246232
192	0xbea55cac	-0.32297266
193	0xbe1806cf	-0.14846347
194	0xbec2703b	-0.3797625
195	0xbd300c9b	-0.04298077
196	0xbe3a601e	-0.18200728
197	0xbe5aea5f	-0.21378468
198	0x3d3e21fa	0.04641912
199	0xbe683c24	-0.22679192
200	0xbf022683	-0.50840014
201	0xbe7d10a3	-0.24713378
202	0xbeb4f1aa	-0.35340625
203	0xbeb1e12f	-0.34742114
204	0xbd705763	-0.05867709
205	0xbedad0ea	-0.42737514
206	0xbe62b4d7	-0.22139297
207	0xbdc5367b	-0.09629532
208	0xbe963284	-0.29335415
209	0xbdfa02ef	-0.12207591
210	0xbe0c68b5	-0.13711818
211	0xbc85af97	-0.01631908
212	0xbee30332	-0.44338375
213	0x3c97bd5e	0.018522914
214	0x3e03ab17	0.12858234
215	0x3e40fb09	0.18845762
216	0xbc260f3a	-0.010135466
217	0xbecb11f8	-0.39662147
218	0xbeb1b362	-0.3470717
219	0xbed153e9	-0.4088433
220	0xbeaff60a	-0.343674
221	0xbe38bf93	-0.1804183
222	0xbd52d000	-0.051467896
223	0xbeaa62dc	-0.3327855
224	0xbf23af16	-0.63939035
225	0xbeace37d	-0.3376731
226	0xbd0e834c	-0.034793183
227	0xbee708f3	-0.45124015
228	0xbdf8a386	-0.121405646
229	0xbd079343	-0.033099424
230	0xbe3881ca	-0.1801826
231	0xbeb15072	-0.34631687
232	0xbdbe354e	-0.09287511
233	0xbe33e22a	-0.17566743
234	0x3d39964c	0.04530935
235	0xbeb8af49	-0.36071232
236	0xbeacef69	-0.33776405
237	0xbb21e59a	-0.0024703504
238	0xbdffd3b8	-0.12491554
239	0xbe2366b9	-0.15957154
240	0xbd8ae0e8	-0.06781179
241	0xbef31577	-0.47477314
242	0xbe63e82b	-0.22256534
243	0xbd9c9f08	-0.0764752
244	0x3a88bf3e	0.0010432971
245	0x3d780675	0.060553033
246	0xbeb801b1	-0.3593879
247	0xbda7f4b6	-0.08200972
248	0xbe86ba96	-0.2631423
249	0xbe1b1abc	-0.15146917
250	0xbe817f0b	-0.2529224
251	0xbe0213ea	-0.12702909
252	0xbe8c992c	-0.2746061
253	0x3da772bb	0.0817618
254	0xbee81aa6	-0.4533283
255	0xbddd977e	-0.108199105

linears.1.weight f4 [2, 512]
0	0xbd6d8f28	-0.057997853
1	0xbd91f8f8	-0.07127565
2	0x3cd542d2	0.026032839
3	0xbdb72289	-0.08942134
4	0x3ea5ea18	0.32405162
5	0xbd4e2e04	-0.050336853
6	0xbd9621cd	-0.07330666
7	0xbddf87d1	-0.10914577
8	0xbda33471	-0.07968987
9	0xbd8438b5	-0.064561285
10	0xbe105764	-0.14095837
11	0x3de4b766	0.11167793
12	0xbe0a49f8	-0.1350478
13	0xbda2b6f7	-0.07945054
14	0xbe90b4ea	-0.28263026
15	0xbe0a97a0	-0.13534403
16	0xbe4ebd7b	-0.20189469
17	0xbbb29c52	-0.0054507637
18	0x3e4268d7	0.18985306
19	0xbe0ed0dd	-0.13946863
20	0xbe473df0	-0.19457221
21	0x3d19d682	0.037558086
22	0xbdafc749	-0.085829325
23	0xbdf9127f	-0.12161731
24	0xbe3425d9	-0.17592563
25	0xbde1ffdb	-0.11035129
26	0xbcfbe291	-0.030747684
27	0xbd917e79	-0.07104201
28	0xbdb12e4f	-0.08651411
29	0x3cdea0e6	0.027176332
30	0xbdcc2d1b	-0.09969541
31	0x3db353e8	0.08756238
32	0xbd9a1964	-0.07524374
33	0xbe15eebb	-0.1464185
34	0xbc3298c2	-0.010900678
35	0xbd8a9b71	-0.06767929
36	0xbe6f39d2	-0.233619
37	0xbe23505d	-0.15948625
38	0xbd26a9db	-0.04068933
39	0xbd830017	-0.063965015
40	0xbde683bb	-0.11255594
41	0x3e87230f	0.26393935
42	0xbd103ae2	-0.035212405
43	0xbe25f30f	-0.16206001
44	0xbe3876db	-0.1801409
45	0x3d2d88ed	0.04236691
46	0xbde5e502	-0.112253204
47	0xbb9ef2b5	-0.0048507103
48	0xbd9043fc	-0.07044217
49	0x3e140754	0.1445592
50	0xbdb276f1	-0.087140925
51	0x3c2db63e	0.010602532
52	0xbd899390	-0.067175984
53	0xbdc80551	-0.09766639
54	0xbda1d4e6	-0.07901935
55	0xbd560d30	-0.05225867
56	0xbc12c134	-0.008957196
57	0xbd47c445	-0.04877116
58	0xbd85c61f	-0.06531929
59	0xbde4e2e7	-0.11176091
60	0xbcf5a4ba	-0.029985774
61	0xbce50c3e	-0.02795994
62	0xbc7da50e	-0.015481247
63	0x3dc566a7	0.0963872
64	0xbdb5b15c	-0.08871719
65	0xbe1a4f8a	-0.15069404
66	0xbe8ea934	-0.27863467
67	0xbcb4a20c	-0.022049926
68	0x3b876836	0.004132296
69	0xbdd4384a	-0.10362299
70	0xbd7c343c	-0.061573252
71	0xbd6b586a	-0.057457365
72	0xbc0ad8f2	-0.008474575
73	0xbd11ddc4	-0.035611883
74	0xbd4ce8d3	-0.050026726
75	0x3c860d58	0.016363785
76	0xbe084068	-0.13305819
77	0xbe2a9729	-0.16659226
78	0xbe38bfc1	-0.18041898
79	0xbece19ad	-0.40253964
80	0xbd7490fc	-0.05970858
81	0xbdd79264	-0.10525969
82	0xbd04a60d	-0.03238492
83	0xbe017d77	-0.12645517
84	0xbddc881e	-0.1076815
85	0xbdc72be2	-0.09725167
86	0xbcf18280	-0.029481173
87	0xbe0719b4	-0.13193399
88	0x3e8fd193	0.2808958
89	0xbd390645	-0.045171995
90	0xbdf54605	-0.11976246
91	0x3ebbfc72	0.36716038
92	0x3d16b02d	0.036789108
93	0xbbe928c7	-0.0071154567
94	0xbe00ae4b	-0.12566487
95	0x3de19088	0.11013895
96	0x3c75c97d	0.015001652
97	0xbd7a058f	-0.061040457
98	0xbd12123c	-0.03566192
99	0xbe3aa3b5	-0.18226512
100	0xbe0a0b66	-0.1348091
101	0xbe6f2119	-0.2335247
102	0xbca47893	-0.020077026
103	0xbd767b39	-0.060176108
104	0xbdc42933	-0.095781706
105	0x3cbcc47c	0.02304291
106	0xbeb8cfd0	-0.36096048
107	0xbdc7fdc0	-0.09765196
108	0x3d83804f	0.06420957
109	0xbd1c62d1	-0.038180176
110	0x3dd327e1	0.10310341
111	0xbcfad148	-0.030617371
112	0xbdb068b4	-0.086137205
113	0x3cb49e62	0.022048179
114	0xbd3f2705	-0.04666807
115	0xbd10c585	-0.03534462
116	0xbd9dd5fc	-0.0770683
117	0x3adc2379	0.001679524
118	0xbd2d10c5	-0.04225232
119	0xbdc7d3f7	-0.09757226
120	0x3c99cdad	0.018774832
121	0xbde7a1e7	-0.11310177
122	0x3d4b6aea	0.049662508
123	0xbe4e081f	-0.20120285
124	0xbe0b0bed	-0.13578768
125	0xbe0ae4e0	-0.13563871
126	0xbcaf74b6	-0.021417957
127	0xbd9e470e	-0.07728396
128	0x3cb53dfe	0.022124287
129	0x3e5a84d0	0.21339726
130	0xbc241d2a	-0.010016719
131	0x3c5134fa	0.012768978
132	0xbdcde749	-0.1005388
133	0xbe257962	-0.16159585
134	0xbd8d58cb	-0.069017015
135	0xbde3e8ff	-0.11128425
136	0x3d89d940	0.0673089
137	0xbc3d23b7	-0.01154416
138	0xbe21e213	-0.15808897
139	0xbca4c905	-0.020115385
140	0xbd8704ad	-0.06592689
141	0xbd46c745	-0.048529882
142	0x3d83f607	0.0644341
143	0xbda7abcb	-0.08187064
144	0xbd9b29bc	-0.075763196
145	0x3da74520	0.081674814
146	0xbd4b60e8	-0.049652964
147	0xbd069505	-0.03285696
148	0xbd8de8e2	-0.069291845
149	0x3c714762	0.014726492
150	0xbdfe2051	-0.124085076
151	0xbcb1a90a	-0.02168705
152	0xbda79074	-0.08181849
153	0x3e099a1d	0.13437696
154	0x3e8cdf0c	0.2751392
155	0xbddc3adf	-0.10753416
156	0xbd9c7764	-0.076399595
157	0xbb9cd8b3	-0.0047865747
158	0x3dda63d1	0.1066357
159	0xbdbc815a	-0.09204359
160	0xbd7b43d3	-0.06134398
161	0xbde49941	-0.11162043
162	0x3d951bc6	0.07280688
163	0xbc278424	-0.010224376
164	0xbcc219e4	-0.023693986
165	0xbda3dfa1	-0.08001638
166	0xbd3d8b0b	-0.04627518
167	0xbd688082	-0.05676318
168	0xbdb05148	-0.08609253
169	0xbe0ee78a	-0.13955513
170	0xbd41e82d	-0.04734056
171	0x3e75a9bc	0.2399053
172	0xbdf712fd	-0.120641686
173	0x3e1ba2ec	0.15198869
174	0xbc19e282	-0.009392383
175	0xbd804692	-0.0626346
176	0xbd2ae6f0	-0.041724145
177	0x3d12fe91	0.035887305
178	0xbd3f376e	-0.04668372
179	0xbe0fd64d	-0.14046593
180	0xbd5a2659	-0.053259227
181	0xbe77eb11	-0.24210764
182	0xbc77aca6	-0.015116846
183	0xbd2567ee	-0.04038232
184	0xbc7c1205	-0.015385156
185	0xbd78d889	-0.06075338
186	0xbdba8179	-0.09106726
187	0xbd9814de	-0.07425855
188	0xbc753cbc	-0.0149680935
189	0xbd51dc15	-0.051235277
190	0xbdfaa898	-0.12239188
191	0xbd354cd2	-0.044262715
192	0xbab84355	-0.0014058152
193	0xbe246151	-0.16052748
194	0xbcaaf09b	-0.020866683
195	0xbdd2a748	-0.102858126
196	0xbe55faba	-0.20896426
197	0xbcfaa7ee	-0.030597653
198	0xbe22708c	-0.15863246
199	0xbcdf4e28	-0.027258947
200	0x3d7ef641	0.062246565
201	0xbd806eaf	-0.06271111
202	0xb9303e31	-0.00016807836
203	0x3e7213fa	0.23640433
204	0xbdd2b533	-0.10288467
205	0xbd043012	-0.032272406
206	0xbde8617e	-0.1134672
207	0xbd5ea3bd	-0.05435537
208	0xbda64425	-0.08118466
209	0xbda85a75	-0.08220378
210	0xbc44255e	-0.0119718
211	0xbe5f4723	-0.2180448
212	0x3e077f55	0.13232167
213	0xbe181202	-0.1485062
214	0x3e193954	0.14963275
215	0x3e9f967e	0.31169504
216	0xbde80a7b	-0.11330124
217	0x3d91d195	0.07120053
218	0xbd021cc4	-0.031765714
219	0xbd8e20ea	-0.069398716
220	0x3eb3cf67	0.35119173
221	0xbe0c179f	-0.13680886
222	0x3d907dc2	0.070552364
223	0xbdaf5882	-0.085618034
224	0x3d968115	0.07348839
225	0x3d49b648	0.049246103
226	0xbdee671a	-0.11640759
227	0xbedf54c3	-0.43619356
228	0xbe2b5cfd	-0.16734691
229	0xbe1ae8f5	-0.15127929
230	0x3c31524c	0.010822844
231	0xbd3820c6	-0.04495313
232	0x3c9958d6	0.018719118
233	0xbdfa4827	-0.12220793
234	0xbdabb153	-0.08383431
235	0xbd505774	-0.05086465
236	0xbe2cb8c2	-0.16867355
237	0xbe602376	-0.21888527
238	0x3bc1368d	0.0058963955
239	0x3db19370	0.086706996
240	0xbdbe4dc0	-0.092921734
241	0x3e1c3a08	0.15256512
242	0xbd6a1c0a	-0.057155646
243	0xbdabf15b	-0.08395644
244	0xbdf57a7b	-0.11986252
245	0xbe28176f	-0.16415189
246	0xbdd77fd7	-0.105224304
247	0xbe014028	-0.1262213
248	0xbdb9df7c	-0.090758294
249	0xbd981e68	-0.074276745
250	0xbd8d4ac7	-0.06899028
251	0xbdbb1410	-0.09134686
252	0xbe152d5a	-0.14568081
253	0xbdee2126	-0.11627416
254	0x38d958ee	0.00010363931
255	0xbdccb3f0	-0.09995258

linears.1.bias f4 [2]
0	0x3d9013eb	0.07035049
1	0xbd98f161	-0.074679144
