hw3/model_learned_at_0.002.pth (torch, 110920 bytes, 4 tensors)

linears.0.weight f4 [512, 50]
0	0x3e94dfd3	0.29077014
1	0xbc6c8ab9	-0.014437371
2	0xbcf765f1	-0.030199977
3	0xbcd87839	-0.026424514
4	0xbe00bab1	-0.12571217
5	0xbeeb08ec	-0.45905244
6	0x3e6bcc75	0.23027213
7	0x3e52bcbf	0.20579813
8	0x3e98cf77	0.29845783
9	0x3eaad341	0.333643
10	0x3efec747	0.49761412
11	0xbefed644	-0.49772847
12	0x3e486761	0.19570686
13	0xbd64a6d0	-0.055823147
14	0x3e1a7664	0.15084225
15	0xbe2d6c0d	-0.1693575
16	0x3f0f5c6e	0.5600041
17	0xbe48ffdd	-0.19628854
18	0xbdb212ed	-0.08695016
19	0x3d58ffe8	0.052978426
20	0xbe420377	-0.18946634
21	0x3dac3ef6	0.08410446
22	0x3e80e4d2	0.25174576
23	0x3c29f548	0.010373421
24	0xbd07e3ba	-0.03317616
25	0x3c36593d	0.0111296745
26	0x3d2c4a07	0.042062785
27	0xbe2f3ca1	-0.17112972
28	0xbec2fe2d	-0.38084546
29	0x3c92e3d6	0.017930906
30	0x3e265866	0.16244659
31	0x3e18180a	0.1485292
32	0x3e0ea4b2	0.13930014
33	0xbc88a276	-0.01667903
34	0xbe66bed4	-0.22533733
35	0x3e09ebf8	0.13468921
36	0xbef251b7	-0.47327968
37	0xbdf26981	-0.118365295
38	0x3cc49072	0.023994658
39	0xbe169653	-0.14705782
40	0x3e3d81ad	0.18506499
41	0x3e2afbd5	0.16697629
42	0xbf1e05d7	-0.6172766
43	0xbf042530	-0.51619244
44	0x3ec94567	0.39310762
45	0xbe9bcb3e	-0.304285
46	0xbe333e41	-0.17504217
47	0x3f0fce31	0.56174
48	0xbe83b6ba	-0.25725347
49	0xbd8b7e84	-0.0681124
50	0x3c9b3cf4	0.018949963
51	0xbe53cde8	-0.20684016
52	0xbe353f79	-0.17699994
53	0xbcdfa1b4	-0.027298786
54	0xbe58dc10	-0.21177697
55	0xbec4b777	-0.38421223
56	0x3d8b6604	0.06806567
57	0x3e802c1a	0.25033647
58	0x3eb88e32	0.36045986
59	0x3e116a14	0.14200622
60	0x3eb38077	0.35058948
61	0xbe740c0d	-0.23832722
62	0x3a86434d	0.0010243446
63	0xbe74bef9	-0.23900975
64	0x3e6f2277	0.23352991
65	0xbd8f742f	-0.07004582
66	0x3e9fc409	0.3120425
67	0xbd5c086d	-0.053718973
68	0xbde0a5b9	-0.10969109
69	0x3e38d09f	0.18048333
70	0xbebee342	-0.3728276
71	0xbd840de1	-0.0644796
72	0x3e89ed27	0.26938745
73	0xbc968f64	-0.01837892
74	0xbd3a8801	-0.04553986
75	0x3c8ea6e8	0.017413571
76	0x3e25ecc2	0.16203597
77	0xbe06d82a	-0.13168398
78	0xbed3be55	-0.4135615
79	0x3e4658b8	0.19369781
80	0x3e363f79	0.1779765
81	0xbdbcaf94	-0.09213176
82	0x3e541d56	0.20714316
83	0x3cd55b11	0.0260444
84	0xbeef28ec	-0.46710908
85	0xbdb5d11e	-0.088777766
86	0xbefdb09d	-0.49548808
87	0x3e1f68d9	0.1556734
88	0x3e290612	0.16506222
89	0x3dc11132	0.09427108
90	0x3cb47ac9	0.022031205
91	0x3e7f4a98	0.24930799
92	0xbf2a3b85	-0.6649707
93	0xbec3125a	-0.3809994
94	0x3ebaa8f1	0.36457017
95	0xbe6a2250	-0.22864652
96	0xbda495ec	-0.08036408
97	0x3f24cb5d	0.6437281
98	0x3d733993	0.05938108
99	0xbd659df4	-0.05605884
100	0x3e904740	0.2817936
101	0x3d8a513c	0.067537755
102	0xbe16a928	-0.14712965
103	0xbe163cfb	-0.146717
104	0xba1ca48f	-0.0005975449
105	0xbef1236a	-0.4709733
106	0xbb32ecb8	-0.002730174
107	0x3e8e497e	0.27790445
108	0x3e9567da	0.29180795
109	0x3ed28902	0.41120154
110	0x3eef929c	0.46791542
111	0xbef5268c	-0.4788097
112	0x3ded96ce	0.11601029
113	0xbe95ccdc	-0.29257858
114	0x3eba47a4	0.36382782
115	0xbe286fd4	-0.16448909
116	0x3efc0fad	0.4923071
117	0xbe6621b0	-0.22473788
118	0xbe3be284	-0.18348128
119	0xbc728fc8	-0.014804788
120	0xbef34d6f	-0.47520015
121	0x3c394fb7	0.011310509
122	0x3e6b4720	0.22976351
123	0x3d8b4bc8	0.068015635
124	0x3d5232dd	0.05131804
125	0x3e28037f	0.16407584
126	0x3e0837dc	0.13302559
127	0xbdc986f7	-0.098401956
128	0xbe927435	-0.28604284
129	0x3c0d8272	0.008637058
130	0x3d0b800c	0.034057662
131	0xbe0ff8be	-0.14059731
132	0xbdb52bd3	-0.088462494
133	0x3cb64f35	0.022254566
134	0xbe8a43e2	-0.27004915
135	0xbb2a8fb7	-0.0026025602
136	0xbf1effd6	-0.62109125
137	0xbe0c084b	-0.13675039
138	0xbd8c3f1d	-0.068479754
139	0xbe095d3b	-0.13414471
140	0x3e7b0fe4	0.2451778
141	0x3e9ea530	0.30985403
142	0xbf0dcf5a	-0.5539452
143	0xbeca36bd	-0.39494887
144	0x3e974f71	0.29552796
145	0xbe6cb6d0	-0.23116612
146	0xbea44f8c	-0.3209194
147	0x3f3d825a	0.74027026
148	0xbde847a6	-0.11341791
149	0x3d0ee1d3	0.03488333
150	0xbe21c882	-0.15799144
151	0xbd688388	-0.056766063
152	0xbda1a5e9	-0.07892973
153	0x3e349b3c	0.17637342
154	0x3e8de804	0.27716076
155	0x3eaab6e4	0.3334266
156	0xbe83070e	-0.2559132
157	0xbe875f7b	-0.26440033
158	0xbe39ff65	-0.18163832
159	0xbe62d308	-0.22150815
160	0xbef36532	-0.47538143
161	0x3f130964	0.57436204
162	0xbdaf46f7	-0.08558457
163	0x3e3e137b	0.18562119
164	0xbe2be417	-0.16786228
165	0x3eb6bcb4	0.35690844
166	0xbed06d14	-0.4070822
167	0x3e561bf5	0.20909102
168	0x3d503cc1	0.05083919
169	0x3e310f14	0.17290908
170	0x3e91c165	0.2846786
171	0xbd9c4d24	-0.07631901
172	0xbe747545	-0.2387286
173	0xbdc4b548	-0.09604889
174	0xbdfaf5df	-0.122539274
175	0xbe7191d5	-0.23590787
176	0xbd8f261e	-0.06989692
177	0xbc85a95e	-0.016316112
178	0x3e833b78	0.2563131
179	0xbd76e557	-0.06027731
180	0xbca58c1b	-0.020208409
181	0xbdb815a5	-0.08988503
182	0x3e1ede70	0.1551454
183	0x3e0fbeec	0.14037675
184	0x3e26dd93	0.16295461
185	0xbe175fab	-0.14782588
186	0x3ef23fa3	0.47314176
187	0x3e1395df	0.1441264
188	0xbc3fb2ce	-0.011700345
189	0x3ea17e5e	0.31541723
190	0xbda19bdc	-0.07891056
191	0xbeb82831	-0.35968164
192	0x3ec18eca	0.37804252
193	0x3ecc1f55	0.39867654
194	0xbf0cc75a	-0.54991686
195	0x3eab1d70	0.33420897
196	0xbd50730e	-0.050890975
197	0xbf27400a	-0.6533209
198	0x3e41f68f	0.18941711
199	0x3d11ea28	0.0356237
200	0xbe98d0de	-0.29846853
201	0x3d573d34	0.052548602
202	0xbd95a570	-0.07306945
203	0x3e40d1ef	0.18830083
204	0x3e1145aa	0.14186731
205	0x3ebeb9e4	0.37251198
206	0xbd8e8b77	-0.069601946
207	0xbe779cfb	-0.24180977
208	0xbebf277a	-0.37334806
209	0xbe1c49f5	-0.15262587
210	0xbee85d9c	-0.45383918
211	0x3f0cec7a	0.55048335
212	0xbde862e1	-0.11346985
213	0x3e251194	0.16119987
214	0xbe98308b	-0.29724535
215	0x3ecc38fe	0.39887232
216	0xbeed2833	-0.46319732
217	0x3e90d4a6	0.28287238
218	0x3e808c3a	0.25106984
219	0xbccf004a	-0.025268693
220	0x3e20c346	0.15699491
221	0xbdf038d4	-0.11729589
222	0xbd03aba3	-0.032146107
223	0xbe869e08	-0.26292443
224	0x3ce02501	0.027361395
225	0xbd941741	-0.07230998
226	0xbcdb0cef	-0.026739566
227	0x3c841511	0.016123326
228	0x3e7d30ef	0.24725698
229	0x3dbae424	0.091255456
230	0xbd864f81	-0.06558133
231	0xbd720958	-0.059090942
232	0xbce1d328	-0.027566507
233	0x3e3120f9	0.17297734
234	0x3e3795e7	0.17928277
235	0xbd19767c	-0.03746651
236	0x3f238353	0.6387226
237	0xbd8ee119	-0.06976528
238	0x3e14f5bd	0.14546867
239	0x3de0b42d	0.10971866
240	0x3e04e5e8	0.12978327
241	0xbe4ef2d8	-0.20209825
242	0x3e9f05eb	0.31059203
243	0x3e817dac	0.25291193
244	0xbecc87c4	-0.3994733
245	0x3e0bb859	0.13644542
246	0x3df299b2	0.11845721
247	0xbf23ae38	-0.6393771
248	0x3d74eff8	0.059799165
249	0x3dad7d2b	0.084711395
250	0x3e6f4ef2	0.23369959
251	0xbe3030da	-0.17206135
252	0xbdf7f301	-0.12106896
253	0xbe0c1bc7	-0.13682471
254	0xbe5cf3b1	-0.21577336
255	0xbef0efb6	-0.47057885

linears.0.bias f4 [512]
0	0x3de1435f	0.10999178
1	0xbe0cb970	-0.13742614
2	0xbdabb7a7	-0.08384638
3	0xbe481aba	-0.19541445
4	0xbdd7a06f	-0.10528647
5	0xbd3fd035	-0.04682942
6	0x3c57ef8f	0.013179674
7	0xbdaaf107	-0.083467536
8	0xbd0119b9	-0.03151867
9	0x3d253ce8	0.040341288
10	0xbd48ea91	-0.049051825
11	0xbe2fcc10	-0.17167687
12	0xbd48fcda	-0.049069263
13	0x3d0646e3	0.032782447
14	0xbd70a42c	-0.058750317
15	0x3d72376b	0.059134882
16	0xbd91bd39	-0.071161695
17	0xbe0d1089	-0.13775839
18	0xbdc448f3	-0.095842265
19	0xbc4d41a3	-0.012527856
20	0xbd8c2bd6	-0.068442985
21	0xbcf8822b	-0.030335506
22	0x3d5c6e58	0.05381617
23	0xbdf03631	-0.11729086
24	0xbc83ce61	-0.01608962
25	0xbccb24f9	-0.024797903
26	0x3b5c2586	0.0033591702
27	0x3d373283	0.044725906
28	0xbc682d25	-0.01417092
29	0x3c6f6da7	0.0146135455
30	0x3d892458	0.06696385
31	0xbde1a4c1	-0.110177524
32	0xbd672d64	-0.056439772
33	0x3c670273	0.014099705
34	0xbe088fb0	-0.13336062
35	0xba3a24f2	-0.0007100842
36	0xbd64de50	-0.055876076
37	0xbe2dae65	-0.16961057
38	0xbe2eb758	-0.17062128
39	0xbb82f601	-0.003996611
40	0xbdd4d91b	-0.10392972
41	0xbc22921e	-0.009922532
42	0xbd8e64d6	-0.06952827
43	0xbd8e0228	-0.06934005
44	0xbd719a70	-0.058985174
45	0xbd81ca29	-0.06337387
46	0xbe1e6c55	-0.15471013
47	0xbe17cd91	-0.14824511
48	0xbd27809e	-0.040894143
49	0xbe1e73cf	-0.15473865
50	0xbd64ad8d	-0.055829573
51	0x3cf8232b	0.030290207
52	0xbd879733	-0.06620636
53	0x3d73c8c2	0.05951763
54	0xbe3b5093	-0.18292455
55	0xbd7bcb72	-0.061473317
56	0xbdc5c4c8	-0.09656674
57	0xbcb27dd4	-0.021788515
58	0xbd67677b	-0.05649517
59	0xbdacfe88	-0.084469855
60	0xbdf5e23c	-0.120060414
61	0x3d724005	0.059143085
62	0xbcd5dedd	-0.026107246
63	0x3cb1bf19	0.021697568
64	0xbe101b0d	-0.14072819
65	0xbc94191a	-0.018078376
66	0x3d201c72	0.039089628
67	0xbc076e24	-0.008266006
68	0xbcb9eb93	-0.022695338
69	0x3d834135	0.06408922
70	0xbd2f3cc1	-0.04278255
71	0xbe46d2fe	-0.19416425
72	0xbe27a5c5	-0.1637183
73	0xbd373045	-0.044723768
74	0xbd51d911	-0.0512324
75	0xbe117dea	-0.14208189
76	0xbda887eb	-0.08229049
77	0xbd246f57	-0.040145244
78	0x3d1bb5ad	0.038015056
79	0xbe055430	-0.13020396
80	0xbd551d70	-0.052030027
81	0x3d7d247a	0.061802365
82	0xbd26c95e	-0.040719382
83	0xbe610404	-0.21974188
84	0xbc17d655	-0.009267409
85	0xbdaa413c	-0.08313224
86	0xbe20a9d5	-0.15689786
87	0x3be2531b	0.0069068796
88	0xbe0ed188	-0.13947117
89	0x3d842eb3	0.0645422
90	0x3ce852c4	0.028359778
91	0xbd44ef21	-0.048079614
92	0xbaa39720	-0.0012480952
93	0xbd9db841	-0.07701159
94	0xbe4ef627	-0.20211087
95	0xbc6e00ab	-0.014526526
96	0xbe0d15b2	-0.13777807
97	0xbe2f5a1d	-0.17124219
98	0xbdfa5333	-0.122229
99	0xbd2ae412	-0.04172141
100	0xbd282f39	-0.04106066
101	0xbe4f55c2	-0.20247558
102	0x3cc15970	0.023602217
103	0x3cfef054	0.031120457
104	0x3d4f3d89	0.050595794
105	0x3d5772bf	0.052599665
106	0xbb09bc6d	-0.0021016852
107	0xbe2463d8	-0.16053712
108	0xbde1826c	-0.11011204
109	0x3d1846e6	0.03717699
110	0xbcaaefda	-0.020866323
111	0xbd9b8c88	-0.075951636
112	0xbe0baf9b	-0.13641207
113	0x3aa20b00	0.0012362897
114	0xbc3dadbf	-0.011577069
115	0xbe32f817	-0.17477451
116	0xbd93c7c6	-0.07215838
117	0xbdc82d18	-0.09774226
118	0xbdcd34d6	-0.10019843
119	0xbe106834	-0.1410225
120	0xbd9ed2ab	-0.077550255
121	0x3c51e4ec	0.012810927
122	0xbe910069	-0.28320625
123	0xbc8fbe8a	-0.01754691
124	0xbe00c8df	-0.12576626
125	0xbe734496	-0.23756632
126	0xbe16b25e	-0.14716479
127	0xbe11ac43	-0.14225869
128	0x3e02c21d	0.12769361
129	0xbe0d3530	-0.1378982
130	0xbdd1f501	-0.10251809
131	0x3cccf086	0.025017034
132	0xbcc597e4	-0.024120279
133	0x3d44c6ff	0.04804134
134	0x3de2a580	0.11066723
135	0x3d62f0c6	0.0554054
136	0x3d12a582	0.03580237
137	0xbe0b09b6	-0.13577923
138	0x3bea5886	0.007151666
139	0xbd2350ad	-0.03987186
140	0xbdda8099	-0.10669059
141	0x3d406191	0.046968047
142	0xbb45d4ce	-0.0030186656
143	0x3c35ec29	0.011103668
144	0x3b17e08f	0.002317462
145	0xbd66ef03	-0.056380283
146	0xbe2e1624	-0.17000633
147	0xbbf551cd	-0.007486558
148	0x3db50324	0.0883849
149	0xbd5ba19e	-0.053620927
150	0x3b6a0d10	0.0035713352
151	0xbe5f570a	-0.21810547
152	0xbe41fad0	-0.18943334
153	0x3c8bcf59	0.017066645
154	0xbd97b25f	-0.074070685
155	0x3bbba8ea	0.0057269232
156	0xbd2ef58d	-0.042714644
157	0xbdf89fbb	-0.12139841
158	0xbc2920d5	-0.010322769
159	0xbe3488e7	-0.17630349
160	0x3dbf2c40	0.09334612
161	0xbe5edb48	-0.21763337
162	0x3d851eea	0.06500037
163	0xbc46255c	-0.012093868
164	0x3d3f7cc6	0.046749853
165	0xbc14d30c	-0.009083521
166	0xbe1f8adc	-0.15580314
167	0xbe28b0d6	-0.16473708
168	0xbe39bea5	-0.18139131
169	0xbe0ed27a	-0.13947478
170	0x3d2bf270	0.041979253
171	0x3932950a	0.00017030924
172	0xbe0a2e86	-0.1349431
173	0xbda23d0c	-0.079218
174	0xbd1ec282	-0.038759716
175	0xbdb56f63	-0.08859136
176	0x3dd663c0	0.104682446
177	0xbd499a49	-0.049219403
178	0xbdf2acec	-0.118493885
179	0xbd6e8470	-0.05823177
180	0xbd00ff60	-0.031493545
181	0x3d8d8dca	0.0691181
182	0xbdb24a5f	-0.087055914
183	0x3d5f029e	0.054445855
184	0xbe49373b	-0.19649975
185	0xbd19de6a	-0.037565626
186	0x3ce9c154	0.028534569
187	0x3c11b9e2	0.008894416
188	0xbde14824	-0.11000088
189	0x3ceff7d2	0.029292975
190	0xbe084845	-0.13308819
191	0xbe319829	-0.173432
192	0xbe247250	-0.16059232
193	0xbd665ab6	-0.056238852
194	0xbdc90320	-0.09815049
195	0x3dc8a8e6	0.0979784
196	0x3d6259d6	0.055261455
197	0xbc78fa17	-0.015196345
198	0xbe0b94a8	-0.13630927
199	0x3d20fc7a	0.03930328
200	0xbda9bbfb	-0.082878076
201	0xbda18a70	-0.07887733
202	0x3d935507	0.07193952
203	0x3db5cf09	0.088773794
204	0x3c80d4f1	0.015726538
205	0x3d714af7	0.058909383
206	0x3d0a4843	0.03376032
207	0xbe1ed48b	-0.15510766
208	0xbe156a98	-0.14591444
209	0xb98ec024	-0.00027227507
210	0xbc83ea6c	-0.016102992
211	0x3ce44ee8	0.027869657
212	0x3d8d2264	0.06891325
213	0x3d311171	0.043229524
214	0xbe65fa28	-0.22458708
215	0xbc1d359a	-0.009595299
216	0xbe4945e8	-0.19655573
217	0xbdb98260	-0.0905807
218	0x3cbed19a	0.023293305
219	0xbe0bc5d5	-0.13649686
220	0x3da672f1	0.08127392
221	0xbe6a156e	-0.22859737
222	0xbe25ec77	-0.16203485
223	0x3b52a64f	0.0032142585
224	0xbd88797a	-0.06663795
225	0xbe3af65a	-0.18258038
226	0xbc118a61	-0.00888309
227	0x3c590a65	0.013247107
228	0xbd0e79e0	-0.034784198
229	0xbe3673c8	-0.17817605
230	0x3c8f6caf	0.017507879
231	0xbdef3f36	-0.116819784
232	0x3d15a960	0.03653848
233	0xbaf2678b	-0.0018493993
234	0xbe2dee20	-0.16985369
235	0x3c9649bf	0.018345712
236	0xbd954eaf	-0.07290398
237	0xbe02a9d2	-0.12760094
238	0xbd3cd45f	-0.04610097
239	0x3c4b7e6e	0.01242028
240	0xbba4993d	-0.0050231502
241	0xbe99a18c	-0.30006063
242	0xbdea657c	-0.11445138
243	0xbe735fcf	-0.23767017
244	0xbd674c54	-0.056469277
245	0x3d191bdf	0.037380096
246	0x3d3cb988	0.046075374
247	0xbce553bc	-0.02799403
248	0x3d0e8e1a	0.034803487
249	0x3d2c5351	0.042071644
250	0x3c513ed3	0.012771326
251	0xbde6a907	-0.11262708
252	0xbdb08cca	-0.086206034
253	0xbde02834	-0.10945168
254	0xbe3cd8d9	-0.18442096
255	0xbd8d93e8	-0.069129765

linears.1.weight f4 [2, 512]
0	0x3e07fbd5	0.1327966
1	0x3d9e1885	0.077195205
2	0x3d969c11	0.07353986
3	0xbd24b553	-0.040211987
4	0xbd8bd7bf	-0.0682826
5	0x3d86f22d	0.0658916
6	0xbd77a590	-0.060460627
7	0x3e0295a2	0.12752393
8	0x3dea6954	0.11445871
9	0x3da24ad7	0.07924431
10	0xbda82bd0	-0.082114816
11	0xbd20d54c	-0.039265916
12	0xbd87ea36	-0.06636469
13	0x3dba34d0	0.090921044
14	0xbdd6ff36	-0.104978964
15	0xbd9ecb50	-0.077536225
16	0x3daab78b	0.08335789
17	0x3da84b7d	0.08217523
18	0x3daacaf5	0.08339492
19	0x3e1fbe08	0.15599835
20	0xbd5a0f8e	-0.05323749
21	0x3d8ebe15	0.06969849
22	0x3de19261	0.11014248
23	0xbd1e2690	-0.038610995
24	0x3dd72d06	0.105066344
25	0xbce5c962	-0.028050128
26	0xbdc2c1dc	-0.09509632
27	0x3e0e7eb7	0.13915525
28	0xbd85c0a8	-0.06530887
29	0x3daa7157	0.08322399
30	0x3d91c840	0.07118273
31	0xbd74a0b1	-0.05972356
32	0xbd83cce7	-0.064355664
33	0x3de6d413	0.11270919
34	0xbdd188d4	-0.10231176
35	0x3d0072b6	0.031359397
36	0xbd63fc0a	-0.055660285
37	0xbd6e3329	-0.05815426
38	0xbda69834	-0.08134499
39	0x3df623fa	0.12018581
40	0xbd80d4bf	-0.06290578
41	0xbd45af1f	-0.04826271
42	0xbdb7cc69	-0.08974535
43	0x3d27200d	0.04080205
44	0xbda64d32	-0.081201926
45	0x3d6bfaaa	0.0576121
46	0x3d835711	0.06413091
47	0xbdd2e27e	-0.10297106
48	0x3df8c812	0.121475354
49	0xbc61e6bb	-0.013787921
50	0x3d888312	0.06665625
51	0xbda41fdf	-0.080138914
52	0xbc97835f	-0.01849526
53	0x3dd04765	0.101698674
54	0xbd384235	-0.044985015
55	0x3db997b3	0.090621375
56	0xbd988173	-0.074465655
57	0x3d27b8e6	0.040947817
58	0x3dd51f7a	0.10406394
59	0xbdb48df1	-0.08816136
60	0x3ddf2d12	0.10897268
61	0x3df50946	0.119646594
62	0x3dc31a9f	0.09526562
63	0xbd8403ce	-0.06446038
64	0x3de1dcc8	0.11028439
65	0xbd7acf3d	-0.061232794
66	0xbd9a9846	-0.07548575
67	0x3d6133cb	0.054981034
68	0x3db7c36d	0.089728214
69	0x3d96e8e9	0.07368643
70	0xbd372288	-0.044710666
71	0xbdb03582	-0.08603956
72	0x3dad9d1c	0.08477232
73	0xbd63844e	-0.055546097
74	0xbdc5a01d	-0.0964968
75	0x3ce356cb	0.027751347
76	0x3db156ed	0.08659158
77	0x3dea585d	0.11442635
78	0xbd93f7e5	-0.072250165
79	0x3db8743b	0.09006544
80	0xbdae9b9a	-0.085257724
81	0xbdabd780	-0.08390713
82	0x3df17a25	0.11790875
83	0xbcd8c6ac	-0.026461922
84	0x3dbde1ad	0.0927156
85	0xbce1d074	-0.027565219
86	0x3d988a44	0.07448247
87	0x3db7420b	0.089481436
88	0x3dd498df	0.1038072
89	0x3db69c4f	0.08916532
90	0x3d77eac4	0.060526624
91	0x3e082bee	0.13298008
92	0x3e00721f	0.12543534
93	0xbdc2cd69	-0.09511835
94	0xbd29b261	-0.04142988
95	0x3d745a9c	0.059656724
96	0x3db237a1	0.087020166
97	0x3d96bc2a	0.07360108
98	0x3db46120	0.088075876
99	0x3dd9ee95	0.10641209
100	0xbd5e3cd2	-0.05425722
101	0xbd89e1d4	-0.067325264
102	0x3db6425b	0.08899375
103	0x3d5c3619	0.05376253
104	0xbcb4fbfb	-0.02209281
105	0x3dca0320	0.09863877
106	0x3da6fac1	0.08153296
107	0xbd475ef6	-0.048674546
108	0x3d78e2f0	0.0607633
109	0xbd1cf4eb	-0.03831951
110	0xbd334a87	-0.043772247
111	0x3db88712	0.090101376
112	0xbde0f738	-0.10984653
113	0xbd64ae23	-0.055830132
114	0xbdb72b80	-0.08943844
115	0x3d597c3b	0.05309699
116	0x3d8f15ad	0.06986556
117	0x3ca6455b	0.020296743
118	0x3dad4448	0.08460289
119	0x3daf8973	0.08571138
120	0xbd3c0527	-0.04590335
121	0xbd7ca938	-0.061684817
122	0xbc545e77	-0.012961975
123	0x3e073cce	0.13206789
124	0xbd893b4d	-0.06700764
125	0xbcd13015	-0.025535623
126	0xbd7b6a4c	-0.06138067
127	0xbdb9d401	-0.0907364
128	0x3e063a9c	0.13108295
129	0xbd1411f0	-0.03614992
130	0x3e10d72c	0.14144582
131	0xbd797bb6	-0.060908996
132	0x3d93af89	0.07211215
133	0xbd228788	-0.039680034
134	0x3dd9ef71	0.10641373
135	0xbd6db89d	-0.05803739
136	0xbd71d1e3	-0.059038054
137	0x3dcfcc6d	0.10146413
138	0x3dbb9848	0.09159905
139	0x3e05ec56	0.13078436
140	0xbd936a96	-0.07198064
141	0x3d8e4643	0.06946995
142	0xbd49eef8	-0.049300164
143	0xbd8edc79	-0.069756456
144	0x3e184202	0.1486893
145	0x3d7feab8	0.062479705
146	0xbdab64f1	-0.083688624
147	0x3d999a90	0.075001836
148	0x3d96e803	0.073684715
149	0xbda0ae2b	-0.0784572
150	0xbdaee643	-0.08540013
151	0xbd810121	-0.062990434
152	0x3da7c7a9	0.08192379
153	0xbd980951	-0.07423652
154	0xbd1b6f89	-0.037948165
155	0x3dfa43e5	0.12219981
156	0x3db3721e	0.087620005
157	0x3d748bfe	0.05970382
158	0x3dde62e0	0.10858703
159	0xbdabef64	-0.083952695
160	0xbd875aad	-0.06609092
161	0xbda298e7	-0.0793932
162	0x3d7a7fe0	0.061157107
163	0x3d8f3ae1	0.06993652
164	0x3e07bdf6	0.13256058
165	0x3d664294	0.056215838
166	0x3da2e811	0.079544194
167	0xbd1d6e55	-0.0384353
168	0xbd9a8859	-0.075455375
169	0xbdc1ba54	-0.094593674
170	0xbd06d603	-0.03291894
171	0xbd8a096a	-0.06740077
172	0xbd98312d	-0.074312545
173	0xbd75db31	-0.06002349
174	0x3e0bcc75	0.13652213
175	0x3d94af27	0.0725997
176	0x3e18560d	0.14876576
177	0x3d9f3a46	0.07774787
178	0x3dca07a3	0.09864738
179	0x3d8c36f4	0.06846419
180	0xbda4bc5f	-0.080437414
181	0x3dc437fd	0.095809914
182	0x3d8729e5	0.065997876
183	0x3dccc7a3	0.09999015
184	0xbd884e33	-0.0665554
185	0xbdf4b992	-0.11949457
186	0xbda8158c	-0.08207235
187	0x3d8c4546	0.0684915
188	0x3d978668	0.07398683
189	0xbd788bc1	-0.060680155
190	0x3d774fef	0.060378965
191	0xbdac062f	-0.08399617
192	0xbda218e7	-0.07914906
193	0x3d57b0b4	0.05265875
194	0x3e00cf05	0.12578972
195	0x3d84d633	0.06486168
196	0xbd92df27	-0.07171469
197	0xbdd66d6c	-0.10470089
198	0xbdceac92	-0.10091509
199	0xbdb9569b	-0.09049722
200	0x3de90c68	0.113793194
201	0x3dabcbb1	0.083884604
202	0x3d5b8f0d	0.05360322
203	0xbd37471c	-0.04474555
204	0xbd3672f5	-0.044543225
205	0xbde3a339	-0.111151166
206	0xbd9271cb	-0.071506105
207	0xbdb1d96f	-0.0868405
208	0xbbc219c7	-0.005923483
209	0xbd4af568	-0.049550444
210	0xbd8fdb66	-0.07024269
211	0x3dc65ae6	0.09685306
212	0xbd8162d6	-0.063176796
213	0x3dcf60a0	0.10125852
214	0xbdd0c0ce	-0.101930246
215	0xbd191cd4	-0.03738101
216	0xbdb2be7a	-0.08727737
217	0x3cd00b88	0.025396124
218	0x3d93591f	0.07194733
219	0x3dc1851f	0.09449219
220	0x3dd35f0a	0.10320862
221	0xbd1fcb34	-0.03901215
222	0xbda5a8aa	-0.08088811
223	0x3dd3ee6b	0.10348209
224	0x3d1d06ed	0.038336683
225	0xbdbf60b2	-0.09344615
226	0xbde0f2f5	-0.109838404
227	0xbd2276c4	-0.039664045
228	0xbd383819	-0.044975374
229	0xbd9ef395	-0.07761303
230	0x3d8b51c7	0.06802707
231	0x3dfa1493	0.122109555
232	0xbdc0b47f	-0.09409427
233	0xbdd1fb19	-0.10252971
234	0x3d99ddc1	0.07512999
235	0x3d451dad	0.048124004
236	0xbd9323fc	-0.07184598
237	0xbd20b94b	-0.03923921
238	0x3d5e3d85	0.05425789
239	0xbd9963aa	-0.074897125
240	0xbd7a6967	-0.061135676
241	0xbdac3240	-0.08408022
242	0x3dbd00ef	0.09228694
243	0xbd49bc52	-0.049251862
244	0x3e0ceeee	0.1376302
245	0x3d2dfd37	0.042477813
246	0x3df81e15	0.12115113
247	0x3d9ad169	0.07559473
248	0x3d9d3059	0.07675237
249	0x3de28d38	0.110620916
250	0x3d8ffa15	0.07030121
251	0xbd830951	-0.06398261
252	0x3ddc78dc	0.107652396
253	0xbd9e950b	-0.077432714
254	0xbcdef932	-0.027218435
255	0x3db05b3a	0.0861115

linears.1.bias f4 [2]
0	0x3d26dd4e	0.040738396
1	0x3cf3b01e	0.029747065
