hw3/model_hidden_None.pth (torch, 2068 bytes, 2 tensors)

linears.0.weight f4 [2, 50]
0	0x3fb5f1fb	1.4214472
1	0xbe932694	-0.2874037
2	0xbec3b9d4	-0.38227713
3	0xbf89242c	-1.0714164
4	0xbf20a1e1	-0.6274701
5	0xc09a7036	-4.8261976
6	0x3fcde262	1.6084712
7	0x403d2eff	2.9559934
8	0x40456fa6	3.0849395
9	0x3feeda9c	1.8660464
10	0x403fc2f7	2.9962747
11	0xc06cf41a	-3.7023988
12	0x3f0830bc	0.5319936
13	0xbfd07b78	-1.628768
14	0x40106df2	2.2567105
15	0xc03e5fbc	-2.9745932
16	0x408c53d4	4.385233
17	0xbfe90ad3	-1.8206428
18	0xbfc34d7f	-1.5258025
19	0xbeb5608f	-0.3542523
20	0xc00c9603	-2.196656
21	0xbeb1a5e2	-0.3469687
22	0x3feede36	1.8661563
23	0x3faac087	1.3340005
24	0x3e8e7bc4	0.278288
25	0x3f8607aa	1.0471089
26	0x3ed2f6c5	0.41203895
27	0xbf63ec78	-0.890327
28	0xc0545bdd	-3.318107
29	0xbd8bb5e5	-0.06821803
30	0x3f8fa3f7	1.1221913
31	0xbe77ee97	-0.24212109
32	0x3d9816c8	0.0742622
33	0xbe5b6cc9	-0.21428217
34	0xc0498539	-3.1487563
35	0x3fc7e383	1.5616306
36	0xc0c08692	-6.016427
37	0x3e36623c	0.17810911
38	0xbee4c67c	-0.44682682
39	0xbfbae4ce	-1.4601076
40	0x3eb79e3f	0.3586292
41	0x40078824	2.1176844
42	0xc0a21423	-5.064958
43	0xc0850e77	-4.1580157
44	0x40579126	3.3682342
45	0xc015726d	-2.335109
46	0xbfebe2dd	-1.8428608
47	0x409f4cfc	4.9781475
48	0xbfa2a1fe	-1.2705686
49	0xbf20f535	-0.62874156
50	0xbfba0660	-1.4533195
51	0x3eb34621	0.35014442
52	0x3e767290	0.2406714
53	0x3fa89f8b	1.3173689
54	0x3f2320c8	0.63721895
55	0x409d39e1	4.9133153
56	0xbfd0f8fb	-1.6325983
57	0xc038068e	-2.8754
58	0xc0365fc0	-2.849594
59	0xc0047f65	-2.0702755
60	0xc037531d	-2.8644478
61	0x40687842	3.63234
62	0xbec48ef7	-0.38390324
63	0x3fccb329	1.5992175
64	0xc0094ab1	-2.1451838
65	0x403b35d7	2.9251611
66	0xc08515dd	-4.158919
67	0x3fe0fd4b	1.7577299
68	0x3fb00e57	1.3754376
69	0x3e9ca5d2	0.3059526
70	0x40108e85	2.2586987
71	0x3ec14963	0.37751302
72	0xbfe4cd2d	-1.7875115
73	0xbfadaec9	-1.3568965
74	0xbf07baa7	-0.53019184
75	0xbf9c89b8	-1.2229528
76	0xbf0c0f2a	-0.5471064
77	0x3f5cd1c6	0.8625759
78	0x40587432	3.382092
79	0x3d3c9ed6	0.046049915
80	0xbf88a41a	-1.067508
81	0x3cd18bec	0.025579415
82	0x3de12ff7	0.10995477
83	0x3e38fddd	0.18065591
84	0x404c1321	3.1886675
85	0xbfc0ff94	-1.5077996
86	0x40c3d1da	6.1193666
87	0xbe31e533	-0.17372589
88	0x3ec82684	0.39091885
89	0x3fbab429	1.458623
90	0xbe94db1e	-0.29073423
91	0xc00c4b42	-2.1920934
92	0x40a6ae43	5.208772
93	0x408c2c73	4.380426
94	0xc058e60b	-3.3890407
95	0x400ca895	2.1977894
96	0x40037496	2.0539908
97	0xc0a004a1	-5.000565
98	0x3fa56884	1.2922521
99	0x3ecfb8a3	0.40570554

linears.0.bias f4 [2]
0	0x3fcbb79a	1.5915406
1	0xbfd18fd8	-1.6372023
