hw3/model_learned_at_0.0001.pth (torch, 110928 bytes, 4 tensors)

linears.0.weight f4 [512, 50]
00000000: c41a cdbd 64ba 5e3c 8003 323d e5e6 4e3e
00000010: a6ea 1d3c 1626 123e 1433 54bd e153 05bd
00000020: 46f2 09be 32d9 93be ad8e 04be f45b 413e
00000030: a3fc 9d3d cb39 463e b0c3 7abd 89c1 963d
00000040: 02fb 6e3d 0452 3b3e d67e afbd 3d19 d13d
00000050: e137 c53d d790 febd 7d0f 9ebe 43c1 da3d
00000060: e27e 36be e066 87bd f1b9 7b3c 365a cbbc
00000070: 8437 443e 252e 94be 7429 ea3d 1397 8bbe
00000080: 4cce 1b3d 3bc1 483e 5aa9 ab3d 23cf 873d
00000090: 0634 903e 9440 543e a239 993d 2b9b 043d
000000a0: 6b42 66bb 83b8 85be 114a 623e 19b6 eb3e
000000b0: 3626 e5bc a196 0e3d 95be b93d 5964 cdbe
000000c0: 7fa2 013e 4739 77be 653e 043e b25b ad3d
000000d0: 84ba 36be e533 293d 22ff 3ebc d9f9 5dbd
000000e0: be94 3b3d 611f 093e d88e cf3e 22db 033e
000000f0: 8904 a93e 7f8d 9fbe 6c61 5e3d 6e08 73be
00000100: f07e 4b3e 0fa5 26be 1cb5 4d3e 6d08 97be
00000110: f804 9fbd 07d5 3abe f696 8cbd 8979 3a3e
00000120: 5b0e d93e 0b2f f1bd 32d5 81bd f72c b3bd
00000130: 8462 37be d914 0f3a e702 13be 7329 903e
00000140: 1fd1 5ebd a26f c63d 60bc 0f3e 2f08 91be
00000150: 6bd2 39bd 2a8c 233c 3d0e 7fbe 4b08 70be
00000160: be90 23be 45e0 9fbd cda6 6d3d f0ce 793e
00000170: ca5a babd 369b 9abe c4bc 533d c30f 55be
00000180: 3cf9 0c3e c01b ec3e df51 08be 9847 063d
00000190: e86e 94be 1dba 91bd 85a5 3a3d 316f 0fbd
000001a0: 7d23 3d3d 129d 8a3b af28 e9bd c86b 44be
000001b0: 64c0 bcbe 64e6 89be d74e e8bd d0d5 453e
000001c0: f23d e13c 2b24 ef3c daee 5dbe 3a78 5d3d
000001d0: fd03 18bd 1455 213d 1100 91bd 22e9 44bc
000001e0: f61b 223e 76f9 22be 1976 7ebe ef7f b9bd
000001f0: 79b2 26be a32f bdbd b2a9 593c 3f52 74bd
00000200: 9cbd 903e 69f7 29be c8b6 e13d bb3f debd
00000210: d4e5 36be ab03 8c3e 49ee 9c3d 18f4 abbd
00000220: c372 113e 5d84 33bd 26a2 d83d b229 653d
00000230: 9210 d03c 2eb4 abbe 24b1 813e 153f 5f3e
00000240: 4f15 11be e766 063e 4686 943d 2156 98be
00000250: 4193 433e e808 83be 7b59 41be 4024 33be
00000260: 9226 503d f65c 11bd e1eb 313e 315e a53a
00000270: 7457 a43d ef19 91bd efaa 5bbe da65 89be
00000280: a449 14be 651a 573e 523f 4a3b 5339 373d
00000290: 3b7a 98bd 7ff1 b53d 6799 05be cd22 983e
000002a0: 02f9 b33c d818 623a 98f9 c73d faf4 f6bd
000002b0: 6e75 33be 76ad fbbc bebf 19be d7af 7abd
000002c0: 3ddb 1abd cff8 d53d ccbc 903e 69b7 8ebe
000002d0: 65ca 9c3c 0304 b8bd 062c 10bd 51aa 0e3e
000002e0: 5d2b 473e 4769 283d 7c91 a93e 11b7 a13d
000002f0: 9b39 093d 37ee e33d ccd6 5fbd 5003 8ebe
00000300: c7f0 7c3e c296 ee3e 5563 10be 89f2 9e3d
00000310: b86a ab39 a394 e5be 6c83 cf3d 6c4b e6bd
00000320: 9c3e c83d 0cbb 713d 5ddf 203d 46f5 96bc
00000330: 74c8 41bd 1175 52be ddf9 d3bd af90 98bb
00000340: 7d3f 6c3e d833 7b3e db7c bb3e d4ca e5bd
00000350: 884f c7bd ab7f 89be 9f8e f83d 1791 043d
00000360: 5fb9 a03d 7a0e 59be df2c a43d aa56 01be
00000370: d70b 8abe be07 5e3e 42a5 523e 6049 33bd
00000380: 9737 8bbd 88e5 c83d 7f40 323d 5b8a 28bc
00000390: ce68 93be 9c0c b93c 8171 c5bd b25a 893e
000003a0: e223 113e b070 93bd 6966 7ebd 8e12 733d
000003b0: 385d 91be cae1 53be fa7e 3ebe 0338 64be
000003c0: a9a0 cd3d af02 2f3e 9489 4ebe a3b8 e2be
000003d0: fe2e c33d 5a1a 51be 8643 d1bd 5a2b 013f
000003e0: 4906 cfbd 9df1 803e 5e13 3d3e 7ade 973c
000003f0: 9b45 97bd 3845 08be 4bec c3bd bde7 62be
-0.10014871 0.013594244 0.04346037 0.20205267 0.009638464 0.14272341 -0.051806524 -0.032550696
-0.13471326 -0.28876644 -0.12945051 0.18882734 0.07714202 0.19357984 -0.06122178 0.07361133
0.05834485 0.18293005 -0.08569114 0.10209892 0.09629799 -0.1242997 -0.30871192 0.10681393
-0.1782184 -0.06611419 0.015364156 -0.02482329 0.19161803 -0.28941455 0.11433688 -0.27263698
0.038038537 0.19604962 0.083819106 0.06631305 0.2816469 0.2072776 0.07481696 0.032374542
-0.0035134803 -0.26117334 0.22098567 0.46037367 -0.027972322 0.03481162 0.09069554 -0.40115622
0.12659644 -0.24142943 0.12914427 0.08464755 -0.17844588 0.041309256 -0.011657508 -0.05419335
0.04579615 0.13390876 0.4053867 0.12876561 0.33011273 -0.3116264 0.054292127 -0.23733684
0.19872642 -0.16273902 0.20088619 -0.29498616 -0.077646196 -0.18245326 -0.06864731 0.18210424
0.42393765 -0.11776551 -0.06339492 -0.08748811 -0.17908674 0.00054581236 -0.14356576 0.28156623
-0.054398652 0.09689261 0.14036703 -0.28326556 -0.045366686 0.009982148 -0.24907775 -0.23440664
-0.15973184 -0.07806448 0.0580204 0.24395347 -0.09099348 -0.30196542 0.051693693 -0.20806794
0.1376695 0.46114922 -0.13312481 0.03278312 -0.28990865 -0.071155764 0.045568008 -0.03501815
0.046176422 0.00423015 -0.11384713 -0.1918174 -0.36865532 -0.26933587 -0.113431625 0.19319844
0.027495358 0.02919205 -0.21673146 0.054069735 -0.03711318 0.039387777 -0.07080091 -0.012018474
0.15830979 -0.15915474 -0.24849738 -0.090576045 -0.1627902 -0.092376016 0.013285087 -0.05964875
0.2826966 -0.16598286 0.11021191 -0.10851999 -0.1786111 0.27346548 0.07662637 -0.083961666
0.14203934 -0.043827403 0.10577802 0.055947967 0.025398526 -0.33535904 0.2533046 0.21801408
-0.14168285 0.13125192 0.07252173 -0.2975321 0.19099142 -0.25592732 -0.1888179 -0.17494297
0.050818034 -0.035489045 0.17375137 0.0012616572 0.08024493 -0.070850246 -0.21451925 -0.2683552
-0.14481217 0.21006162 0.0030860496 0.044732403 -0.074451886 0.08883952 -0.130468 0.2971405
0.021969322 0.0008624918 0.09764403 -0.12058444 -0.17525265 -0.030722361 -0.1501455 -0.06120285
-0.03780674 0.10447847 0.2826904 -0.27874306 0.019139478 -0.0898514 -0.035198234 0.13932158
0.19450136 0.041116025 0.33118808 0.07896245 0.033502202 0.1112942 -0.054648206 -0.27736902
0.24701224 0.46599394 -0.14100392 0.07761104 0.00032695173 -0.44839963 0.101324886 -0.11244854
0.09777567 0.059016272 0.039275516 -0.018427502 -0.047310308 -0.2055247 -0.10350392 -0.0046559195
0.23071094 0.24531496 0.36618695 -0.11220327 -0.09731966 -0.26855215 0.12136578 0.03236493
0.07847857 -0.21196929 0.08016371 -0.12630716 -0.26962158 0.21682641 0.20570853 -0.043771148
-0.06797712 0.098094046 0.04351854 -0.010286893 -0.28790897 0.02258902 -0.0964079 0.26827008
0.14173844 -0.07199228 -0.062109385 0.059343867 -0.28391433 -0.206916 -0.18603125 -0.22286992
0.10040409 0.17090867 -0.2016967 -0.44281492 0.095304474 -0.20420209 -0.10217957 0.50456774
-0.10108621 0.25184336 0.18464419 0.018538702 -0.07386323 -0.13307655 -0.09566554 -0.22158714

linears.0.bias f4 [512]
00000000: 4c11 f6bd 6417 73bd a62a d23d bff1 bdbd
00000010: 2729 aabd 133d c03c 2f19 02bc 4f09 943d
00000020: 78a7 83bd e3ce 2c3d 63c3 a7bd 4d2e 883d
00000030: 494b 423d 2e4f 1dbd d076 d33d ca2f b23d
00000040: 0810 84bd 35e7 e4bd bc97 af3d 8cc8 f6bd
00000050: 5891 91bb 132a f43c 9b55 f93c 4c0e 953d
00000060: 6a6e 8ebd 56f7 c13b ee78 a5bd a82c b03d
00000070: 5e5a 393d 623e f23d 9cb7 e93d 9867 9e3d
00000080: c67b 963d e863 ff3b b52b e9bd d68c 92bd
00000090: ac39 86bd e396 50bd e2e3 46bd 0718 11be
000000a0: d175 793c 3ebe b6bd 5e8b febd a218 423d
000000b0: 22e3 04be f32e 5e3d ebbb 703b 9624 7b3d
000000c0: 3fea 033e b729 aa3d 45c5 e1bd 3102 f0bb
000000d0: 6fe2 903d 81cf eebd 2b16 00be b690 12be
000000e0: 79b7 ffbd 934a a23d 22c7 29bd 05bd 7e3d
000000f0: 0daf 99bd b720 37bd f7c7 e5bc cf70 e03d
00000100: af66 2c3c 5331 c9bd de12 ef3d 1c4c af3c
00000110: fd3d ee3d 08f5 a23b a650 e3bd e0ef 453d
00000120: 5126 a0bd a81e d2bd 8e6b 5f3b ff05 493d
00000130: ec53 adbd 0d72 0bbd 4dd1 7cbd 6a69 cd3d
00000140: 1c20 853c f259 b1bc 774b 2bbd 1bcf d4bc
00000150: 59eb 0bbb 6952 783c 2d8f 7abd 81d1 7cbd
00000160: 4f7b c6bd c8a6 023e e94e 81bd 6fdf 083e
00000170: 2ec5 9fbc 427d 5fbd 45e4 7dbd 9fea ba3b
00000180: 03ed 77bc 4f50 2e3d e246 86bd 73b4 d63d
00000190: 0a3c c63c 31df e9bc d661 abbd 9024 0f3d
000001a0: 5548 0f3c 6056 0ebd de03 03be 5a0d 853d
000001b0: 6b6a de3c fa4e 903d 8d30 d1bd 41a0 cb3d
000001c0: 64ce e03d d7d4 fd3c 73d9 de3d 5b59 e4bd
000001d0: 9454 9e3d a555 6bbd 6747 603d 7a93 9f3d
000001e0: 2b80 133d a17a 14bd a087 933d 4b23 ea3d
000001f0: 0dce debd dbb7 033e 013d fb3c 0acc 843d
00000200: d0c8 e93b ffb2 edbc f949 13bd f9bd 6fbc
00000210: f9b0 01be d88c 933d f3c0 5c3d 9d48 0abe
00000220: affb 993d 53fa dabd 4ad6 81bd 7836 f93d
00000230: 2ec4 a5bc d2db ae3d 95dc 763d c701 713c
00000240: 1f69 11be 199c e23d 84ae 83bd f92a d6bd
00000250: 67c9 58bd fb38 e13d 15d5 1dbd 0439 933d
00000260: 509f 013c cdcc 3fbd 1ff4 053d 537b be3d
00000270: 529e f13d 0fc3 ccba a2f2 d23a 05ed 103d
00000280: ab2b 69bd 7e3e 32bd ab59 873d dee3 c93d
00000290: 484f ff3b eccc 7aba 8afc 02be 4333 c6bc
000002a0: 032a 81bd 17cf f1bc a954 8dbc c3f8 803d
000002b0: 501b d73d e060 793c 12fa a73c 4ed8 88bd
000002c0: b152 bbbd d54c 13be 9f3d a83b d3fd 043d
000002d0: 6c6b ec3d 2899 b33d 029a d63b 146c 2bbd
000002e0: 91ae c23d 8783 e0bd e728 8fbc 720f 573d
000002f0: 4ad4 e8bd c447 d23d e874 06bd be7e 073e
00000300: 5441 42bc e272 bcbd d3e4 8e3d e17b debd
00000310: 38fa d4bd 7f35 febc 5e37 b23d 7cf2 d93c
00000320: b2b7 063e 1907 54bd 0c44 33bc 6b4a 8ebd
00000330: 1c7d 113e 1ecd 8e3c cace 0bbe ce70 833c
00000340: aa7c dabd 4c16 6138 92cf 323d 3cae a1bd
00000350: 24e1 0bbe beed cdbc 8e0d cfbd 2fd6 f43d
00000360: d074 88bd 03a4 d4bc d9a4 e23d 0f2d e7bc
00000370: 9294 77bc 2fbf 1bbe bcdc 8e3d 85b8 d43d
00000380: fa4e 08be 22b7 ff3d 60bd ac3d a42d 933d
00000390: 155d 49bc 7c12 7bbc 6115 e23d 8e00 923d
000003a0: 1e9e adbd 8c08 90bd 99e2 0d3e 4967 97bd
000003b0: cb20 7cbd 60fa abbd 4b56 0b3d 3883 0bbd
000003c0: a449 053e a391 a2bd a830 503d 39c2 cfbd
000003d0: 47de e7bd a3ec 06be 4674 d1bb a91e 4f3d
000003e0: 5c8b 453d 019f fe3d c87e 8d3d 9421 5abc
000003f0: a1ef 843d 1b3e 04be 0969 073e 9d96 dcbd
-0.12015018 -0.05934848 0.10262041 -0.09274625 -0.083086304 0.023466622 -0.007940575 0.07228338
-0.064284265 0.04218949 -0.08191564 0.06649456 0.04743508 -0.03840559 0.10325396 0.08700521
-0.0644837 -0.11176912 0.08573863 -0.1204997 -0.004442375 0.029805219 0.030436328 0.072781175
-0.069546536 0.0059193773 -0.08079706 0.086022675 0.045252196 0.11828305 0.11411974 0.07734603
0.07347827 0.007793892 -0.113852896 -0.071557686 -0.06553969 -0.050925147 -0.04855717 -0.14169322
0.0152258435 -0.089230046 -0.12428926 0.047386773 -0.1297727 0.054243993 0.0036733102 0.061314188
0.12882327 0.08308738 -0.11023954 -0.00732448 0.07074439 -0.11660672 -0.12508456 -0.14313015
-0.124861665 0.0792438 -0.041449673 0.06219198 -0.075040914 -0.044708934 -0.028049452 0.109590165
0.010522529 -0.09823861 0.116735205 0.021398596 0.11632917 0.0049730577 -0.11099367 0.048324466
-0.07819808 -0.102597535 0.0034091207 0.049077984 -0.084632725 -0.034044314 -0.061723042 0.10029872
0.016250663 -0.021649335 -0.041820016 -0.025977662 -0.0021349995 0.015156367 -0.0611717 -0.061723236
-0.09691488 0.12758934 -0.06313879 0.13366483 -0.019503202 -0.054562815 -0.061985273 0.0057042385
-0.015132192 0.042557057 -0.065564886 0.10483637 0.02419855 -0.028548809 -0.0836827 0.034946978
0.008745273 -0.034750342 -0.12794444 0.06496687 0.027150353 0.070463136 -0.102143385 0.099426754
0.10976866 0.030985279 0.10881319 -0.11149856 0.07730976 -0.057454724 0.054755595 0.07791801
0.036010902 -0.03624976 0.07203603 0.11432513 -0.10879145 0.12863104 0.030668737 0.0648423
0.0071345344 -0.029016016 -0.035959218 -0.014632695 -0.12665166 0.07204598 0.05389495 -0.13504262
0.07518708 -0.10692277 -0.063397005 0.12168592 -0.020235147 0.08538021 0.060268957 0.014709896
-0.14200257 0.110649295 -0.064297706 -0.10457415 -0.052926447 0.10997196 -0.03853329 0.07188609
0.007911518 -0.046826173 0.032703515 0.09300866 0.11797775 -0.0015622097 0.0016094039 0.03538229
-0.05692641 -0.04351663 0.066089 0.09857915 0.0077914335 -0.0009567279 -0.12791649 -0.024194365
-0.06306841 -0.029517693 -0.017252283 0.062974475 0.10503256 0.015220851 0.020504985 -0.06681882
-0.091466315 -0.14384778 0.005134299 0.03246863 0.115439266 0.087694466 0.006549121 -0.04185112
0.09505952 -0.10962587 -0.017475558 0.052504964 -0.11368616 0.102675945 -0.032826334 0.13231942
-0.011856396 -0.092016 0.069772385 -0.10863472 -0.10399288 -0.031031368 0.08701967 0.026604883
0.13156012 -0.05176458 -0.010941517 -0.06947788 0.14207882 0.017431792 -0.13653103 0.016045
-0.10668309 5.3664946e-05 0.043654986 -0.07894561 -0.13660103 -0.025137778 -0.10110007 0.11954915
-0.06662905 -0.025957113 0.110665984 -0.028219728 -0.0151111055 -0.1520965 0.069756955 0.10386757
-0.13311377 0.12486102 0.08434558 0.0718644 -0.012290259 -0.015324231 0.11039234 0.07129012
-0.08477424 -0.0703288 0.13855971 -0.07392747 -0.06155471 -0.083973646 0.034017842 -0.034060687
0.13016373 -0.07937934 0.050827652 -0.10144467 -0.11321693 -0.13176207 -0.0063920347 0.05056635
0.048228607 0.12432671 0.06908947 -0.01331367 0.06491018 -0.12914316 0.13223661 -0.10770915

linears.1.weight f4 [2, 512]
00000000: 7a89 4ebd 0fa5 2b3d 6423 36bd 4121 a0bd
00000010: c5c0 2bbb 9969 a13d 20e1 093d 6ebf 7e3d
00000020: cbfd b63d 5c5c 253d 8364 933d b86d e1bc
00000030: de70 5c3d 52c2 40bd 7f6c 27bd 3b24 a4bc
00000040: 5bbc 5c3d e8c2 9cbc cc10 a23d 9c5a 903d
00000050: 6eac 77bd a29e 47bd 2a5d 22bd f2a2 a8bc
00000060: c118 6bbd 0317 2b3d 79bc 74bc 70bc 363d
00000070: 1b72 cc3c 62fd aebc 3fb1 913d 7212 9d3d
00000080: 7750 17bd f28c 603d 652a 1fbd 781f 2d3d
00000090: c279 28bd d929 f7bc 3c5a acbd de7e 86bc
000000a0: 0898 46bd a087 63bd befc 4dbd 4ca3 34bd
000000b0: aa11 7d3d 1e60 993d 08bf 8f3d d5d9 5ebd
000000c0: 24a3 893d 6236 b63d c4e8 d23c 79a6 4fbd
000000d0: 289e 643d e5f3 853d 38e4 533d f92e 73bd
000000e0: facd d2bb 169b 993d 66db 8abd 500a 683d
000000f0: c3fe 21bc 5582 ae3c b241 92bd 1996 80bd
00000100: a6a7 723d 2b00 cdbc 01fc 5c3d 9b36 a63c
00000110: 9ba0 c4bb 3fdc 703d 21bd 81bd 0c8b 923d
00000120: d271 023d 2463 5f3d 4dd5 52bd a0b3 23bd
00000130: 9a33 64bd 9480 583d 87ca b4bc d9bc 5e3c
00000140: 1c44 77bd 6a89 9c3d ab83 9f3d 186e 173d
00000150: d5c2 a73c 1113 12bd 3fbc 4fbd 41f8 e23a
00000160: 1b01 1c3d 41d6 553d bea5 86bd e049 aa3d
00000170: 8f4d 123d a9a8 66bd 314d bc39 abf6 a93d
00000180: f2c9 08bd 609c 883d fe9d 1abd 74dd e03b
00000190: 7ab2 7abd 7e16 023d fd67 403d b76b d23c
000001a0: 0924 7ebd 588e 913c a743 c23c e47d 71bd
000001b0: f436 1a3c 149c 33bb b732 b4bc e78e 77bd
000001c0: 594a 03bd 0340 04bd 1beb aebc 9fda 8e3d
000001d0: 57f0 833d a0a9 1a3d 945a 3b3d 0ae3 92bd
000001e0: d48d 733d f8ec a13c 0539 a03d 1c07 0f3d
000001f0: 1c29 e63c 3a4b 3ebd b589 4d3d 0cb5 1d3d
00000200: 7d98 463d b1c9 b0bc 0cab 89bd 53d4 973c
00000210: 945f 9bbd f907 16bd 21b3 40bd 93d0 22bd
00000220: 97de 913d 48ee 523d 7bfb 163d 6275 523d
00000230: b8b5 8a3d 1d6a 8d3d 36a8 1e3d 1413 823d
00000240: 3066 78bd 31e8 743d b817 6c3d faf1 8abd
00000250: 8f42 8abd 3815 f63c cf66 5b3d b476 ac3d
00000260: 15a6 8bbd 032b bf3d 93dd 38bd bb3a 05bd
00000270: 7f83 023d 21ed 7c3d dab0 213d 851a b3bc
00000280: e8c9 87bd 32c9 15bd 8c74 82bd 627e a6bd
00000290: 0db9 073d 745d 003d 76b3 97bd f272 e3bb
000002a0: 24f2 cd3d eaa7 9d3d 2d5c 5c3b 67d5 55bd
000002b0: e412 533d 297e 11bd 1877 cabc e1cd a53c
000002c0: 7d16 7fbc 787c 84bd 1c00 84bd b164 543d
000002d0: 3fbd 0d3d b50a 64bc 2206 53bd dd67 83bd
000002e0: 0ec5 ef3c b4b0 74bd ffde 91bd 9b9f 833d
000002f0: 0bef 023d b362 73bd 721a 00bd ffb0 a13d
00000300: 934e f23c 3fd7 63bd 4a49 723d a485 3fbd
00000310: b4e0 663d 74c4 ac3c 4311 8f3d d7b5 0ebd
00000320: 8e0d c03d 7d58 3f3d f638 683d e1e2 563d
00000330: 4efe 62bd 0be8 283d 2641 643d afc1 95bd
00000340: ca47 ccbc db9f f2bc 25eb 933d 14a8 58bd
00000350: 606d 48bb a7bf 073d 1f51 013c c376 27bd
00000360: a99a b5bc 1c1c 9f3b a572 7bbd 8f7b c93c
00000370: a5c8 313c a401 b5bc ae61 4dbd b5ce a33d
00000380: ca06 3d3d 9b56 bc3c 02ed 533c a1e9 3f3d
00000390: 5a78 58bd 0696 87bd 0ea1 88bd 59c9 2abd
000003a0: 68d4 84bd 6722 853d eafb fa3c adae 47bd
000003b0: 1002 64bd 5f71 ba3d b309 703d d170 c4bb
000003c0: d009 973d ccec ebbc 03bd 033d cacf 55bc
000003d0: 8ea9 89bd bfa3 7cbd d747 dfbc 8419 8f3d
000003e0: 173a 4f3d 35a4 973d f83e 603d e75b 013d
000003f0: c4f4 a7bc 7039 4ebd 4484 8f3d d205 9d3d
-0.050424077 0.04190546 -0.044467345 -0.07818843 -0.002620743 0.07881469 0.03366196 0.06219428
0.08935126 0.040371284 0.071969055 -0.027518138 0.053818576 -0.04706032 -0.040874954 -0.020036807
0.053890567 -0.019135907 0.0791336 0.07048532 -0.060467176 -0.04873527 -0.03963963 -0.02058551
-0.057396654 0.041769993 -0.0149375135 0.0446133 0.024956753 -0.021361057 0.07113885 0.07669534
-0.03694197 0.054821916 -0.03885879 0.04226634 -0.041131742 -0.030171322 -0.08415648 -0.016417917
-0.048484832 -0.055549264 -0.05028986 -0.044101045 0.061784424 0.07489036 0.07018858 -0.05440696
0.0672057 0.088970914 0.025745757 -0.05069587 0.055814892 0.0654066 0.05173132 -0.05937097
-0.0064332457 0.075002834 -0.06780128 0.05665046 -0.0098874 0.021302382 -0.07141437 -0.06278629
0.059241913 -0.025024494 0.053951267 0.02028971 -0.006000591 0.058803793 -0.063349016 0.07155427
0.03184683 0.054537907 -0.05147295 -0.039966226 -0.055713274 0.052856997 -0.022069229 0.0135948295
-0.06036769 0.07643397 0.077887855 0.036970228 0.020478645 -0.035662714 -0.050716635 0.0017316417
0.03808699 0.05220628 -0.065745816 0.08314872 0.035718497 -0.05631319 0.00035915666 0.08299001
-0.033395715 0.06670451 -0.03774833 0.006862337 -0.061205365 0.03175973 0.04697417 0.025686128
-0.062046085 0.01776807 0.0237139 -0.05895795 0.009412516 -0.0027406262 -0.021996839 -0.060439017
-0.032053325 -0.03228761 -0.021352341 0.069752924 0.064423256 0.037759423 0.04574068 -0.071722105
0.05946143 0.019766316 0.078233756 0.03491889 0.028095774 -0.04645846 0.050180156 0.038502738
0.048485268 -0.021580549 -0.06722078 0.018533861 -0.075865895 -0.036628697 -0.04704583 -0.039749693
0.07122534 0.051496774 0.036860924 0.051381476 0.06772941 0.06905005 0.038734637 0.06351295
-0.06064433 0.059791747 0.057639807 -0.067844346 -0.06750976 0.030039415 0.053564843 0.08421078
-0.06818787 0.09334376 -0.045133185 -0.032526713 0.031863686 0.06174958 0.0394753 -0.021863231
-0.066303074 -0.036568828 -0.06369886 -0.08129574 0.033135463 0.031339124 -0.07407276 -0.006941193
0.1005595 0.07698043 0.0033624277 -0.05220547 0.051531687 -0.035520706 -0.024714991 0.020239772
-0.0155693265 -0.06469053 -0.06445333 0.05185384 0.034604307 -0.013918568 -0.05151952 -0.06416295
0.029268768 -0.05973883 -0.07122611 0.06426927 0.03196625 -0.0594203 -0.03127522 0.078950875
0.029578483 -0.055625197 0.059151925 -0.04675831 0.056366637 0.02108977 0.06985714 -0.034841385
0.09377585 0.04671525 0.056694947 0.052462462 -0.055418305 0.04123692 0.055726193 -0.07312333
-0.024936575 -0.02961724 0.07222585 -0.052894667 -0.003058277 0.03314176 0.007892876 -0.040884744
-0.022168474 0.004855646 -0.06138863 0.02459505 0.01085106 -0.022095509 -0.050141983 0.079984106
0.046149053 0.022990515 0.012934925 0.046853665 -0.05284915 -0.066204116 -0.06671344 -0.041695926
-0.06485826 0.06500702 0.0306377 -0.04875057 -0.05566603 0.09103655 0.058603 -0.005994894
0.073749185 -0.028799437 0.032162677 -0.013050029 -0.06721793 -0.061679598 -0.027255936 0.069872886
0.05059251 0.07404367 0.05474755 0.031581786 -0.020502456 -0.050347745 0.070076495 0.07667126

linears.1.bias f4 [2]
00000000: 0c7e 1ebd 4bbd ba3b
-0.038694426 0.005698835
