hw3/model_learned_at_0.2.pth (torch, 110840 bytes, 4 tensors)

linears.0.weight f4 [512, 50]
-1.4779137 -1.9141636 -1.7252831 -1.4954867 1.3997929 -1.6024266 -1.706435 -1.1670275
1.7363721 -1.4061811 -1.7381095 1.4758534 1.7456478 -1.706668 0.87545764 1.7390012
-1.5550373 1.5630475 1.4632678 1.5872717 -1.107876 -1.6789845 2.0343661 -1.4270462
1.2836605 -1.6521025 1.7092189 -1.7411741 -1.5885526 1.5430522 0.9044001 -1.6441356
1.6405556 2.1473858 -1.6482937 -1.4271548 2.0216198 1.6299515 1.5968165 1.9238148
1.6979029 -1.3851596 -1.5874406 -1.6441507 -1.775761 1.4895968 -1.4677325 1.8477745
1.5210619 1.7875305 -1.5129671 -0.99365515 -1.4102422 -1.4007411 1.2254161 -1.3040577
-1.282573 -1.2769293 1.4872117 -0.9706452 -1.3044403 1.3550522 1.4353249 -1.4978619
1.2388365 1.4909891 -1.4666673 1.5225767 1.3065854 1.4379739 -1.151321 -0.8820444
1.3415194 -1.2645468 1.2001565 -1.4474669 1.0293096 -1.5383337 -1.2998046 1.4335076
1.3382875 -1.0644977 1.4908859 1.0578783 -1.5671388 -1.513205 1.2428252 1.284727
1.4597663 1.3413882 1.531277 -1.3940268 -1.4034581 -1.2871871 -1.5029105 1.2954394
-1.2933912 1.2168478 1.4164093 1.428787 -1.4009856 -1.0790681 -1.5038526 -1.5671936
1.4958177 -1.4913268 -1.5813243 -1.262328 1.4426769 -0.92099285 -1.5724508 1.4347185
1.4309517 -1.5078366 1.328505 1.3481443 -1.5370718 1.4927762 1.4009074 1.3088078
-1.4748564 -0.8906908 1.451144 -1.4375771 -0.35611078 -1.476016 0.9594949 -1.7006688
-1.5003229 1.3824083 1.352701 -0.92817605 1.3488007 1.1364318 -1.4753273 -1.4274023
1.1069599 1.2095401 1.5403318 1.405511 1.4414282 -1.327104 -1.4101248 -1.4405235
-1.4778948 1.3513614 -1.5158079 1.577424 1.3649302 1.578297 -1.3298444 -1.105521
-1.3534582 -1.4681332 1.4631355 -1.4854896 -1.5265596 -1.3297435 1.5525368 -0.99814826
-1.5094932 1.3638996 1.4114232 -1.3877304 1.385623 1.4381158 -1.4395028 1.4189755
1.3639678 1.3498505 -1.2400445 -0.7613148 1.694145 -1.3874699 -0.3173013 -1.4085119
0.92133427 -1.5617349 -1.3448881 1.4929767 1.3599463 -1.1107807 1.4822236 0.96267474
-1.4709955 -1.4047712 0.9132099 1.4188795 1.5434151 1.4939185 1.4404376 -1.3106178
-1.3595443 -1.3627238 -1.4878929 1.4139898 -1.3494002 1.5382745 1.555686 1.40784
-1.6180344 -1.967857 -1.5664037 -1.6247765 1.5846965 -1.7722962 -1.7809486 -1.3108277
1.8876617 -1.2804967 -1.7747109 1.8317319 1.8097367 -1.8633196 0.9916284 1.6689574
-1.7245793 1.6024011 1.5649352 1.6223191 -1.1924055 -1.7163872 2.0958087 -1.4453002
1.1364567 -1.822325 1.9906702 -1.9510721 -1.8672726 1.6920393 1.0698065 -1.7944504
1.6539668 2.249796 -1.9292709 -1.7326895 2.0107892 1.8811762 1.5645126 2.0333612
1.7495804 -1.6703182 -1.8426241 -1.8479357 -1.6954615 1.6192117 -1.7617588 1.8438058
1.6199538 1.8838052 -1.3813621 -0.9866615 -1.3175318 -1.4906225 1.4438406 -1.4914584
00000000: 472c bdbf 5003 f5bf 14d6 dcbf 1c6c bfbf
00000010: 6a2c b33f 511c cdbf 766c dabf 2861 95bf
00000020: 7141 de3f befd b3bf 5f7a debf c4e8 bc3f
00000030: 6371 df3f 1974 dabf fe1d 603f 9797 de3f
00000040: 760b c7bf f111 c83f 5c4c bb3f b82b cb3f
00000050: e1ce 8dbf f7e8 d6bf 0e33 0240 73a9 b6bf
00000060: fd4e a43f 1878 d3bf afc7 da3f cbde debf
00000070: b155 cbbf bc82 c53f c486 673f 0973 d2bf
00000080: bafd d13f c56e 0940 4afb d2bf 02ad b6bf
00000090: 3862 0140 40a2 d03f 7c64 cc3f 903f f63f
000000a0: e254 d93f e94c b1bf 4131 cbbf 8873 d2bf
000000b0: 234c e3bf 1cab be3f a9de bbbf e083 ec3f
000000c0: 28b2 c23f cdcd e43f e8a8 c1bf 2f60 7ebf
000000d0: d182 b4bf 7c4b b3bf 6fda 9c3f 5deb a6bf
000000e0: 5a2b a4bf 6b72 a3bf f45c be3f 347c 78bf
000000f0: e6f7 a6bf 5a72 ad3f bab8 b73f f0b9 bfbf
00000100: 3292 9e3f bbd8 be3f c1bb bbbf cbe3 c23f
00000110: 313e a73f 870f b83f 7d5e 93bf a9cd 61bf
00000120: e8b6 ab3f abdc a1bf ba9e 993f 9846 b9bf
00000130: 6bc0 833f 1ee8 c4bf ff5f a6bf 2d7d b73f
00000140: 014d ab3f 7641 88bf 59d5 be3f 8e68 873f
00000150: 0198 c8bf b4b0 c1bf e514 9f3f ef71 a43f
00000160: 9fd9 ba3f 9cb2 ab3f e200 c43f 786f b2bf
00000170: 84a4 b3bf 8cc2 a4bf 5f5f c0bf f5d0 a53f
00000180: d88d a5bf abc1 9b3f e64c b53f 7ee2 b63f
00000190: 7f53 b3bf e71e 8abf 3e7e c0bf cd99 c8bf
000001a0: f476 bf3f cce3 bebf d668 cabf f793 a1bf
000001b0: a3a9 b83f 30c6 6bbf 1146 c9bf dba4 b73f
000001c0: 6d29 b73f ca00 c1bf 740c aa3f fe8f ac3f
000001d0: c5be c4bf 4a13 bf3f ef50 b33f 0487 a73f
000001e0: 18c8 bcbf 5004 64bf 16bf b93f 8702 b8bf
000001f0: 2754 b6be 18ee bcbf 75a1 753f 84af d9bf
00000200: 950a c0bf c1f2 b03f 4e25 ad3f f29c 6dbf
00000210: 80a5 ac3f 9976 913f 86d7 bcbf 1eb5 b6bf
00000220: ddb0 8d3f 36d2 9a3f 9829 c53f c9e7 b33f
00000230: b880 b83f 8bde a9bf f87e b4bf 1363 b8bf
00000240: a82b bdbf 69f9 ac3f fe05 c2bf 08e9 c93f
00000250: 08b6 ae3f a305 ca3f 5738 aabf b681 8dbf
00000260: 1e3e adbf caeb bbbf 0648 bb3f 8624 bebf
00000270: 4e66 c3bf 0935 aabf 87b9 c63f a586 7fbf
00000280: 1337 c1bf 4394 ae3f 84a9 b43f 26a1 b1bf
00000290: 185c b13f 2e14 b83f a141 b8bf fda0 b53f
000002a0: 7f96 ae3f e7c7 ac3f c7b9 9ebf 87e5 42bf
000002b0: bed9 d83f 9d98 b1bf 5175 a2be 1e4a b4bf
000002c0: 90dc 6b3f eee6 c7bf 4b25 acbf dc19 bf3f
000002d0: b812 ae3f 102e 8ebf 81b9 bd3f da71 763f
000002e0: 9549 bcbf 8bcf b3bf 20c8 693f d89d b53f
000002f0: a08e c53f b938 bf3f 4260 b83f 53c2 a7bf
00000300: 8c05 aebf bc6d aebf 4673 bebf 9efd b43f
00000310: 25b9 acbf 2ee6 c43f b820 c73f 1a34 b43f
00000320: c01b cfbf bde2 fbbf eb7f c8bf adf8 cfbf
00000330: 56d7 ca3f 9ada e2bf 20f6 e3bf 34c9 a7bf
00000340: e69e f13f 51e7 a3bf ba29 e3bf 3176 ea3f
00000350: 74a5 e73f 4281 eebf 5cdb 7d3f 65a0 d53f
00000360: 04bf dcbf 7b1b cd3f cc4f c83f 27a8 cf3f
00000370: bea0 98bf 93b2 dbbf bb21 0640 99ff b8bf
00000380: 6a77 913f f241 e9bf 48ce fe3f bbbc f9bf
00000390: ca02 efbf be94 d83f 6bef 883f 8db0 e5bf
000003a0: 2fb5 d33f a8fc 0f40 59f2 f6bf c5c8 ddbf
000003b0: c5b0 0040 62ca f03f f341 c83f 9722 0240
000003c0: 40f2 df3f fdcc d5bf 1bdb ebbf 2889 ecbf
000003d0: e204 d9bf 5442 cf3f 5081 e1bf d401 ec3f
000003e0: a55a cf3f 8720 f13f 79d0 b0bf d995 7cbf
000003f0: e2a4 a8bf b8cc bebf c5cf b83f 1ce8 bebf

linears.0.bias f4 [512]
-1.6965383 -1.2989616 -1.4695195 -1.452297 -1.7028426 -1.4168965 -1.6093059 -1.949956
-2.1325636 -1.9059995 -1.947193 -1.4622228 -1.4359455 -1.7274255 -2.0051782 -1.4089774
-2.1164048 -1.4910716 -2.0602741 -1.5623361 -1.8285633 -2.030611 -1.9461769 -1.9037132
-1.7947443 -1.7503647 -1.4892166 -1.7771329 -1.3449683 -1.9656333 -1.4311067 -1.6124012
-2.0458064 -1.8367634 -1.5465505 -1.8057793 -1.3680228 -1.8885353 -1.7917316 -2.0487118
-1.5409502 -1.8534132 -1.6787852 -1.98632 -1.4278183 -1.9856465 -1.8109071 -1.4040909
-1.3518604 -1.8527142 -1.5314723 -1.5271431 -1.5093942 -1.540198 -1.742351 -1.5521628
-1.9763812 -1.4355785 -1.6212404 -1.9176196 -1.5768751 -2.0330837 -2.0320415 -1.9462365
-1.8576717 -1.9985268 -1.7130252 -1.4405662 -2.050664 -1.358183 -1.7319301 -1.79837
-1.9702729 -1.5635537 -1.4487069 -1.9221205 -1.6394047 -1.6922677 -1.4177389 -1.8864505
-1.4205239 -1.7754182 -1.4543617 -1.8773854 -1.834694 -1.9600859 -1.6118112 -1.4997374
-1.9037325 -1.2992357 -1.7200618 -1.7556306 -1.3587145 -1.536761 -1.6963904 -1.3862532
-1.9438229 -1.960329 -1.5952753 -1.4468327 -1.9216058 -1.9353393 -1.4799242 -1.8460184
-1.6554308 -1.3440843 -1.9273213 -1.9474007 -1.5178015 -2.0155852 -1.4723686 -2.0548317
-1.871361 -1.9364734 -1.3686452 -1.7900773 -1.8293136 -1.3765095 -1.8484026 -2.0537608
-2.0907698 -1.792733 -1.9685218 -1.3998854 -1.5134408 -1.6591316 -1.8296536 -1.507318
-1.6255902 -1.607908 -1.5728251 -2.0260687 -1.431625 -1.5512519 -1.4284976 -1.9536729
-1.5120221 -2.1261308 -1.523147 -2.0039399 -1.6702396 -1.5609818 -2.1133487 -1.8465332
-1.441351 -1.9613541 -1.3696123 -1.4965006 -1.285377 -1.5861287 -1.5451658 -2.013282
-2.0142992 -1.5430076 -1.9521662 -1.6278327 -1.2868716 -1.5460805 -1.4601336 -1.7584691
-1.4159836 -1.9318483 -1.3217862 -1.9653423 -1.9250377 -1.9837314 -1.4757106 -1.298988
-2.0394633 -1.5823982 -2.0005682 -1.77895 -1.5392522 -1.7271155 -2.0562577 -1.3536041
-1.4223207 -1.3370918 -1.33673 -1.9297041 -1.8375354 -1.8011862 -1.865586 -1.4287874
-1.9513409 -1.8344126 -1.5909847 -1.6492317 -1.8955371 -1.4922655 -1.4478581 -1.6193769
-1.782745 -1.5208863 -1.321428 -1.9213037 -2.1199892 -1.550181 -1.4489971 -1.7137594
-1.6308547 -1.7209804 -1.5273448 -1.4824468 -1.745628 -1.3186055 -1.3202883 -1.3757169
-1.4649352 -2.005712 -1.3815547 -1.4755048 -1.4785403 -1.3858433 -1.9760371 -1.4738297
-1.6766933 -1.3498553 -1.4343506 -1.919874 -2.0832758 -1.9087703 -1.5266637 -1.5547295
-2.1259916 -1.4434671 -1.6462127 -1.5330145 -2.0058212 -2.0056992 -1.491442 -1.4159986
-1.9391658 -1.9803169 -1.9370329 -1.6548213 -1.3252895 -1.4257237 -1.7341249 -1.8709971
-1.9726187 -1.6866505 -1.5329262 -1.9372176 -1.9505168 -1.7073854 -1.5392066 -1.7982385
-1.7990065 -1.7816161 -1.4910802 -1.3893613 -1.9569383 -1.9186107 -1.745146 -1.413455
00000000: 2b28 d9bf 6044 a6bf 3719 bcbf dee4 b9bf
00000010: bff6 d9bf dd5c b5bf bcfd cdbf 2998 f9bf
00000020: ec7b 08c0 cbf7 f3bf 9f3d f9bf 1e2a bbbf
00000030: 10cd b7bf 471c ddbf d754 00c0 5f59 b4bf
00000040: 2d73 07c0 6fdb bebf 88db 03c0 a1fa c7bf
00000050: 5d0e eabf 88f5 01c0 531c f9bf e0ac f3bf
00000060: 2eba e5bf f30b e0bf a69e bebf 1779 e3bf
00000070: ec27 acbf df99 fbbf 812e b7bf 2a63 cebf
00000080: 7eee 02c0 101b ebbf 5ef5 c5bf c723 e7bf
00000090: 5f1b afbf 86bb f1bf 7657 e5bf 181e 03c0
000000a0: db3d c5bf a53c edbf 6fe2 d6bf bc3f febf
000000b0: c0c2 b6bf aa29 febf cecb e7bf 40b9 b3bf
000000c0: c309 adbf bd25 edbf 4907 c4bf 6d79 c3bf
000000d0: d433 c1bf 3525 c5bf 5c05 dfbf 45ad c6bf
000000e0: 0ffa fcbf 09c1 b7bf ce84 cfbf 8f74 f5bf
000000f0: 0bd7 c9bf 0b1e 02c0 f80c 02c0 471e f9bf
00000100: 30c8 edbf bacf ffbf 6944 dbbf 7964 b8bf
00000110: 143e 03c0 f1d8 adbf e3af ddbf fd30 e6bf
00000120: e731 fcbf 8722 c8bf 3a6f b9bf 0b08 f6bf
00000130: 03d8 d1bf 3a9c d8bf 7878 b5bf 3677 f1bf
00000140: bad3 b5bf e740 e3bf 8628 babf 2a4e f0bf
00000150: 41d7 eabf 18e4 fabf d44f cebf 65f7 bfbf
00000160: 82ad f3bf 5b4d a6bf fc2a dcbf 81b8 e0bf
00000170: 5bea adbf 96b4 c4bf 5223 d9bf bf70 b1bf
00000180: 30cf f8bf 10ec fabf fb31 ccbf d031 b9bf
00000190: 2ef7 f5bf 33b9 f7bf 286e bdbf 554a ecbf
000001a0: 28e5 d3bf f40a acbf 77b2 f6bf 6d44 f9bf
000001b0: 5247 c2bf 59ff 00c0 9376 bcbf 5d82 03c0
000001c0: c288 efbf 5cde f7bf c42f afbf 4121 e5bf
000001d0: f326 eabf 7731 b0bf 7598 ecbf d170 03c0
000001e0: 2ccf 05c0 4678 e5bf 86f8 fbbf 722f b3bf
000001f0: 6eb8 c1bf 6d5e d4bf 1732 eabf ccef c0bf
00000200: 5713 d0bf eecf cdbf 5552 c9bf 1cab 01c0
00000210: 7d3f b7bf 6c8f c6bf 02d9 b6bf f411 fabf
00000220: f189 c1bf 8712 08c0 7bf6 c2bf 8d40 00c0
00000230: 69ca d5bf 40ce c7bf 1b41 07c0 335b ecbf
00000240: 317e b8bf a70d fbbf 754f afbf 558d bfbf
00000250: 3c87 a4bf 4406 cbbf fec7 c5bf 9dd9 00c0
00000260: 47ea 00c0 4681 c5bf 95e0 f9bf d25c d0bf
00000270: 35b8 a4bf f7e5 c5bf a8e5 babf 8415 e1bf
00000280: f33e b5bf ce46 f7bf 4a30 a9bf 5690 fbbf
00000290: a367 f6bf e9ea fdbf 16e4 bcbf 3d45 a6bf
000002a0: 9186 02c0 068c cabf 4f09 00c0 a2b4 e3bf
000002b0: 3706 c5bf 1f12 ddbf ba99 03c0 e642 adbf
000002c0: 9b0e b6bf d325 abbf f819 abbf 8b00 f7bf
000002d0: 5c34 ebbf 458d e6bf 86cb eebf 81e2 b6bf
000002e0: 8ac5 f9bf 08ce eabf 63a5 cbbf 061a d3bf
000002f0: f6a0 f2bf 8e02 bfbf 6a53 b9bf be47 cfbf
00000300: fd30 e4bf 67ac c2bf 8d24 a9bf 48ed f5bf
00000310: e7ad 07c0 556c c6bf bd78 b9bf 785c dbbf
00000320: d9bf d0bf 1649 dcbf 0980 c3bf d1c0 bdbf
00000330: bd70 dfbf 11c8 a8bf 35ff a8bf 7e17 b0bf
00000340: ff82 bbbf 965d 00c0 c9d6 b0bf 57dd bcbf
00000350: cf40 bdbf 5063 b1bf c9ee fcbf 74a6 bcbf
00000360: e39d d6bf 0fc8 acbf cd98 b7bf 6ebe f5bf
00000370: 6454 05c0 9652 f4bf b769 c3bf 6001 c7bf
00000380: 3f10 08c0 88c3 b8bf 19b7 d2bf d239 c4bf
00000390: 605f 00c0 605d 00c0 92e7 bebf 713f b5bf
000003a0: 9636 f8bf 067b fdbf b2f0 f7bf 2fd1 d3bf
000003b0: 16a3 a9bf 1d7e b6bf cef7 ddbf d57c efbf
000003c0: c57e fcbf 2ae4 d7bf ed36 c4bf bff6 f7bf
000003d0: 89aa f9bf 9b8b dabf b904 c5bf ae2c e6bf
000003e0: d845 e6bf ff0b e4bf b7db bebf 97d6 b1bf
000003f0: f47c fabf 0995 f5bf f260 dfbf 18ec b4bf

linears.1.weight f4 [2, 512]
0.97599196 0.27175653 0.24735509 0.30666578 0.99676234 0.23292351 0.31868252 0.8726325
0.9091093 1.005316 0.99655026 0.26222202 0.15415157 1.0145212 0.9199727 0.09371191
0.97184074 0.26960447 0.9845562 0.32968023 0.943335 0.9465245 0.9945781 0.88476163
0.9779501 1.010872 0.4007711 0.97693187 0.1499732 0.94512355 0.059051123 0.086977154
0.9086575 0.9927883 1.0252976 0.95748866 0.18876782 0.93907326 0.9867296 0.9040336
0.1864814 0.9564378 0.9799458 0.9384843 0.32396644 0.94970405 1.0018996 0.08149921
0.32586092 0.9340376 0.08553774 0.20472695 0.26529357 0.23211797 1.014061 0.1052915
0.9133986 0.376473 0.08609282 0.94247466 0.368722 0.9085736 0.86611134 1.0228709
1.0443922 0.98866016 0.9126283 0.20000839 0.8787369 0.1643446 0.9769454 1.0080205
0.89706427 0.05035249 0.41136777 0.90775675 0.9954987 0.96497166 0.25120515 0.9641341
0.20734231 1.0182763 0.20943111 0.9660632 0.92652935 0.91656506 0.23187779 0.34921828
0.9917908 0.3372477 1.0065345 0.9811628 0.17952219 -0.022649217 0.98352915 0.2331489
0.9160775 0.9298561 0.99536496 0.34843808 0.9540422 0.97263616 0.4184718 0.9455966
1.0199311 0.3647704 0.9079698 0.9561611 0.40602517 0.97299755 0.101536475 0.9894716
1.0381612 0.85485333 0.26683545 0.9611457 0.98875695 0.43530297 0.9837036 0.98916095
0.8855083 1.010152 0.91817135 0.2854838 0.29007617 0.96961415 0.9651746 0.3295775
0.23604807 1.0217576 0.98622257 0.9759999 0.24690919 0.37511382 0.20390221 0.96025485
0.29375735 0.9671428 0.29858294 0.92753744 0.9720504 0.37658146 0.93097526 1.014508
0.29219785 0.91382325 0.17752716 0.46321854 0.15841946 0.10771953 0.16781923 0.9406374
0.92189854 0.09923757 0.84303296 0.19911526 0.13490196 0.39535508 0.27782056 0.96443164
0.22553855 0.90143615 0.45385617 0.9578276 1.0238411 0.95323 0.3488564 0.45528057
1.0193083 0.4054265 0.97881687 0.95766276 0.14841866 0.97271717 0.86241657 0.43310946
0.42617577 0.34758416 0.32726604 0.92742556 0.99927986 0.9472386 0.968188 0.25770488
0.8765976 0.9872571 0.3883884 0.9841188 0.9028518 0.071471475 0.25686246 0.13824506
0.957974 0.032028645 0.28828964 0.9343969 0.94291747 1.0114306 0.3069783 1.0059985
0.98402786 0.97522575 0.14871874 0.34737533 1.007993 0.23383649 0.43687385 0.2876802
0.39841253 0.98110294 0.26807576 0.12956202 0.33535054 0.3610527 0.8949996 0.2997885
0.9659613 0.14503664 0.18409246 0.92946833 0.88226795 0.9237321 0.40289176 0.18961905
0.87326807 0.22681685 1.0153323 0.17418468 0.8478029 0.8743742 0.25761542 0.19779523
0.876498 0.8869294 0.9410571 0.95686674 0.20066524 0.1411911 1.0317638 0.9224021
0.9281848 1.0347403 0.11615403 0.80740315 0.8946579 0.9681721 0.24714625 0.9670317
1.002085 0.9649977 0.19541602 0.19521666 0.92928463 0.9500621 1.005488 0.17087188
00000000: 9cda 793f ac23 8b3e a74a 7d3e 4c03 9d3e
00000010: d12b 7f3f 8083 6e3e 5b2a a33e d864 5f3f
00000020: 63bb 683f 32ae 803f eb1d 7f3f f741 863e
00000030: e9d9 1d3e d5db 813f 5583 6b3f 08ec bf3d
00000040: 8eca 783f 9909 8a3e e00b 7c3f d9cb a83e
00000050: 677e 713f 6e4f 723f ac9c 7e3f bd7f 623f
00000060: f05a 7a3f 4164 813f df31 cd3e 3518 7a3f
00000070: 9392 193e 9ef3 713f 97df 713d 1421 b23d
00000080: c79d 683f 6027 7e3f f43c 833f fa1d 753f
00000090: 5a4c 413e 1b67 703f 509a 7c3f bf6e 673f
000000a0: fbf4 3e3e 1cd9 743f badd 7a3f 8240 703f
000000b0: eede a53e ce1f 733f 3f3e 803f 0fe9 a63d
000000c0: 3ed7 a63e 171d 6f3f 692e af3d f1a3 513e
000000d0: 8fd4 873e 55b0 6d3e c0cc 813f 12a3 d73d
000000e0: 7ed4 693f 12c1 c03e 6f51 b03d 0546 713f
000000f0: 21c9 bc3e 4898 683f 79b9 5d3f 6fed 823f
00000100: a5ae 853f d518 7d3f 02a2 693f 00cf 4c3e
00000110: e7f4 603f f349 283e 1819 7a3f d106 813f
00000120: 01a6 653f 6a3e 4e3d cc9e d23e bf62 683f
00000130: 01d9 7e3f 6208 773f f69d 803e 7ed1 763f
00000140: 8b51 543e e156 823f 1c75 563e eb4f 773f
00000150: 0731 6d3f 02a4 6a3f 5f71 6d3e bdcc b23e
00000160: 00e6 7d3f bbab ac3e 1fd6 803f 7c2d 7b3f
00000170: aad4 373e da8a b9bc 91c8 7b3f 96be 6e3e
00000180: 0e84 6a3f 0d0b 6e3f 3dd0 7e3f 7a66 b23e
00000190: 1c3c 743f affe 783f f041 d63e 9e12 723f
000001a0: 1a8d 823f 30c3 ba3e b570 683f f9c6 743f
000001b0: 88e2 cf3e 5e16 793f 5bf2 cf3d 034e 7d3f
000001c0: 77e2 843f abd7 5a3f a89e 883e a50d 763f
000001d0: 2d1f 7d3f 08e0 de3e 00d4 7b3f a739 7d3f
000001e0: acb0 623f a94c 813f 470d 6b3f ef2a 923e
000001f0: dd84 943e a238 783f af15 773f 62be a83e
00000200: 96b6 713e f4c8 823f 1579 7c3f 21db 793f
00000210: c3d5 7c3e eb0e c03e becb 503e 43d3 753f
00000220: 5d67 963e ac96 773f dddf 983e 1873 6d3f
00000230: 4cd8 783f 49cf c03e 6554 6e3f 66db 813f
00000240: f59a 953e 52f0 693f aec9 353e fb2a ed3e
00000250: b638 223e 0f9c dc3d ced8 2b3e 9dcd 703f
00000260: 8b01 6c3f 113d cb3d 02d1 573f dfe4 4b3e
00000270: bd23 0a3e fb6b ca3e 7f3e 8e3e fee4 763f
00000280: 94f3 663e 85c4 663f d65f e83e 3134 753f
00000290: 3a0d 833f e206 743f 4e9d b23e 891a e93e
000002a0: b278 823f 1094 cf3e be93 7a3f 6329 753f
000002b0: 10fb 173e fe03 793f 55c7 5c3f 86c0 dd3e
000002c0: b633 da3e 8df6 b13e 6a8f a73e c36b 6d3f
000002d0: ced0 7f3f 3b7e 723f 2bdb 773f e5f1 833e
000002e0: b368 603f e2bc 7c3f d8da c63e 36ef 7b3f
000002f0: 4c21 673f a35f 923d 7a83 833e 1d90 0d3e
00000300: c93d 753f 7830 033d b39a 933e a334 6f3f
00000310: 0a63 713f 8f76 813f 422c 9d3e 8fc4 803f
00000320: 40e9 7b3f 65a8 793f ba49 183e 2edb b13e
00000330: ea05 813f d572 6f3e eead df3e d24a 933e
00000340: bafc cb3e 9029 7b3f 3a41 893e e8ab 043e
00000350: 11b3 ab3e e6db b83e b21e 653f e17d 993e
00000360: 3d49 773f 7c84 143e bc82 3c3e a3f1 6d3f
00000370: 50dc 613f b579 6c3f d447 ce3e 7f2b 423e
00000380: 7f8e 5f3f ad42 683e 69f6 813f 785d 323e
00000390: 9c09 593f fdd6 5f3f 2be6 833e d58a 4a3e
000003a0: 2c62 603f ce0d 633f 1ee9 703f 38f5 743f
000003b0: 307b 4d3e 6694 103e d610 843f 8b22 6c3f
000003c0: 859d 6d3f 5f72 843f 2ae2 ed3d f9b1 4e3f
000003d0: 4d08 653f 20da 773f e813 7d3e 648f 773f
000003e0: 5244 803f 170a 773f 231b 483e e0e6 473e
000003f0: 99e5 6d3f 4537 733f d5b3 803f 0af9 2e3e

linears.1.bias f4 [2]
0.017707065 -0.06760107
00000000: 680e 913c 6e72 8abd
